models/STGCN/best_model_p001.pth (torch, 21674 bytes, 32 tensors)

layer1.A f4 [21, 21]
000000 00 00 80 3f 00 00 80 3f 00 00 00 00 00 00 00 00
       1.0 1.0 0.0 0.0
000010 00 00 00 00 00 00 80 3f 00 00 00 00 00 00 00 00
       0.0 1.0 0.0 0.0
000020 00 00 00 00 00 00 80 3f 00 00 00 00 00 00 00 00
       0.0 1.0 0.0 0.0
000030 00 00 00 00 00 00 80 3f 00 00 00 00 00 00 00 00
       0.0 1.0 0.0 0.0
000040 00 00 00 00 00 00 80 3f 00 00 00 00 00 00 00 00
       0.0 1.0 0.0 0.0
000050 00 00 00 00 00 00 80 3f 00 00 80 3f 00 00 80 3f
       0.0 1.0 1.0 1.0
000060 00 00 00 00 00 00 00 00 00 00 00 00 00 00 00 00
       0.0 0.0 0.0 0.0
000070 00 00 00 00 00 00 00 00 00 00 00 00 00 00 00 00
       0.0 0.0 0.0 0.0
000080 00 00 00 00 00 00 00 00 00 00 00 00 00 00 00 00
       0.0 0.0 0.0 0.0
000090 00 00 00 00 00 00 00 00 00 00 00 00 00 00 00 00
       0.0 0.0 0.0 0.0
0000a0 00 00 00 00 00 00 00 00 00 00 00 00 00 00 80 3f
       0.0 0.0 0.0 1.0
0000b0 00 00 80 3f 00 00 80 3f 00 00 00 00 00 00 00 00
       1.0 1.0 0.0 0.0
0000c0 00 00 00 00 00 00 00 00 00 00 00 00 00 00 00 00
       0.0 0.0 0.0 0.0
0000d0 00 00 00 00 00 00 00 00 00 00 00 00 00 00 00 00
       0.0 0.0 0.0 0.0
0000e0 00 00 00 00 00 00 00 00 00 00 00 00 00 00 00 00
       0.0 0.0 0.0 0.0
0000f0 00 00 00 00 00 00 00 00 00 00 00 00 00 00 00 00
       0.0 0.0 0.0 0.0
000100 00 00 00 00 00 00 80 3f 00 00 80 3f 00 00 80 3f
       0.0 1.0 1.0 1.0
000110 00 00 00 00 00 00 00 00 00 00 00 00 00 00 00 00
       0.0 0.0 0.0 0.0
000120 00 00 00 00 00 00 00 00 00 00 00 00 00 00 00 00
       0.0 0.0 0.0 0.0
000130 00 00 00 00 00 00 00 00 00 00 00 00 00 00 00 00
       0.0 0.0 0.0 0.0
000140 00 00 00 00 00 00 00 00 00 00 00 00 00 00 00 00
       0.0 0.0 0.0 0.0
000150 00 00 00 00 00 00 00 00 00 00 00 00 00 00 80 3f
       0.0 0.0 0.0 1.0
000160 00 00 80 3f 00 00 00 00 00 00 00 00 00 00 00 00
       1.0 0.0 0.0 0.0
000170 00 00 00 00 00 00 00 00 00 00 00 00 00 00 00 00
       0.0 0.0 0.0 0.0
000180 00 00 00 00 00 00 00 00 00 00 00 00 00 00 00 00
       0.0 0.0 0.0 0.0
000190 00 00 00 00 00 00 00 00 00 00 00 00 00 00 00 00
       0.0 0.0 0.0 0.0
0001a0 00 00 00 00 00 00 80 3f 00 00 00 00 00 00 00 00
       0.0 1.0 0.0 0.0
0001b0 00 00 00 00 00 00 00 00 00 00 80 3f 00 00 80 3f
       0.0 0.0 1.0 1.0
0001c0 00 00 00 00 00 00 00 00 00 00 80 3f 00 00 00 00
       0.0 0.0 1.0 0.0
0001d0 00 00 00 00 00 00 00 00 00 00 00 00 00 00 00 00
       0.0 0.0 0.0 0.0
0001e0 00 00 00 00 00 00 00 00 00 00 00 00 00 00 00 00
       0.0 0.0 0.0 0.0
0001f0 00 00 00 00 00 00 00 00 00 00 00 00 00 00 00 00
       0.0 0.0 0.0 0.0
000200 00 00 00 00 00 00 00 00 00 00 00 00 00 00 80 3f
       0.0 0.0 0.0 1.0
000210 00 00 80 3f 00 00 80 3f 00 00 00 00 00 00 00 00
       1.0 1.0 0.0 0.0
000220 00 00 00 00 00 00 00 00 00 00 00 00 00 00 00 00
       0.0 0.0 0.0 0.0
000230 00 00 00 00 00 00 00 00 00 00 00 00 00 00 00 00
       0.0 0.0 0.0 0.0
000240 00 00 00 00 00 00 00 00 00 00 00 00 00 00 00 00
       0.0 0.0 0.0 0.0
000250 00 00 00 00 00 00 00 00 00 00 00 00 00 00 00 00
       0.0 0.0 0.0 0.0
000260 00 00 00 00 00 00 80 3f 00 00 80 3f 00 00 80 3f
       0.0 1.0 1.0 1.0
000270 00 00 00 00 00 00 00 00 00 00 00 00 00 00 00 00
       0.0 0.0 0.0 0.0
000280 00 00 00 00 00 00 00 00 00 00 00 00 00 00 00 00
       0.0 0.0 0.0 0.0
000290 00 00 00 00 00 00 00 00 00 00 00 00 00 00 00 00
       0.0 0.0 0.0 0.0
0002a0 00 00 00 00 00 00 00 00 00 00 00 00 00 00 00 00
       0.0 0.0 0.0 0.0
0002b0 00 00 00 00 00 00 00 00 00 00 00 00 00 00 80 3f
       0.0 0.0 0.0 1.0
0002c0 00 00 80 3f 00 00 00 00 00 00 00 00 00 00 00 00
       1.0 0.0 0.0 0.0
0002d0 00 00 00 00 00 00 00 00 00 00 00 00 00 00 00 00
       0.0 0.0 0.0 0.0
0002e0 00 00 00 00 00 00 00 00 00 00 00 00 00 00 00 00
       0.0 0.0 0.0 0.0
0002f0 00 00 00 00 00 00 80 3f 00 00 00 00 00 00 00 00
       0.0 1.0 0.0 0.0
000300 00 00 00 00 00 00 00 00 00 00 80 3f 00 00 00 00
       0.0 0.0 1.0 0.0
000310 00 00 00 00 00 00 00 00 00 00 80 3f 00 00 80 3f
       0.0 0.0 1.0 1.0
000320 00 00 00 00 00 00 00 00 00 00 80 3f 00 00 00 00
       0.0 0.0 1.0 0.0
000330 00 00 00 00 00 00 00 00 00 00 00 00 00 00 00 00
       0.0 0.0 0.0 0.0
000340 00 00 00 00 00 00 00 00 00 00 00 00 00 00 00 00
       0.0 0.0 0.0 0.0
000350 00 00 00 00 00 00 00 00 00 00 00 00 00 00 00 00
       0.0 0.0 0.0 0.0
000360 00 00 00 00 00 00 00 00 00 00 00 00 00 00 80 3f
       0.0 0.0 0.0 1.0
000370 00 00 80 3f 00 00 80 3f 00 00 00 00 00 00 00 00
       1.0 1.0 0.0 0.0
000380 00 00 00 00 00 00 00 00 00 00 00 00 00 00 00 00
       0.0 0.0 0.0 0.0
000390 00 00 00 00 00 00 00 00 00 00 00 00 00 00 00 00
       0.0 0.0 0.0 0.0
0003a0 00 00 00 00 00 00 00 00 00 00 00 00 00 00 00 00
       0.0 0.0 0.0 0.0
0003b0 00 00 00 00 00 00 00 00 00 00 00 00 00 00 00 00
       0.0 0.0 0.0 0.0
0003c0 00 00 00 00 00 00 80 3f 00 00 80 3f 00 00 80 3f
       0.0 1.0 1.0 1.0
0003d0 00 00 00 00 00 00 00 00 00 00 00 00 00 00 00 00
       0.0 0.0 0.0 0.0
0003e0 00 00 00 00 00 00 00 00 00 00 00 00 00 00 00 00
       0.0 0.0 0.0 0.0
0003f0 00 00 00 00 00 00 00 00 00 00 00 00 00 00 00 00
       0.0 0.0 0.0 0.0

layer1.gcn.weight f4 [8, 3, 1, 1]
000000 97 44 fa be 4c 9c a6 be 62 34 84 be 93 f4 72 be
       -0.48880455 -0.3254112 -0.25821215 -0.2372611
000010 fc 15 01 3e 47 d9 87 be bd 7b 22 3e 35 39 13 bf
       0.12606043 -0.26532957 0.15867515 -0.57509166
000020 22 ef 4f 3e 45 94 0e bf 0d 60 5f 3e a7 f7 ba be
       0.20306066 -0.5569499 0.21813984 -0.3651707
000030 bd 5e fd 3e 18 43 2d be 64 11 df be ec df c8 3e
       0.49486342 -0.16920125 -0.43567955 0.3923334
000040 f7 f2 af be e4 90 a5 bd 1b b1 ad 3d 1f 5b e5 be
       -0.34365055 -0.08084276 0.08481046 -0.44796082
000050 81 f1 23 3f 86 aa cc be e4 dc af 3d 49 4b cc be
       0.6404038 -0.3997385 0.085870534 -0.39901188

layer1.gcn.bias f4 [8]
000000 7a bf 17 3f e2 f1 32 be 7a b6 f5 3e 38 ab c3 be
       0.59276545 -0.17475083 0.4799078 -0.38216567
000010 cd 52 bc be d9 72 09 3f 43 88 81 be 62 1e f9 bc
       -0.36781922 0.5369087 -0.25299272 -0.030409995

layer1.tcn.weight f4 [8, 8, 3, 1]
000000 85 9e 86 3d 91 87 0d be 33 43 6c be a6 71 e1 bd
       0.06573204 -0.13821246 -0.2307251 -0.11008005
000010 40 26 58 be 60 2c c6 3c 77 98 c7 bd 46 8e eb bd
       -0.21108341 0.024191082 -0.09745877 -0.11501746
000020 a6 33 a7 bd 8c a4 90 bd 2b a0 89 bc 0d df a0 3d
       -0.08164148 -0.07062635 -0.016800007 0.078550436
000030 b6 15 87 3d c5 5f 22 be 82 a3 51 3b b1 88 9c bc
       0.06595938 -0.15856846 0.0031988327 -0.019108148
000040 84 e7 a7 bd 7d bb 05 be 2b 6b f9 bc d2 b2 f8 bd
       -0.08198455 -0.13059802 -0.03044661 -0.12143482
000050 ba 54 31 3e 8c 63 5d be 81 67 bd 3d c8 d1 0a 3e
       0.17317477 -0.21620005 0.092482574 0.13556588
000060 0a 6d 02 be 9d a0 f7 bc 7f ee f6 3d fa e6 1b be
       -0.12736908 -0.030227954 0.12057208 -0.1522483
000070 b9 4d be bd 0d 3d 10 be bd 1d 82 3d a4 8e 04 be
       -0.09292168 -0.14085789 0.063533284 -0.12945038
000080 2b 3d 4a 3d 90 03 58 3e 91 c7 a6 3b be 6f 17 3e
       0.04937474 0.21095109 0.005089708 0.1478872
000090 94 95 d2 3a 4f 32 cf bd 09 37 b2 bd 5f bc 32 be
       0.0016066306 -0.101170175 -0.087019034 -0.1745467
0000a0 1f 7b 73 3c fb 20 34 3d 68 8c 76 bc 9c b8 79 bd
       0.014860897 0.043976765 -0.015048124 -0.060967073
0000b0 6f b0 b0 bd 5c ee 20 bd 13 df 63 3e aa 38 d4 3d
       -0.08627402 -0.039289817 0.22253065 0.1036237
0000c0 27 5a 5f 3e 97 38 c9 bd 78 1a 54 3d bb 17 84 bd
       0.21811734 -0.09825247 0.051783055 -0.06449839
0000d0 34 bb 10 3e 9f 2c 39 3d 92 37 04 3e 2e 91 c9 3d
       0.14133912 0.04520857 0.12911823 0.09842144
0000e0 76 4e 44 b9 83 36 38 bd 93 77 eb 3d 64 34 82 bd
       -0.00018721246 -0.04497386 0.11497416 -0.06357649
0000f0 49 ca ce bd 63 9a 14 3d 59 80 89 bd c2 87 ab 3c
       -0.100971766 0.036280047 -0.067139335 0.020938758
000100 e3 ab ac bc 78 61 1e be f2 c5 c5 bc 49 0a 89 bd
       -0.021078056 -0.15466869 -0.02414224 -0.06691415
000110 4f 63 8d bd 8a fe 85 3e 5c ec c3 3c 45 91 3a 3d
       -0.06903707 0.2617076 0.023916416 0.045548696
000120 b6 a5 14 3e 7a c8 1d 3d 99 0f 80 3b c0 3a 11 bd
       0.14516339 0.038521267 0.0039081094 -0.03545642
000130 78 95 4f be cd 5c 24 3e 32 13 ec bd b0 03 5f 3e
       -0.20271862 0.16051026 -0.11527099 0.2177875
000140 bb 7f e0 bd 9a 4a 47 be a3 a6 25 3d 18 0d 2e be
       -0.10961863 -0.19462052 0.04044212 -0.16997182
000150 5b d1 61 3e a7 9a bf bd 3a fb 00 be f6 05 89 3d
       0.22052519 -0.093556695 -0.12595835 0.0669059
000160 22 c8 61 3e 2e 60 2f be 67 10 23 3e 30 5d 0d bc
       0.22049001 -0.17126533 0.15924226 -0.008628175
000170 90 a0 dc bd 8a ad 9e 3d 58 9f 7f 3c 40 c4 2a bd
       -0.10772812 0.07747944 0.015601955 -0.041691065
000180 c8 28 b3 3b ba f6 2e be 96 e1 1e be 36 71 67 bc
       0.005467508 -0.17086306 -0.15515742 -0.014126113
000190 f6 6e 62 3d ad dc 62 bd 52 42 d6 bd 66 2e 50 3e
       0.0552816 -0.055386234 -0.10461868 0.203302
0001a0 d1 5a e9 bc 92 2b 00 3e ba 0b 63 be 2c bc 1b 3d
       -0.028485687 0.12516621 -0.22172442 0.03802125
0001b0 c1 66 4b bd 38 21 5f 3d 7b 76 3f be 0f dc 64 bd
       -0.04965854 0.05447504 -0.1869754 -0.055873927
0001c0 52 e3 2e be 72 f4 99 bd de 03 97 bd 13 ca 22 3d
       -0.17078903 -0.07517327 -0.073737845 0.039743494
0001d0 96 c5 14 3e ea 34 41 bd a6 5a b7 3d cb 88 9f bc
       0.14528498 -0.047169603 0.08952837 -0.019474408
0001e0 3d 25 70 3d 2f cb 0c be ad 8f e1 bd 6b 05 65 bb
       0.058629263 -0.13749383 -0.11013732 -0.0034945856
0001f0 22 ba ad bd 2f a0 af bd e2 bd 25 3e 08 a0 23 3d
       -0.08482768 -0.085754745 0.16185716 0.03994754
000200 4a 96 0e 3e 0d 47 d0 3b b9 8f 44 be 06 74 af bd
       0.13924518 0.006356126 -0.19195451 -0.085670516
000210 ae 38 34 3e 1c 97 97 3d b7 d3 17 be 3a cd 02 be
       0.17599747 0.07401869 -0.14826857 -0.127736
000220 c0 e7 9a bd 1a 74 2d be 6d d1 34 be 0f 6d 50 3e
       -0.07563734 -0.1693882 -0.17658015 0.20354103
000230 8b 13 83 bd ce bf d3 bc e0 6c a4 bd 34 34 2e 3d
       -0.06400212 -0.025848296 -0.08028579 0.042530254
000240 c9 13 b3 3d 8d 54 d6 bd e2 8f a0 3c 7c e3 41 3d
       0.08744008 -0.104653455 0.019599859 0.047336087
000250 3e d0 24 3d d1 ab 0c be 4e 7e 28 be 6e 04 0c 3e
       0.040237658 -0.13737418 -0.16454431 0.13673565
000260 e4 f4 4d be 45 6e 4a be ef 35 f9 3d c2 57 94 3d
       -0.2011295 -0.19768627 0.1216849 0.07243301
000270 36 5d 88 3d 77 42 35 bd 91 2c 1b 3d 9c 09 8e bd
       0.066584036 -0.04425284 0.0378843 -0.069354266
000280 37 e0 2b 3e af 23 9a 3d b9 64 d1 3d 60 23 17 3e
       0.1678475 0.07526337 0.102242894 0.14759588
000290 ea 4a e8 3d cb 56 3c be 54 f5 73 3d 1b e9 61 bd
       0.11342414 -0.18392484 0.059560135 -0.055153947
0002a0 43 3c de bc 07 6c 62 3e e0 21 b5 bd 6a 78 0a 3c
       -0.027128344 0.22111522 -0.08844352 0.0084515605
0002b0 b1 dc 59 3d 04 fc 5d bc 0c b2 c0 bc 56 d0 5c 3d
       0.053188983 -0.013548855 -0.0235224 0.053909622
0002c0 01 dd 63 bd 17 12 c8 3c 59 03 69 3d e7 2e c2 bd
       -0.055630688 0.024422688 0.05688796 -0.09481602
0002d0 6f ce f5 bd 0b a3 b9 bd d0 e3 7a be 89 be 06 be
       -0.12002265 -0.09064301 -0.24500966 -0.13158621
0002e0 cc f2 dc bd cd 9f 8a 3d 8e 53 70 3e 03 ea 9f bd
       -0.10788497 0.06768761 0.23469374 -0.07808306
0002f0 c4 4b 59 3e ac b2 82 3b e6 3c fb 3b bf 6f 66 3e
       0.21220309 0.0039885845 0.007667172 0.22503565

layer1.tcn.bias f4 [8]
000000 b0 6a 0b 3c 1a 28 8f 39 67 a6 f5 38 40 86 cb b7
       0.008509323 0.00027304963 0.00011713505 -2.4262e-05
000010 04 73 f3 3b 42 30 d7 b7 be 4f ad b8 fc 6d 92 38
       0.0074294824 -2.5652469e-05 -8.264136e-05 6.982309e-05

layer1.bn.weight f4 [8]
000000 42 71 7b 3f e7 5a 86 3f 38 f6 7d 3f 87 c9 6d 3f
       0.9821969 1.0496491 0.99203825 0.9288563
000010 60 c2 71 3f 7a 4a 8a 3f c7 d4 81 3f 36 da 73 3f
       0.9443722 1.0803978 1.014306 0.9525484

layer1.bn.bias f4 [8]
000000 00 4d 4c bd 2a c5 65 bd e5 13 92 bc 9b 55 82 3d
       -0.04987812 -0.056096233 -0.017831752 0.06363984
000010 6f cd 95 bd 2a d3 99 bd cf 20 eb bc 99 14 4d bc
       -0.07314574 -0.075109795 -0.028702168 -0.012517118

layer1.bn.running_mean f4 [8]
000000 67 ac 18 3e 64 1e c4 be b7 eb db be 1d ff 84 3e
       0.14909516 -0.38304436 -0.42953274 0.25975886
000010 6c 49 a1 bd 72 2c 94 3e ab f4 14 3d e3 50 4a bf
       -0.07875332 0.2894016 0.036366146 -0.79029673

layer1.bn.running_var f4 [8]
000000 ae 45 5e 3d cc 30 8f 3d 39 6a 13 3d c9 51 eb 3c
       0.05426567 0.06991729 0.035989974 0.028725522
000010 36 ac 19 3c 5e 9e db 3c dd 7f 92 3c 41 d5 75 3d
       0.009379437 0.026808914 0.017883236 0.060017828

layer1.res.0.weight f4 [8, 3, 1, 1]
000000 21 62 d9 be bf 3c c5 3e 9d 48 88 bd 2e 5c 70 3d
       -0.4245768 0.38522908 -0.06654475 0.05868166
000010 86 dc fe be e4 c6 99 be 4d 82 c3 be bd f9 01 3f
       -0.4977762 -0.30034554 -0.3818535 0.50771695
000020 89 0a 43 be 6a fc e5 3d 89 bd 08 3f 4b 72 1b 3e
       -0.19046988 0.11229785 0.5341421 0.15180318
000030 10 66 d4 3e dd cb 6f bc d0 5a 1a 3f 12 71 67 be
       0.41484118 -0.014636007 0.6029482 -0.22601727
000040 7c a4 7a bd 8f 70 ab be aa 5a cd 3e 1b 73 0c 3f
       -0.06119202 -0.33484313 0.40108234 0.54863137
000050 af 42 fc 3e 46 af 75 3e 7f 17 1a be af 0c ef 3e
       0.49269626 0.23992643 -0.15048026 0.46689364

layer1.res.0.bias f4 [8]
000000 b0 78 6c bd 2a b0 25 bb d6 06 0f 3e 8d 09 4b 3e
       -0.057732284 -0.0025282004 0.13967451 0.19827862
000010 f5 40 4b 3e 00 5d 03 3c 9b 61 5b 3c 17 03 2a bc
       0.19848998 0.008017778 0.01338997 -0.010376713

layer1.res.1.weight f4 [8]
000000 52 59 72 3f 0e 4b 7d 3f 7f 2d 7a 3f 41 66 81 3f
       0.9466754 0.9894265 0.9772567 1.010933
000010 a4 f8 87 3f fc 94 6d 3f 2f 1a 79 3f a3 3a 88 3f
       1.0622754 0.9280546 0.9730558 1.0642895

layer1.res.1.bias f4 [8]
000000 00 4d 4c bd 2a c5 65 bd e5 13 92 bc 9b 55 82 3d
       -0.04987812 -0.056096233 -0.017831752 0.06363984
000010 6f cd 95 bd 2a d3 99 bd cf 20 eb bc 99 14 4d bc
       -0.07314574 -0.075109795 -0.028702168 -0.012517118

layer1.res.1.running_mean f4 [8]
000000 68 66 15 be 9e 30 40 be c9 f7 0d 3e 36 9b 03 3f
       -0.14589846 -0.18768546 0.13864054 0.5140871
000010 1d d9 e3 3e 66 26 20 be ba 48 02 3f e7 71 85 3d
       0.44501582 -0.15639648 0.5089222 0.06515866

layer1.res.1.running_var f4 [8]
000000 e6 86 be 3c 31 3f a5 3c 41 5f f2 3c 11 f8 d0 3c
       0.023257684 0.020171734 0.029586436 0.025508912
000010 f0 3e 41 3c 73 d4 82 3b 9b 56 1f 3d 19 ab b5 3b
       0.011794791 0.003992611 0.038900953 0.005544078

layer2.A f4 [21, 21]
000000 00 00 80 3f 00 00 80 3f 00 00 00 00 00 00 00 00
       1.0 1.0 0.0 0.0
000010 00 00 00 00 00 00 80 3f 00 00 00 00 00 00 00 00
       0.0 1.0 0.0 0.0
000020 00 00 00 00 00 00 80 3f 00 00 00 00 00 00 00 00
       0.0 1.0 0.0 0.0
000030 00 00 00 00 00 00 80 3f 00 00 00 00 00 00 00 00
       0.0 1.0 0.0 0.0
000040 00 00 00 00 00 00 80 3f 00 00 00 00 00 00 00 00
       0.0 1.0 0.0 0.0
000050 00 00 00 00 00 00 80 3f 00 00 80 3f 00 00 80 3f
       0.0 1.0 1.0 1.0
000060 00 00 00 00 00 00 00 00 00 00 00 00 00 00 00 00
       0.0 0.0 0.0 0.0
000070 00 00 00 00 00 00 00 00 00 00 00 00 00 00 00 00
       0.0 0.0 0.0 0.0
000080 00 00 00 00 00 00 00 00 00 00 00 00 00 00 00 00
       0.0 0.0 0.0 0.0
000090 00 00 00 00 00 00 00 00 00 00 00 00 00 00 00 00
       0.0 0.0 0.0 0.0
0000a0 00 00 00 00 00 00 00 00 00 00 00 00 00 00 80 3f
       0.0 0.0 0.0 1.0
0000b0 00 00 80 3f 00 00 80 3f 00 00 00 00 00 00 00 00
       1.0 1.0 0.0 0.0
0000c0 00 00 00 00 00 00 00 00 00 00 00 00 00 00 00 00
       0.0 0.0 0.0 0.0
0000d0 00 00 00 00 00 00 00 00 00 00 00 00 00 00 00 00
       0.0 0.0 0.0 0.0
0000e0 00 00 00 00 00 00 00 00 00 00 00 00 00 00 00 00
       0.0 0.0 0.0 0.0
0000f0 00 00 00 00 00 00 00 00 00 00 00 00 00 00 00 00
       0.0 0.0 0.0 0.0
000100 00 00 00 00 00 00 80 3f 00 00 80 3f 00 00 80 3f
       0.0 1.0 1.0 1.0
000110 00 00 00 00 00 00 00 00 00 00 00 00 00 00 00 00
       0.0 0.0 0.0 0.0
000120 00 00 00 00 00 00 00 00 00 00 00 00 00 00 00 00
       0.0 0.0 0.0 0.0
000130 00 00 00 00 00 00 00 00 00 00 00 00 00 00 00 00
       0.0 0.0 0.0 0.0
000140 00 00 00 00 00 00 00 00 00 00 00 00 00 00 00 00
       0.0 0.0 0.0 0.0
000150 00 00 00 00 00 00 00 00 00 00 00 00 00 00 80 3f
       0.0 0.0 0.0 1.0
000160 00 00 80 3f 00 00 00 00 00 00 00 00 00 00 00 00
       1.0 0.0 0.0 0.0
000170 00 00 00 00 00 00 00 00 00 00 00 00 00 00 00 00
       0.0 0.0 0.0 0.0
000180 00 00 00 00 00 00 00 00 00 00 00 00 00 00 00 00
       0.0 0.0 0.0 0.0
000190 00 00 00 00 00 00 00 00 00 00 00 00 00 00 00 00
       0.0 0.0 0.0 0.0
0001a0 00 00 00 00 00 00 80 3f 00 00 00 00 00 00 00 00
       0.0 1.0 0.0 0.0
0001b0 00 00 00 00 00 00 00 00 00 00 80 3f 00 00 80 3f
       0.0 0.0 1.0 1.0
0001c0 00 00 00 00 00 00 00 00 00 00 80 3f 00 00 00 00
       0.0 0.0 1.0 0.0
0001d0 00 00 00 00 00 00 00 00 00 00 00 00 00 00 00 00
       0.0 0.0 0.0 0.0
0001e0 00 00 00 00 00 00 00 00 00 00 00 00 00 00 00 00
       0.0 0.0 0.0 0.0
0001f0 00 00 00 00 00 00 00 00 00 00 00 00 00 00 00 00
       0.0 0.0 0.0 0.0
000200 00 00 00 00 00 00 00 00 00 00 00 00 00 00 80 3f
       0.0 0.0 0.0 1.0
000210 00 00 80 3f 00 00 80 3f 00 00 00 00 00 00 00 00
       1.0 1.0 0.0 0.0
000220 00 00 00 00 00 00 00 00 00 00 00 00 00 00 00 00
       0.0 0.0 0.0 0.0
000230 00 00 00 00 00 00 00 00 00 00 00 00 00 00 00 00
       0.0 0.0 0.0 0.0
000240 00 00 00 00 00 00 00 00 00 00 00 00 00 00 00 00
       0.0 0.0 0.0 0.0
000250 00 00 00 00 00 00 00 00 00 00 00 00 00 00 00 00
       0.0 0.0 0.0 0.0
000260 00 00 00 00 00 00 80 3f 00 00 80 3f 00 00 80 3f
       0.0 1.0 1.0 1.0
000270 00 00 00 00 00 00 00 00 00 00 00 00 00 00 00 00
       0.0 0.0 0.0 0.0
000280 00 00 00 00 00 00 00 00 00 00 00 00 00 00 00 00
       0.0 0.0 0.0 0.0
000290 00 00 00 00 00 00 00 00 00 00 00 00 00 00 00 00
       0.0 0.0 0.0 0.0
0002a0 00 00 00 00 00 00 00 00 00 00 00 00 00 00 00 00
       0.0 0.0 0.0 0.0
0002b0 00 00 00 00 00 00 00 00 00 00 00 00 00 00 80 3f
       0.0 0.0 0.0 1.0
0002c0 00 00 80 3f 00 00 00 00 00 00 00 00 00 00 00 00
       1.0 0.0 0.0 0.0
0002d0 00 00 00 00 00 00 00 00 00 00 00 00 00 00 00 00
       0.0 0.0 0.0 0.0
0002e0 00 00 00 00 00 00 00 00 00 00 00 00 00 00 00 00
       0.0 0.0 0.0 0.0
0002f0 00 00 00 00 00 00 80 3f 00 00 00 00 00 00 00 00
       0.0 1.0 0.0 0.0
000300 00 00 00 00 00 00 00 00 00 00 80 3f 00 00 00 00
       0.0 0.0 1.0 0.0
000310 00 00 00 00 00 00 00 00 00 00 80 3f 00 00 80 3f
       0.0 0.0 1.0 1.0
000320 00 00 00 00 00 00 00 00 00 00 80 3f 00 00 00 00
       0.0 0.0 1.0 0.0
000330 00 00 00 00 00 00 00 00 00 00 00 00 00 00 00 00
       0.0 0.0 0.0 0.0
000340 00 00 00 00 00 00 00 00 00 00 00 00 00 00 00 00
       0.0 0.0 0.0 0.0
000350 00 00 00 00 00 00 00 00 00 00 00 00 00 00 00 00
       0.0 0.0 0.0 0.0
000360 00 00 00 00 00 00 00 00 00 00 00 00 00 00 80 3f
       0.0 0.0 0.0 1.0
000370 00 00 80 3f 00 00 80 3f 00 00 00 00 00 00 00 00
       1.0 1.0 0.0 0.0
000380 00 00 00 00 00 00 00 00 00 00 00 00 00 00 00 00
       0.0 0.0 0.0 0.0
000390 00 00 00 00 00 00 00 00 00 00 00 00 00 00 00 00
       0.0 0.0 0.0 0.0
0003a0 00 00 00 00 00 00 00 00 00 00 00 00 00 00 00 00
       0.0 0.0 0.0 0.0
0003b0 00 00 00 00 00 00 00 00 00 00 00 00 00 00 00 00
       0.0 0.0 0.0 0.0
0003c0 00 00 00 00 00 00 80 3f 00 00 80 3f 00 00 80 3f
       0.0 1.0 1.0 1.0
0003d0 00 00 00 00 00 00 00 00 00 00 00 00 00 00 00 00
       0.0 0.0 0.0 0.0
0003e0 00 00 00 00 00 00 00 00 00 00 00 00 00 00 00 00
       0.0 0.0 0.0 0.0
0003f0 00 00 00 00 00 00 00 00 00 00 00 00 00 00 00 00
       0.0 0.0 0.0 0.0

layer2.gcn.weight f4 [16, 8, 1, 1]
000000 9a 21 56 be 31 50 08 be 82 c2 06 3d 4a 00 89 3e
       -0.20911255 -0.1331184 0.03290034 0.26758033
000010 83 58 58 3e 81 14 f2 bd c6 77 77 3e ce 96 61 be
       0.21127515 -0.11820317 0.24166784 -0.22030184
000020 73 0d 0f bb c3 bd 51 3e 6f 89 31 be c4 43 20 3d
       -0.0021828085 0.20482545 -0.17337583 0.039127126
000030 dc a5 46 3e 71 0b 07 bd 61 c8 80 be 0d 1f 04 3e
       0.19399208 -0.032969896 -0.25152877 0.1290247
000040 74 df 66 be d7 52 ab 3e 09 5a 1e be 99 a3 53 be
       -0.22546178 0.3346164 -0.15464033 -0.20667876
000050 bd 36 5c be 29 41 54 be e7 2c 8e be 39 00 d9 3d
       -0.21505256 -0.20727982 -0.27768633 0.105957456
000060 b2 c0 10 3e 66 cd b7 3e dc fa 0d be 81 83 9b 3d
       0.14136007 0.35898894 -0.13865227 0.07593442
000070 16 fc 80 be d2 51 27 be c3 fa 0c be 7a 23 4e bd
       -0.25192326 -0.16339806 -0.13767533 -0.0503268
000080 6f 86 75 be 42 72 ca be 72 79 0a be e1 18 03 be
       -0.23977064 -0.39540297 -0.1352289 -0.1280246
000090 e1 cb b9 3d f3 72 16 3c 40 e9 89 bd a4 8d 05 3d
       0.0907209 0.0091826795 -0.06733942 0.032605782
0000a0 0f bd d2 bd c3 a3 8c be a7 6b db 3d fd 12 6b be
       -0.10289966 -0.2746869 0.107138924 -0.22956462
0000b0 ea 3a a8 be 0b 9b 9c be 46 19 af 3e aa 32 73 3e
       -0.32857448 -0.30587038 0.3419897 0.23749796
0000c0 32 88 91 be 5d d1 ce 3e 43 de 95 be 2f 8d 49 be
       -0.2842422 0.40394107 -0.29271135 -0.19682764
0000d0 e3 aa 22 be 6c e2 1d bd b3 58 23 3e f2 34 4e be
       -0.158855 -0.03854601 0.15951805 -0.20137385
0000e0 2a 13 ad 3d 74 d3 81 be 4c e1 9e be bc 92 1a be
       0.08450921 -0.25356638 -0.31031263 -0.15095037
0000f0 0b a1 85 be 33 f5 73 be be 01 26 be cc 53 8b 3e
       -0.2609943 -0.23824005 -0.16211602 0.2721237
000100 12 1a 95 3e 40 b7 9d 3e 11 6c 9f 3e 2f 51 82 3e
       0.29121453 0.3080387 0.31137136 0.25452563
000110 e2 48 a5 3c 42 a9 2b 3e 4f 8a 8a bb 5f 7d 19 be
       0.020176355 0.16763785 -0.0042279135 -0.14989232
000120 c8 05 5a bc 03 ea 25 3e 76 0e 5a be 86 9e c5 bd
       -0.013307042 0.1620255 -0.21294579 -0.096493766
000130 04 b8 9a 3e 1d 8d 0d 3e d4 a8 7c be 95 b2 b5 3e
       0.30218518 0.13823362 -0.24673778 0.3548781
000140 c7 df 3b 3e 8d 8d ab 3e 13 0f 64 3e 72 71 04 be
       0.18347083 0.33506432 0.22271375 -0.12933901
000150 68 8b b4 3e be 5b 5f be ed 5d 5f 3e 1a 1d fa bd
       0.3526261 -0.2181234 0.21813174 -0.12212582
000160 fb 0d ae 3e 19 dd a3 be d9 5e 3e bd fd 66 3b 3e
       0.3399504 -0.32004622 -0.046477173 0.18301006
000170 00 dd 1a 3e 0a ab 76 bd d7 36 38 be e4 a9 ff 3d
       0.15123367 -0.06022171 -0.1798967 0.12483576
000180 e6 ee 5d be 2a f5 a7 3e 9d a6 94 3d 4f 42 34 3e
       -0.21673164 0.32804233 0.072583415 0.1760342
000190 4d 15 24 3e 97 99 a8 3e be 7b a5 be 36 26 2b bd
       0.1602375 0.3292968 -0.3232097 -0.041784488
0001a0 5c de 8c be 07 f5 d0 be c5 ef 0f be eb 6a 36 be
       -0.27513397 -0.4081194 -0.14056309 -0.17814223
0001b0 9c a7 b1 3d 57 fe ce bd 61 b6 8c be 6e d2 86 3e
       0.08674547 -0.10107105 -0.27482894 0.2633242
0001c0 a2 53 80 be ac 2a 8e 3e 21 53 2b be 74 ec 8b 3d
       -0.25063807 0.2776693 -0.1673093 0.06832209
0001d0 43 3d 00 3e 8b 51 ad be 0d e4 91 bd 2c 65 ba 3d
       0.1252337 -0.33851275 -0.07123575 0.09101328
0001e0 19 9f 60 be ba 57 03 be 3c 5b 37 3e fb ee a7 be
       -0.21935691 -0.12826434 0.17905897 -0.32799515
0001f0 07 0b 85 3e 94 42 3c be 90 c6 ce 3d cb 7f 93 be
       0.25984976 -0.18384773 0.100964665 -0.28808436

layer2.gcn.bias f4 [16]
000000 62 22 2a bd a2 8b f9 3d 69 12 2a 3d 3d 0c 37 3e
       -0.041536696 0.12184836 0.041521464 0.17875762
000010 3f 9d 88 3e f0 9a 11 be 10 58 ad bd b6 ba 8a 3e
       0.2668247 -0.1421926 -0.08464062 0.27095574
000020 36 f3 38 3e 3d 95 aa bd 9c 94 74 3d 75 69 57 3d
       0.18061528 -0.08329246 0.059712037 0.052590806
000030 dd 4e e6 bd d4 31 97 3d bf af 47 3e 42 e8 c1 3d
       -0.11245511 0.07382551 0.19500636 0.09468128

layer2.tcn.weight f4 [16, 16, 3, 1]
000000 6c d6 e0 3d b9 65 3c 3a 35 1a b1 bd 0f eb 30 bc
       0.10978398 0.0007186789 -0.08647577 -0.01079823
000010 21 14 49 3d cd 67 52 3e 60 b4 c5 bb 25 7b 2e bd
       0.049091462 0.2054741 -0.0060334653 -0.04259791
000020 7c 1a 5b 3c cc 93 0f be 6b 2e 79 3d 3b dc 27 3d
       0.013373014 -0.14021224 0.060835283 0.040981513
000030 6a 48 e6 bd 38 96 06 bc d8 ae 06 3e 21 02 35 bd
       -0.11244281 -0.008214526 0.13152635 -0.044191483
000040 ff 37 26 bc f3 21 1b be 17 6a f4 bd 88 14 2a 3d
       -0.010145186 -0.1514967 -0.119342975 0.041523486
000050 f3 01 b7 3d de 52 07 3d 2c e3 5a 3d 06 d2 78 bc
       0.08935919 0.033038013 0.053439304 -0.015186792
000060 ea 4c d5 3d ca d2 ca bd e9 4b 02 bd 24 26 a5 bd
       0.10415061 -0.09903486 -0.031810675 -0.08063915
000070 71 43 a4 bd 4e 77 d6 3d 65 d3 08 bd 90 fd aa 3d
       -0.08020676 0.10471974 -0.033404727 0.083491445
000080 72 6b 70 bc 2b d5 dd 3d 06 e9 89 bc ad 88 fa bd
       -0.014674054 0.10831674 -0.016834747 -0.122331
000090 89 57 0c 3e 6b ed 21 3e f0 cd 17 3d 1e c4 a6 3c
       0.13705267 0.15813224 0.03706163 0.020357188
0000a0 e3 e7 81 bd b4 31 16 bd 1f 0e c7 3d 8a 79 19 3e
       -0.06343057 -0.036668494 0.0971949 0.1498777
0000b0 a0 69 85 bd a9 0c 18 bd ba 86 c8 3d 87 2d 2a 3d
       -0.06514287 -0.03712145 0.09791322 0.041547325
0000c0 00 b5 e3 bc ed da 21 3d 9a 8a 36 3d 25 fa 08 3e
       -0.027796268 0.039515425 0.044565775 0.13376673
0000d0 7b db 12 3d 5b d1 d9 3b de e9 85 3d bd 21 df bd
       0.035853844 0.0066472716 0.06538747 -0.10895107
0000e0 dd ed c0 3d 84 c4 1a 3d 76 cf f6 bd ef a5 01 bd
       0.09420369 0.03778507 -0.12051289 -0.031652387
0000f0 d5 cb aa 3d 00 77 ad 3d db f3 1a 3d 86 6c c6 3d
       0.08339659 0.08469963 0.037830215 0.09688668
000100 42 61 3b 3d 48 9d 7d bd be 5b bc 3c 83 2a 0c 3d
       0.04574705 -0.061917573 0.022992965 0.03422023
000110 ba a0 53 bd 14 4f 03 be 1b 02 ff bd b0 c4 7a bc
       -0.051666953 -0.12823135 -0.124515735 -0.015305683
000120 1b 42 91 bd a2 e6 e2 3d 95 99 02 3e 07 54 b0 bd
       -0.07092687 0.11079146 0.127539 -0.08609777
000130 b6 63 24 3d 3a 34 86 bd 59 07 29 3e f1 53 a0 3d
       0.040134154 -0.0655293 0.16506709 0.078285106
000140 20 aa 1e 3e 4c 27 70 3d 31 ae 73 bc cd 49 18 be
       0.15494585 0.058631226 -0.014873073 -0.14871903
000150 c1 ee 07 3e c3 41 af bd 80 64 50 bd 32 4c 36 bd
       0.13274671 -0.08557465 -0.050877094 -0.04450626
000160 ec 5b e3 3d 58 e5 2a 3d 7e dc 00 bd e7 90 82 3d
       0.11101517 0.041722625 -0.031460278 0.06375294
000170 b8 e0 55 3d c9 0f 6b bd 36 85 7b bd 11 17 2f bd
       0.05221626 -0.0573881 -0.061406337 -0.042746607
000180 be 61 8d bd 23 5a 0e bd c4 81 bf bd bc 1d 94 bd
       -0.069034085 -0.03475393 -0.09350923 -0.07232234
000190 c0 34 91 3d 1d 42 e5 3d cd 35 06 bd a7 c0 ac bb
       0.070901394 0.11194251 -0.032766152 -0.0052719894
0001a0 77 48 ce bc 91 c7 0c 3d 52 0d 1e bd f4 c1 c1 bd
       -0.025181038 0.03437001 -0.038586922 -0.09460822
0001b0 00 20 ca 3c 3d f3 d6 3d cb 22 75 3c 28 d1 3d 3d
       0.024673462 0.10495613 0.014961909 0.046342045
0001c0 5c 3f a4 3d fd 0d 39 3d 40 4e b3 bd 88 91 84 bd
       0.08019897 0.045179356 -0.087551594 -0.064730704
0001d0 e2 05 c8 bc 01 ba 31 bc df 43 14 3d 7a 12 22 bd
       -0.024416868 -0.010847569 0.03619754 -0.039568402
0001e0 d8 60 8f 3d 86 f4 c1 3c 66 55 ce bc 0c ef 73 3d
       0.07000893 0.023676168 -0.025187206 0.059554145
0001f0 4d d4 c4 3c 02 4d 47 bd 43 e2 19 be 16 ac 21 ba
       0.024027014 -0.048657425 -0.15027718 -0.00061673054
000200 7a 4c ad bd 87 3e c4 bc 32 36 0a 3e 8a 34 11 bc
       -0.08461852 -0.023955597 0.13497236 -0.008862624
000210 13 e7 78 bd 72 ed f6 bd 9c 39 00 3d 20 be a6 3d
       -0.060767245 -0.12057008 0.03130494 0.08141732
000220 ed 59 5b 3d 33 5c d0 bc 77 66 08 3d 82 e2 fe bc
       0.053552557 -0.025434589 0.033300843 -0.031113867
000230 9c 20 c1 bd f7 b6 b7 bd 72 d1 11 bd 0c f7 b0 3c
       -0.09430048 -0.08970445 -0.035600133 0.021602176
000240 45 5d 07 bc 00 32 af bd 39 e5 c2 3c b1 55 c3 3d
       -0.008261983 -0.085544586 0.023790943 0.09537829
000250 ab 70 12 be bf df 0e 3d f4 f5 03 be 49 d6 db bb
       -0.14300792 0.03488135 -0.12886792 -0.0067088944
000260 f1 89 6b 3c 0c 25 e7 3d 3f 37 3e bd b0 36 67 bc
       0.0143761495 0.11286363 -0.046439406 -0.01411216
000270 73 8e ed bb 5e 05 20 3e b8 70 58 3c 2b 75 f7 3d
       -0.0072496473 0.15627047 0.013210468 0.12082895
000280 6b b8 1c bd 5d ac 22 3e ba b2 90 bd 73 7a 29 bc
       -0.038261812 0.15886064 -0.070653394 -0.010344136
000290 5c 00 a5 bd 44 e9 2e 3e 06 8a 71 3d 7d 03 31 3e
       -0.08056709 0.17081171 0.05896952 0.17286487
0002a0 36 0a 8f bd b5 8c a5 3c a0 19 f0 bc 59 9e fa 3d
       -0.069843695 0.020208696 -0.029309094 0.12237234
0002b0 16 bd a6 3a 71 1f 4e 3d a2 cb af 3d 19 ad 4b bb
       0.0012721147 0.050322954 0.08583762 -0.0031078516
0002c0 ba 32 a9 3d fa a6 a6 bc fd 19 aa bd 6a 7c a9 3d
       0.082616284 -0.020343293 -0.08305738 0.08275683
0002d0 68 d3 31 bd 8d 27 d8 3d 4f 5d c0 bd a7 1e 04 3e
       -0.043414503 0.10554419 -0.09392797 0.12902318
0002e0 16 72 27 3e bc c4 ad bd 08 98 dd bd 5c c1 96 bc
       0.16352114 -0.0848479 -0.10820013 -0.018402748
0002f0 7b e8 bb bd f3 3b 01 be 48 ce ac bd 78 ce 37 bd
       -0.091752015 -0.12620525 -0.084377825 -0.04487464
000300 3a af fa 3d ee f5 a3 3d 8d 01 0d bd e2 3a 6f 3d
       0.12240453 0.08005892 -0.034425307 0.058405764
000310 cd d4 f2 bd f8 47 12 be 87 1c c6 3d 79 60 0f bd
       -0.11856995 -0.14285266 0.0967341 -0.035004113
000320 57 1f 0d be dc 30 e3 bc a1 9e f3 3c aa 44 79 3d
       -0.13781486 -0.027733259 0.029738726 0.0608565
000330 6a ce af bc 41 34 56 bc 48 86 f8 3d d8 37 05 3d
       -0.02146073 -0.013073982 0.12134987 0.03252396
000340 88 9a 3d 3b f7 82 5e ba 55 10 ee 3d c2 09 6f bd
       0.002893122 -0.0008488143 0.11624209 -0.058358915
000350 ae 36 26 3d 66 a8 34 be 48 47 3e bd aa be 58 be
       0.04057949 -0.17642364 -0.046454698 -0.21166483
000360 bd 46 bd 3c cb 1c d7 3d 3e 98 d9 3d ed 46 9b bd
       0.02310502 0.10503539 0.10624741 -0.075818874
000370 5e 98 00 bd b0 a1 9f 3d 0a 43 00 3e ca 6e c1 bd
       -0.03139531 0.07794511 0.12525573 -0.094449595
000380 be c6 06 be cb 81 25 be e2 5b 57 3d 2e 37 cb bd
       -0.13161752 -0.16162793 0.05257786 -0.09922634
000390 ee 3e 6b bd 2e a3 cd bd 1b 53 c5 bd 23 24 93 bd
       -0.05743306 -0.1004089 -0.09634992 -0.07184627
0003a0 f3 43 05 3e a6 ec 71 bc 5f e5 a7 bd 7e c8 09 3e
       0.13014202 -0.014765894 -0.08198046 0.13455388
0003b0 ab a8 64 3d 0e 00 bd bc 5c b6 5a bc cd 64 17 3d
       0.055824917 -0.023071315 -0.013349142 0.036961365
0003c0 3b a2 8b 3c 1e 7a 53 3d b5 1f e9 3d 78 00 43 bd
       0.017045131 0.051630132 0.11383001 -0.04760787
0003d0 3f 85 89 3d bb 4d 20 be 7d 84 ce bd 41 1f e3 bd
       0.06714868 -0.15654652 -0.10083864 -0.110899456
0003e0 eb 9a e7 3c d8 7d f4 bb d1 31 03 be 88 ae bb 3d
       0.028272113 -0.007461291 -0.12811972 0.091641486
0003f0 a8 98 e3 3d b3 38 c2 3d 91 5e aa 3d c5 19 99 3d
       0.11113101 0.09483471 0.08318818 0.07475618

layer2.tcn.bias f4 [16]
000000 de 00 c7 b6 3b 3f 97 37 12 72 51 39 6b f7 89 b6
       -5.930763e-06 1.8030047e-05 0.00019974288 -4.1117214e-06
000010 d7 58 83 38 45 70 3d 38 f8 cc 84 b8 b9 6d 80 37
       6.2631145e-05 4.516567e-05 -6.332429e-05 1.5309883e-05
000020 3b 31 93 b6 c5 85 32 b8 f2 30 15 b5 32 f3 ad b6
       -4.3866726e-06 -4.256309e-05 -5.557805e-07 -5.1841134e-06
000030 ea 66 8f 38 b3 37 4d b4 20 82 58 38 c2 40 77 b8
       6.8379406e-05 -1.9112376e-07 5.16196e-05 -5.89497e-05

layer2.bn.weight f4 [16]
000000 5d 70 85 3f a3 6e 82 3f 77 9d 8c 3f d4 de 87 3f
       1.0424916 1.0190014 1.0985554 1.0614877
000010 66 02 86 3f 9c ef 83 3f 58 0d 8e 3f d5 3b 8a 3f
       1.0469482 1.0307498 1.1097822 1.0799509
000020 5c d7 83 3f 48 67 97 3f 75 8a 82 3f fb 25 91 3f
       1.0300097 1.1828394 1.0198504 1.1339716
000030 73 04 88 3f 8c 5d 97 3f 97 50 90 3f 20 22 97 3f
       1.0626358 1.1825423 1.1274594 1.1807289

layer2.bn.bias f4 [16]
000000 66 32 22 bc b7 fe 06 3c 2f 43 f3 3c a7 68 0c 3d
       -0.009899711 0.00823944 0.029695122 0.03427949
000010 97 a2 21 ba 59 02 56 3c 36 0b 5f 3d e6 92 9f 3c
       -0.00061658904 0.013062083 0.05445405 0.019479226
000020 c4 1a b2 bb 11 54 34 3d 4d e3 ee 3b af 91 1d 3d
       -0.0054353196 0.044025484 0.00729028 0.038469013
000030 97 cf 06 3d ab 9c 00 3d c3 8b 95 3d a1 0e e3 3d
       0.032912817 0.03139941 0.07302048 0.110867746

layer2.bn.running_mean f4 [16]
000000 c3 60 ff 3c 4e ec 1c 3f 22 19 c8 bd cf b2 c4 be
       0.03117407 0.6129807 -0.09770419 -0.3841767
000010 38 69 bc 3e 52 85 77 be cc 5c 10 3f 07 ab 5d 3e
       0.36799026 -0.24171951 0.56391597 0.21647273
000020 34 d2 17 be ec 55 b1 3e 25 46 f1 3e 4c af 44 3e
       -0.1482628 0.34635866 0.4712383 0.19207495
000030 f0 32 5c 3e a2 f0 04 be 43 1a 13 bf 93 8b d1 bd
       0.21503806 -0.12982419 -0.5746195 -0.102317

layer2.bn.running_var f4 [16]
000000 d3 ce e9 3d da f4 3d 3e f9 84 f5 3d 21 58 5a 3e
       0.11416402 0.18550435 0.11988253 0.21322681
000010 71 cc 6f 3e b7 a9 3b 3f 54 d6 ab 3e 50 b2 1f 3e
       0.23417832 0.7330584 0.33561957 0.15595365
000020 c3 e3 b4 3e 4d c1 05 3e ed 2f 57 3e 4e f7 c3 3e
       0.35330018 0.1306202 0.21014376 0.38274616
000030 95 e2 80 3e 40 53 4a 3e 6e 37 6d 3e 66 10 70 3e
       0.25172868 0.1975832 0.23165676 0.23443756

layer2.res.0.weight f4 [16, 8, 1, 1]
000000 77 d6 12 bd 7f 8c 8f 3e 98 b4 48 3e 28 76 08 be
       -0.03584906 0.28036878 0.19600141 -0.13326323
000010 26 49 5c bd 37 57 dd bd 18 75 cd bd fe 6e af be
       -0.053780697 -0.108076505 -0.100320995 -0.34264368
000020 43 ea 75 3d 06 14 e2 bc d9 56 5f 3d e0 9b 7e bd
       0.060037863 -0.027597439 0.054526184 -0.062160373
000030 5f 35 41 3e 2a 31 a0 be e6 0e ea 3d 9a 5c 9f bd
       0.18868016 -0.3128751 0.11428623 -0.07781334
000040 4a 68 c6 be ec e8 59 3e 8e 5d 52 bd b9 a5 2b bd
       -0.3875144 0.21280259 -0.051358752 -0.041906092
000050 7c 67 82 3e 32 88 29 be 04 da a5 be 6e 42 8e be
       0.25469577 -0.1655586 -0.32392895 -0.27785057
000060 bf 0d 99 3c 21 8d bb be 70 ff 6f 3e f2 78 16 3d
       0.018683312 -0.3663111 0.23437285 0.036736436
000070 4d 6c bf be cb c8 ae 3e bc 22 72 3e 64 56 30 3e
       -0.37387314 0.34137568 0.23646063 0.17220455
000080 8c 04 7b 3e f1 c7 21 3e 9f c9 5d be 12 63 8b 3e
       0.24513453 0.15798928 -0.21658944 0.27224022
000090 eb aa b0 3e 7f a1 36 be 64 98 3c 3e 9f b3 55 3c
       0.345054 -0.17835043 0.18417507 0.013043313
0000a0 a8 88 19 be 3e d8 8f be 0b a6 84 bd f3 8a 4a 3d
       -0.14993536 -0.28094667 -0.06476983 0.04944892
0000b0 4b c0 a3 be 3c 80 3f be 1f aa b8 3e e8 7e e0 3d
       -0.31982645 -0.18701261 0.36067292 0.109617054
0000c0 6a a0 88 3e e6 30 75 3e f3 99 1a be 72 1f 57 be
       0.26684886 0.23944435 -0.1509779 -0.21008089
0000d0 03 63 30 be ec f9 a2 be e1 40 c0 bd fc f7 26 3e
       -0.1722527 -0.318313 -0.09387375 0.16305536
0000e0 46 ba 4a 3e 2a 98 17 bd ab 00 16 3e 4e 89 a5 be
       0.1979762 -0.03701035 0.14648692 -0.32331318
0000f0 2e 52 89 3e 85 f1 03 be db 18 41 bb 24 c8 5b be
       0.2682051 -0.12885101 -0.0029464278 -0.21463066
000100 d1 d9 c7 3d c4 1a ce 3d 89 a4 55 3c 17 71 84 3c
       0.09758342 0.10063699 0.0130397165 0.016167207
000110 ad ef 83 3e 71 dd 82 be e8 0a 7c be 66 4e 90 be
       0.25768796 -0.2555957 -0.24613535 -0.28184813
000120 7f 2f fa 3d 18 35 80 be 0b 8a 00 be 0d 6d 00 3e
       0.122160904 -0.25040507 -0.12552659 0.125416
000130 04 a5 24 3e fe 29 b5 3e 3c af 76 3d db eb 6c be
       0.16078573 0.353836 0.06022571 -0.23136847
000140 10 e3 1d 3e 33 57 2e 3d bf 00 45 be a9 02 6e be
       0.15418649 0.04256363 -0.19238566 -0.23243202
000150 0a 51 88 3e af c8 57 3e ec ff 05 3e 85 e5 b2 3d
       0.26624328 0.21072648 0.13085908 0.087351836
000160 24 2e b3 3d f1 ea 93 bd 65 da 90 3e 7c 84 8e bd
       0.08749035 -0.07222546 0.28291622 -0.06958863
000170 c9 a4 bf 3d 9e 5d 27 be d1 54 e6 3c f2 84 01 3d
       0.09357602 -0.16344306 0.028116615 0.031620927
000180 6e 0e 5d be a7 17 08 3e f2 74 c3 3d 09 97 7e 3e
       -0.21587536 0.13290273 0.0954379 0.24862303
000190 9f 55 32 be 15 22 5f be fb cc a6 be 3a 53 8f 3c
       -0.17415474 -0.21790345 -0.32578263 0.01749574
0001a0 5b 09 0e 3e 1e 19 74 3c a3 9a 3a bd 86 9a df bd
       0.13870756 0.0148985665 -0.04555763 -0.10918145
0001b0 47 55 a6 3c 5a 75 72 3e ec 9c c0 bd cd 83 a8 bd
       0.020304335 0.23677579 -0.094049305 -0.08228264
0001c0 24 de 66 bc f1 ef 12 3e 6d f1 85 be e2 19 08 3e
       -0.014091048 0.14349343 -0.26160756 0.13291124
0001d0 09 42 0a be 8e 06 70 bd ec a1 3f 3d da a1 96 3e
       -0.13501753 -0.0586 0.04678528 0.29420358
0001e0 64 71 5a 3e 9c 3a 89 3e 19 a9 62 be b1 d3 ba be
       0.21332318 0.26802528 -0.22134818 -0.36489633
0001f0 cc 66 a4 be 61 60 e2 bd 42 ce 74 3e b4 54 68 3e
       -0.32109678 -0.11053539 0.23906806 0.22688562

layer2.res.0.bias f4 [16]
000000 38 1d 83 bd 6b 89 b0 3b 59 47 b3 37 e4 dc be bd
       -0.064020574 0.0053874752 2.1371687e-05 -0.09319475
000010 64 23 a0 bd 94 a6 b8 3d b6 c4 d9 37 24 50 97 3a
       -0.0781925 0.09016147 2.5960017e-05 0.001154427
000020 89 6f 4c 38 7d 55 66 3c b5 12 bf bd d0 03 0e b7
       4.8741265e-05 0.014058468 -0.0932974 -8.464747e-06
000030 ff 3b a1 36 59 5e a5 3d 08 5d c2 38 d8 33 99 3d
       4.8051584e-06 0.08074636 9.267969e-05 0.074805915

layer2.res.1.weight f4 [16]
000000 46 7a 79 3f 1b 54 81 3f 01 5c 80 3f c2 e2 7f 3f
       0.974522 1.0103792 1.0028077 0.9995538
000010 44 81 83 3f f7 b1 84 3f d4 7e 8b 3f 9d 62 82 3f
       1.0273824 1.036681 1.089808 1.0186344
000020 1b 6f 7b 3f bc 19 86 3f 01 54 7f 3f 8c c3 87 3f
       0.9821641 1.0476604 0.99737555 1.0606551
000030 8a 06 83 3f 5f 08 6a 3f 9b 13 88 3f 36 8c 91 3f
       1.023637 0.91419023 1.0630983 1.1370914

layer2.res.1.bias f4 [16]
000000 66 32 22 bc b7 fe 06 3c 2f 43 f3 3c a7 68 0c 3d
       -0.009899711 0.00823944 0.029695122 0.03427949
000010 97 a2 21 ba 59 02 56 3c 36 0b 5f 3d e6 92 9f 3c
       -0.00061658904 0.013062083 0.05445405 0.019479226
000020 c4 1a b2 bb 11 54 34 3d 4d e3 ee 3b af 91 1d 3d
       -0.0054353196 0.044025484 0.00729028 0.038469013
000030 97 cf 06 3d ab 9c 00 3d c3 8b 95 3d a1 0e e3 3d
       0.032912817 0.03139941 0.07302048 0.110867746

layer2.res.1.running_mean f4 [16]
000000 2f b4 36 be 42 d1 21 3d 0c 59 fb be e2 f0 1f 3e
       -0.17842172 0.039506204 -0.49091375 0.15619233
000010 3e 23 8d 3e 71 70 90 bd bc fe e0 bd 08 b4 60 3d
       0.2756595 -0.070526965 -0.10986087 0.05485919
000020 b4 31 f6 bd 18 75 fa 3d 85 a2 88 3d 23 a9 51 3e
       -0.12021199 0.12229365 0.06671623 0.20474677
000030 05 59 7b be 65 cd e9 3d d8 56 bb bc 8f a4 30 3d
       -0.24545677 0.11416129 -0.022868559 0.043125685

layer2.res.1.running_var f4 [16]
000000 39 bd 13 3e 5e 38 b7 3d c0 9d 0e 3e 7d 7a d0 3d
       0.14427651 0.08946298 0.13927364 0.10179613
000010 99 b4 7d 3e b3 bb 35 3e c7 c2 23 3e c7 51 5a 3e
       0.24775924 0.17747383 0.1599227 0.21320258
000020 0b 87 f6 3d a8 f5 36 3e cb 48 93 3d b5 69 18 3e
       0.12037476 0.17867148 0.071916185 0.14884074
000030 b9 f0 d6 3d 29 db 84 3d 80 cd e3 3d 82 9c b9 3d
       0.10495133 0.06487114 0.111231804 0.090630546

fc.weight f4 [5, 16]
000000 d2 a3 2f 3e ba 6c 2f 3e 00 47 77 3b c8 e6 f0 3d
       0.17152336 0.1713132 0.0037731528 0.11762768
000010 6e f4 49 3e 2f 13 e4 3d 3a bd ef bd 3f 88 fb 3d
       0.19722149 0.111364715 -0.11706014 0.12281846
000020 b0 7b 24 bd 3e ed 49 3e 97 13 93 be f5 06 28 be
       -0.04015702 0.19719407 -0.28725883 -0.16408904
000030 eb 49 8d be d8 3f 0e bd 12 2a 2b 3c 35 9a 72 3d
       -0.27595457 -0.034728855 0.010447042 0.059229095
000040 4e 62 bf 3d 5f 89 3f 3e 96 0d 5a be 95 d8 d5 3d
       0.09344922 0.18704747 -0.21294245 0.104417
000050 48 e0 ea 3c cd 9d fe bd 0b f1 56 3c 26 2a 41 bc
       0.028671399 -0.12432442 0.013118993 -0.011789834
000060 54 77 27 3e 37 bf 4a 3e 13 0d 33 3e ed 8c cc 3d
       0.16354114 0.19799505 0.17485456 0.09987817
000070 9d 4e 23 3d 3a 0f 8c 3d 3e e9 a4 be b3 eb b5 be
       0.039869893 0.06838842 -0.322092 -0.35531387
000080 44 5f 00 be 0d cd 85 3e 4a c6 f1 bd 25 cc 19 3e
       -0.12536341 0.26133004 -0.11805399 0.15019281
000090 2c d5 61 bd 44 99 0d 3d b0 f6 97 3e 10 06 91 3e
       -0.055134937 0.034569994 0.29680395 0.28324938
0000a0 88 f8 7e be 55 b0 9d be a9 38 58 be ef db a5 3d
       -0.24899495 -0.30798593 -0.21115364 0.0809859
0000b0 55 0b 4a 3c 78 16 0e be 03 24 b0 3d 79 7c 55 3e
       0.012331803 -0.13875759 0.08600619 0.20848264
0000c0 c5 5e e9 bd 88 11 3f be a1 f0 95 3e d0 f2 8a 3e
       -0.11395029 -0.18659031 0.29285148 0.27138376
0000d0 57 e9 04 bd a9 40 99 bc 60 24 93 bd c5 e1 74 bd
       -0.032449093 -0.01870759 -0.07184672 -0.059785623
0000e0 ca 94 18 3e b9 ce 25 3e ee f8 1f bd 57 86 a1 3c
       0.14900509 0.1619214 -0.039055757 0.019717379
0000f0 d4 79 a2 bc 91 2f 6a 3e e8 5f 01 bb 26 7b 63 3e
       -0.019833483 0.22869708 -0.0019741002 0.22214946
000100 76 d7 84 3e a9 91 b6 3c db c8 7c be 17 f6 3f 3e
       0.25945634 0.022286253 -0.24685995 0.1874622
000110 7c 8a 91 be dc a8 94 be b1 fe eb 3d 39 03 0a 3e
       -0.28425968 -0.2903508 0.11523188 0.13477792
000120 b0 7f 33 3e c9 ad 2d be c1 97 50 3e da 3b 8e 3d
       0.17529178 -0.16960825 0.2037039 0.069450095
000130 0f bd 43 3e 1b 95 2a be 0c 09 8f 3e fb a2 47 3e
       0.19115089 -0.16658442 0.2793659 0.19495766

fc.bias f4 [5]
000000 78 f1 ca bd 7b e9 1c 3e e8 8e 43 be 38 3c ac bd
       -0.09909338 0.1532344 -0.19097483 -0.08409923
000010 65 f2 ec bd
       -0.115696706
