best_model_p005.pth (torch, 21674 bytes, 32 tensors)

layer1.A f4 [21, 21]
1.0 1.0 0.0 0.0 0.0 1.0 0.0 0.0
0.0 1.0 0.0 0.0 0.0 1.0 0.0 0.0
0.0 1.0 0.0 0.0 0.0 1.0 1.0 1.0
0.0 0.0 0.0 0.0 0.0 0.0 0.0 0.0
0.0 0.0 0.0 0.0 0.0 0.0 0.0 0.0
0.0 0.0 0.0 1.0 1.0 1.0 0.0 0.0
0.0 0.0 0.0 0.0 0.0 0.0 0.0 0.0
0.0 0.0 0.0 0.0 0.0 0.0 0.0 0.0
0.0 1.0 1.0 1.0 0.0 0.0 0.0 0.0
0.0 0.0 0.0 0.0 0.0 0.0 0.0 0.0
0.0 0.0 0.0 0.0 0.0 0.0 0.0 1.0
1.0 0.0 0.0 0.0 0.0 0.0 0.0 0.0
0.0 0.0 0.0 0.0 0.0 0.0 0.0 0.0
0.0 1.0 0.0 0.0 0.0 0.0 1.0 1.0
0.0 0.0 1.0 0.0 0.0 0.0 0.0 0.0
0.0 0.0 0.0 0.0 0.0 0.0 0.0 0.0
0.0 0.0 0.0 1.0 1.0 1.0 0.0 0.0
0.0 0.0 0.0 0.0 0.0 0.0 0.0 0.0
0.0 0.0 0.0 0.0 0.0 0.0 0.0 0.0
0.0 1.0 1.0 1.0 0.0 0.0 0.0 0.0
0.0 0.0 0.0 0.0 0.0 0.0 0.0 0.0
0.0 0.0 0.0 0.0 0.0 0.0 0.0 1.0
1.0 0.0 0.0 0.0 0.0 0.0 0.0 0.0
0.0 0.0 0.0 0.0 0.0 1.0 0.0 0.0
0.0 0.0 1.0 0.0 0.0 0.0 1.0 1.0
0.0 0.0 1.0 0.0 0.0 0.0 0.0 0.0
0.0 0.0 0.0 0.0 0.0 0.0 0.0 0.0
0.0 0.0 0.0 1.0 1.0 1.0 0.0 0.0
0.0 0.0 0.0 0.0 0.0 0.0 0.0 0.0
0.0 0.0 0.0 0.0 0.0 0.0 0.0 0.0
0.0 1.0 1.0 1.0 0.0 0.0 0.0 0.0
0.0 0.0 0.0 0.0 0.0 0.0 0.0 0.0
00000000: 0000 803f 0000 803f 0000 0000 0000 0000
00000010: 0000 0000 0000 803f 0000 0000 0000 0000
00000020: 0000 0000 0000 803f 0000 0000 0000 0000
00000030: 0000 0000 0000 803f 0000 0000 0000 0000
00000040: 0000 0000 0000 803f 0000 0000 0000 0000
00000050: 0000 0000 0000 803f 0000 803f 0000 803f
00000060: 0000 0000 0000 0000 0000 0000 0000 0000
00000070: 0000 0000 0000 0000 0000 0000 0000 0000
00000080: 0000 0000 0000 0000 0000 0000 0000 0000
00000090: 0000 0000 0000 0000 0000 0000 0000 0000
000000a0: 0000 0000 0000 0000 0000 0000 0000 803f
000000b0: 0000 803f 0000 803f 0000 0000 0000 0000
000000c0: 0000 0000 0000 0000 0000 0000 0000 0000
000000d0: 0000 0000 0000 0000 0000 0000 0000 0000
000000e0: 0000 0000 0000 0000 0000 0000 0000 0000
000000f0: 0000 0000 0000 0000 0000 0000 0000 0000
00000100: 0000 0000 0000 803f 0000 803f 0000 803f
00000110: 0000 0000 0000 0000 0000 0000 0000 0000
00000120: 0000 0000 0000 0000 0000 0000 0000 0000
00000130: 0000 0000 0000 0000 0000 0000 0000 0000
00000140: 0000 0000 0000 0000 0000 0000 0000 0000
00000150: 0000 0000 0000 0000 0000 0000 0000 803f
00000160: 0000 803f 0000 0000 0000 0000 0000 0000
00000170: 0000 0000 0000 0000 0000 0000 0000 0000
00000180: 0000 0000 0000 0000 0000 0000 0000 0000
00000190: 0000 0000 0000 0000 0000 0000 0000 0000
000001a0: 0000 0000 0000 803f 0000 0000 0000 0000
000001b0: 0000 0000 0000 0000 0000 803f 0000 803f
000001c0: 0000 0000 0000 0000 0000 803f 0000 0000
000001d0: 0000 0000 0000 0000 0000 0000 0000 0000
000001e0: 0000 0000 0000 0000 0000 0000 0000 0000
000001f0: 0000 0000 0000 0000 0000 0000 0000 0000
00000200: 0000 0000 0000 0000 0000 0000 0000 803f
00000210: 0000 803f 0000 803f 0000 0000 0000 0000
00000220: 0000 0000 0000 0000 0000 0000 0000 0000
00000230: 0000 0000 0000 0000 0000 0000 0000 0000
00000240: 0000 0000 0000 0000 0000 0000 0000 0000
00000250: 0000 0000 0000 0000 0000 0000 0000 0000
00000260: 0000 0000 0000 803f 0000 803f 0000 803f
00000270: 0000 0000 0000 0000 0000 0000 0000 0000
00000280: 0000 0000 0000 0000 0000 0000 0000 0000
00000290: 0000 0000 0000 0000 0000 0000 0000 0000
000002a0: 0000 0000 0000 0000 0000 0000 0000 0000
000002b0: 0000 0000 0000 0000 0000 0000 0000 803f
000002c0: 0000 803f 0000 0000 0000 0000 0000 0000
000002d0: 0000 0000 0000 0000 0000 0000 0000 0000
000002e0: 0000 0000 0000 0000 0000 0000 0000 0000
000002f0: 0000 0000 0000 803f 0000 0000 0000 0000
00000300: 0000 0000 0000 0000 0000 803f 0000 0000
00000310: 0000 0000 0000 0000 0000 803f 0000 803f
00000320: 0000 0000 0000 0000 0000 803f 0000 0000
00000330: 0000 0000 0000 0000 0000 0000 0000 0000
00000340: 0000 0000 0000 0000 0000 0000 0000 0000
00000350: 0000 0000 0000 0000 0000 0000 0000 0000
00000360: 0000 0000 0000 0000 0000 0000 0000 803f
00000370: 0000 803f 0000 803f 0000 0000 0000 0000
00000380: 0000 0000 0000 0000 0000 0000 0000 0000
00000390: 0000 0000 0000 0000 0000 0000 0000 0000
000003a0: 0000 0000 0000 0000 0000 0000 0000 0000
000003b0: 0000 0000 0000 0000 0000 0000 0000 0000
000003c0: 0000 0000 0000 803f 0000 803f 0000 803f
000003d0: 0000 0000 0000 0000 0000 0000 0000 0000
000003e0: 0000 0000 0000 0000 0000 0000 0000 0000
000003f0: 0000 0000 0000 0000 0000 0000 0000 0000

layer1.gcn.weight f4 [8, 3, 1, 1]
-0.54688245 0.22540359 0.21199217 -0.0033668275 -0.57235885 -0.20159146 -0.048485 0.19683778
0.08423199 -0.38879856 0.47536954 -0.47119954 -0.17858833 -0.303307 -0.52041084 -0.26876277
-0.18672848 0.07258843 0.4964505 -0.014906281 -0.42697155 0.150902 0.06765362 0.48423448
00000000: 7d00 0cbf 33d0 663e 7a14 593e fea5 5cbb
00000010: 1c86 12bf fe6d 4ebe 3598 46bd d88f 493e
00000020: d281 ac3d 9b10 c7be a363 f33e 1141 f1be
00000030: dcdf 36be 0e4b 9bbe a539 05bf 469b 89be
00000040: c035 3fbe 3ea9 943d c32e fe3e 7939 74bc
00000050: 049c dabe 0e86 1a3e fb8d 8a3d 95ed f73e

layer1.gcn.bias f4 [8]
0.54004836 0.0784979 0.004405923 0.50634265 -0.024750277 -0.022307154 -0.4280255 0.15026326
00000000: 9c40 0a3f 82c3 a03d 905f 903b ac9f 013f
00000010: 18c1 cabc 7ebd b6bc 2926 dbbe 9dde 193e

layer1.tcn.weight f4 [8, 8, 3, 1]
0.13455006 0.020354845 0.15849352 -0.11415126 -0.13152535 -0.020593397 0.2428387 0.02164532
0.09382617 0.21646917 -0.00804641 -0.059784934 0.100803 0.05606809 0.09679849 -0.07706227
0.02290997 -0.19478454 0.005532273 -0.1397278 -0.13148743 -0.07308601 0.14374624 0.03645307
0.0069903643 0.11245452 -0.026378024 -0.1436517 -0.25613597 -0.034743052 0.011806217 0.09485052
-0.14675291 0.17364223 0.11560014 0.20234802 -0.067528695 0.095005475 -0.14455207 -0.01480676
0.085001774 -0.0046817246 -0.030171033 -0.11527598 0.057003804 -0.16226256 0.070431344 -0.17125392
-0.16495387 -0.25165445 0.015351201 -0.19315182 0.0034386665 -0.14720644 -0.13475159 -0.021857785
0.13282432 -0.098493524 -0.23429523 -0.2294422 0.0428879 0.066506825 0.08817643 0.06072005
0.14990905 -0.13110638 -0.12567471 -0.20427796 0.16192256 0.073079795 0.04631164 0.13176747
-0.15638272 -0.122593716 0.09036962 -0.06251146 0.15974142 -0.09722713 -0.043745358 -0.07724484
0.1038041 -0.042788036 -0.106392875 -0.1897899 0.07739269 0.2387148 0.1327232 0.06610633
0.090547785 -0.077328995 -0.05806302 -0.0774391 -0.15530679 0.12388458 0.12307392 0.042728603
-0.24622177 -0.15914862 -0.0041480833 -0.16349877 0.106178954 -0.19259788 -0.088215016 -0.010535377
-0.08821578 0.005279403 0.117873065 -0.1639248 -0.14336742 0.007877545 0.09143548 -0.14009547
-0.07625321 -0.03644646 0.41354847 0.29478785 0.10825047 0.05784319 -0.03824119 -0.03478494
-0.020122483 0.025272809 -0.025855979 -0.0854219 -0.09254124 0.09003222 0.103042595 0.17534915
-0.16805734 0.007577606 0.15053783 0.04434636 0.068336196 -0.139985 0.04344798 0.18258114
-0.16197324 -0.05887581 0.08471322 -0.112818785 0.02663259 0.075919144 -0.13458386 -0.18914074
-0.0042574718 0.14560704 0.04196837 -0.051867776 -0.086513646 -0.04963623 0.11149398 -0.12989287
0.21137837 -0.1546014 0.11025414 -0.11023892 -0.19240738 0.012567801 0.029147644 0.049239367
-0.07767891 -0.05602397 -0.18958831 0.123837516 -0.18219435 0.038445577 0.16252995 0.16531678
0.22386862 0.0356337 0.16997588 0.013278953 0.011140914 -0.17347738 0.014817082 0.0764047
0.030174745 0.20220143 -0.038827416 -0.0017781353 -0.091129534 0.09416907 0.21528266 0.09425627
-0.029590448 -0.00732068 -0.22004446 -0.2409849 0.10650125 -0.044703517 0.12756939 -0.129185
00000000: 7ec7 093e 34bf a63c 204c 223e 23c8 e9bd
00000010: 95ae 06be 7cb3 a8bc b5aa 783e 8751 b13c
00000020: ef27 c03d 18aa 5d3e 17d5 03bc 0ce1 74bd
00000030: ce71 ce3d a7a7 653d 493e c63d d3d2 9dbd
00000040: b0ad bb3c 9975 47be 1248 b53b ce14 0fbe
00000050: a4a4 06be 1eae 95bd 3732 133e d04f 153d
00000060: 6d0f e53b 8e4e e63d ba16 d8bc 6e19 13be
00000070: 4124 83be bb4e 0ebd dd6e 413c fd40 c23d
00000080: 6546 16be 45cf 313e c4bf ec3d 5234 4f3e
00000090: 7c4c 8abd 3b92 c23d 7505 14be 0d98 72bc
000000a0: 6915 ae3d 2769 99bb 3e29 f7bc d015 ecbd
000000b0: d27c 693d 2828 26be 4f3e 903d 305d 2fbe
000000c0: abe9 28be dad8 80be 9b83 7b3c 97c9 45be
000000d0: 405b 613b 49bd 16be 52fc 09be 190f b3bc
000000e0: 1903 083e f9b6 c9bd 17eb 6fbe e5f2 6abe
000000f0: 39ab 2f3d bb34 883d d895 b43d 96b5 783d
00000100: c281 193e c040 06be dfb0 00be 3e2e 51be
00000110: 07cf 253e dcaa 953d 46b1 3d3d 0dee 063e
00000120: cb22 20be 6a12 fbbd b513 b93d 0206 80bd
00000130: 4193 233e 041f c7bd 552e 33bd 8b32 9ebd
00000140: 3e97 d43d 8242 2fbd 82e4 d9bd 4958 42be
00000150: 0f80 9e3d a771 743e 97e8 073e c162 873d
00000160: 1e71 b93d aa5e 9ebd 7dd3 6dbd 6498 9ebd
00000170: be08 1fbe 33b7 fd3d 2e0e fc3d 3004 2f3d
00000180: 8f21 7cbe dbf7 22be a5ec 87bb 396c 27be
00000190: 5a74 d93d 6138 45be 13aa b4bd 939c 2cbc
000001a0: 7aaa b4bd d8fe ac3b 6f67 f13d e7db 27be
000001b0: e9ce 12be d210 013c 8642 bb3d 3075 0fbe
000001c0: a52a 9cbd e248 15bd a0bc d33e 6fee 963e
000001d0: 6cb2 dd3d fbec 6c3d cba2 1cbd a77a 0ebd
000001e0: e8d7 a4bc ec08 cf3c ebcf d3bc adf1 aebd
000001f0: 4386 bdbd d062 b83d ff07 d33d ba8e 333e
00000200: 3917 2cbe 914d f83b 9726 1a3e 87a4 353d
00000210: d9f3 8b3d 3a58 0fbe 82f6 313d 8df6 3a3e
00000220: 50dc 25be c327 71bd 207e ad3d 890d e7bd
00000230: 972c da3c 7f7b 9b3d 5ad0 09be 1cae 41be
00000240: 4382 8bbb 031a 153e 07e7 2b3d 4e73 54bd
00000250: 112e b1bd 5c4f 4bbd f556 e43d a302 05be
00000260: 9273 583e d44f 1ebe eccc e13d f1c4 e1bd
00000270: 7106 45be 2ee9 4d3c 0ac7 ee3c 38af 493d
00000280: 1f16 9fbd 6479 65bd 7023 42be 869e fd3d
00000290: 2891 3abe 1c79 1d3d 406e 263e cd48 293e
000002a0: d13d 653e a5f4 113d 280e 2e3e f78f 593c
000002b0: 6188 363c 0ea4 31be 59c3 723c 117a 9c3d
000002c0: 0731 f73c e40d 4f3e 7f09 1fbd 5210 e9ba
000002d0: 1fa2 babd b7db c03d 0f73 5c3e 6e09 c13d
000002e0: ab67 f2bc 51e2 efbb 5653 61be bfc4 76be
000002f0: 541d da3d 091b 37bd 8da1 023e 1349 04be

layer1.tcn.bias f4 [8]
5.179174e-05 0.00010211905 1.3327026e-05 -0.0005136458 -3.8724025e-05 -0.0005886195 0.0005759579 -0.0001652722
00000000: f53a 5938 bf28 d638 2497 5f37 30a6 06ba
00000010: 9b6b 22b8 964d 1aba e1fb 163a eb4c 2db9

layer1.bn.weight f4 [8]
0.911936 0.81277406 0.9252938 0.8407472 0.9793928 0.9725714 1.0754869 0.9812623
00000000: a374 693f f611 503f 0ee0 6c3f 353b 573f
00000010: 7db9 7a3f 70fa 783f 8ea9 893f 0234 7b3f

layer1.bn.bias f4 [8]
-0.28822982 -0.0035679897 -0.06299284 0.2925626 -0.30194494 -0.17145687 -0.25886557 -0.22045295
00000000: dc92 93be efd4 69bb 6402 81bd c4ca 953e
00000010: 8798 9abe 6492 2fbe 078a 84be 6bbe 61be

layer1.bn.running_mean f4 [8]
0.24584073 0.39966857 -0.13182172 -0.53235215 0.77990466 0.11316632 0.31307322 -0.22211143
00000000: acbd 7b3e 5ca1 cc3e 46fc 06be 3b48 08bf
00000010: d5a7 473f bec3 e73d 224b a03e 2e71 63be

layer1.bn.running_var f4 [8]
0.10731616 0.17762877 0.06546286 0.065205775 0.15745984 0.019360863 0.023452971 0.11485173
00000000: 93c8 db3d 51e4 353e 6411 863d 9b8a 853d
00000010: 273d 213e ac9a 9e3c 7220 c03c 6237 eb3d

layer1.res.0.weight f4 [8, 3, 1, 1]
0.020482192 -0.49787694 0.23166002 -0.3991849 -0.28940576 0.2520121 -0.074403025 0.275887
0.084657796 -0.08291543 0.47658467 -0.3845466 -0.47621924 -0.57231385 -0.14029163 0.41669536
-0.106884845 0.0031636853 -0.478641 -0.31473243 0.2916261 -0.10769289 -0.01562967 -0.36338726
00000000: 45ca a73c bae9 febe 4938 6d3e f761 ccbe
00000010: fe2c 94be bb07 813e 9d60 98bd 1041 8d3e
00000020: 1161 ad3d 91cf a9bd e802 f43e 4be3 c4be
00000030: 02d3 f3be 2983 12bf 9ca8 0fbe 1859 d53e
00000040: 71e6 dabd d555 4f3b 6f10 f5be 9c24 a1be
00000050: 0450 953e 178e dcbd cb09 80bc e50d babe

layer1.res.0.bias f4 [8]
-4.966382e-05 -3.569708e-05 0.00078595954 -0.0005523283 -0.00019565044 9.5873336e-05 3.224087e-06 -0.0013010268
00000000: 1f4e 50b8 73b9 15b8 da08 4e3a 20ca 10ba
00000010: 8427 4db9 9b0f c938 655d 5836 3787 aaba

layer1.res.1.weight f4 [8]
1.0406488 1.1146673 1.1287361 1.0582038 0.9023758 0.98119724 0.84379464 0.91047186
00000000: fb33 853f 6bad 8e3f 6d7a 903f 3973 873f
00000010: 1a02 673f be2f 7b3f ed02 583f af14 693f

layer1.res.1.bias f4 [8]
-0.28822982 -0.0035679897 -0.06299284 0.2925626 -0.30194494 -0.17145687 -0.25886557 -0.22045295
00000000: dc92 93be efd4 69bb 6402 81bd c4ca 953e
00000010: 8798 9abe 6492 2fbe 078a 84be 6bbe 61be

layer1.res.1.running_mean f4 [8]
-0.22404267 -0.3900887 0.08099794 0.17617546 -0.56565464 0.21412838 -0.4526937 -0.07129812
00000000: 716b 65be b5b9 c7be 3fe2 a53d 5767 343e
00000010: bece 10bf 7844 5b3e 78c7 e7be c004 92bd

layer1.res.1.running_var f4 [8]
0.021388268 0.020498803 0.0065669105 0.019716332 0.046501525 0.013216598 0.027461141 0.00078044867
00000000: 7336 af3c 1bed a73c 3d2f d73b 2584 a13c
00000010: 6278 3e3d 6e8a 583c 30f6 e03c 0697 4c3a

layer2.A f4 [21, 21]
1.0 1.0 0.0 0.0 0.0 1.0 0.0 0.0
0.0 1.0 0.0 0.0 0.0 1.0 0.0 0.0
0.0 1.0 0.0 0.0 0.0 1.0 1.0 1.0
0.0 0.0 0.0 0.0 0.0 0.0 0.0 0.0
0.0 0.0 0.0 0.0 0.0 0.0 0.0 0.0
0.0 0.0 0.0 1.0 1.0 1.0 0.0 0.0
0.0 0.0 0.0 0.0 0.0 0.0 0.0 0.0
0.0 0.0 0.0 0.0 0.0 0.0 0.0 0.0
0.0 1.0 1.0 1.0 0.0 0.0 0.0 0.0
0.0 0.0 0.0 0.0 0.0 0.0 0.0 0.0
0.0 0.0 0.0 0.0 0.0 0.0 0.0 1.0
1.0 0.0 0.0 0.0 0.0 0.0 0.0 0.0
0.0 0.0 0.0 0.0 0.0 0.0 0.0 0.0
0.0 1.0 0.0 0.0 0.0 0.0 1.0 1.0
0.0 0.0 1.0 0.0 0.0 0.0 0.0 0.0
0.0 0.0 0.0 0.0 0.0 0.0 0.0 0.0
0.0 0.0 0.0 1.0 1.0 1.0 0.0 0.0
0.0 0.0 0.0 0.0 0.0 0.0 0.0 0.0
0.0 0.0 0.0 0.0 0.0 0.0 0.0 0.0
0.0 1.0 1.0 1.0 0.0 0.0 0.0 0.0
0.0 0.0 0.0 0.0 0.0 0.0 0.0 0.0
0.0 0.0 0.0 0.0 0.0 0.0 0.0 1.0
1.0 0.0 0.0 0.0 0.0 0.0 0.0 0.0
0.0 0.0 0.0 0.0 0.0 1.0 0.0 0.0
0.0 0.0 1.0 0.0 0.0 0.0 1.0 1.0
0.0 0.0 1.0 0.0 0.0 0.0 0.0 0.0
0.0 0.0 0.0 0.0 0.0 0.0 0.0 0.0
0.0 0.0 0.0 1.0 1.0 1.0 0.0 0.0
0.0 0.0 0.0 0.0 0.0 0.0 0.0 0.0
0.0 0.0 0.0 0.0 0.0 0.0 0.0 0.0
0.0 1.0 1.0 1.0 0.0 0.0 0.0 0.0
0.0 0.0 0.0 0.0 0.0 0.0 0.0 0.0
00000000: 0000 803f 0000 803f 0000 0000 0000 0000
00000010: 0000 0000 0000 803f 0000 0000 0000 0000
00000020: 0000 0000 0000 803f 0000 0000 0000 0000
00000030: 0000 0000 0000 803f 0000 0000 0000 0000
00000040: 0000 0000 0000 803f 0000 0000 0000 0000
00000050: 0000 0000 0000 803f 0000 803f 0000 803f
00000060: 0000 0000 0000 0000 0000 0000 0000 0000
00000070: 0000 0000 0000 0000 0000 0000 0000 0000
00000080: 0000 0000 0000 0000 0000 0000 0000 0000
00000090: 0000 0000 0000 0000 0000 0000 0000 0000
000000a0: 0000 0000 0000 0000 0000 0000 0000 803f
000000b0: 0000 803f 0000 803f 0000 0000 0000 0000
000000c0: 0000 0000 0000 0000 0000 0000 0000 0000
000000d0: 0000 0000 0000 0000 0000 0000 0000 0000
000000e0: 0000 0000 0000 0000 0000 0000 0000 0000
000000f0: 0000 0000 0000 0000 0000 0000 0000 0000
00000100: 0000 0000 0000 803f 0000 803f 0000 803f
00000110: 0000 0000 0000 0000 0000 0000 0000 0000
00000120: 0000 0000 0000 0000 0000 0000 0000 0000
00000130: 0000 0000 0000 0000 0000 0000 0000 0000
00000140: 0000 0000 0000 0000 0000 0000 0000 0000
00000150: 0000 0000 0000 0000 0000 0000 0000 803f
00000160: 0000 803f 0000 0000 0000 0000 0000 0000
00000170: 0000 0000 0000 0000 0000 0000 0000 0000
00000180: 0000 0000 0000 0000 0000 0000 0000 0000
00000190: 0000 0000 0000 0000 0000 0000 0000 0000
000001a0: 0000 0000 0000 803f 0000 0000 0000 0000
000001b0: 0000 0000 0000 0000 0000 803f 0000 803f
000001c0: 0000 0000 0000 0000 0000 803f 0000 0000
000001d0: 0000 0000 0000 0000 0000 0000 0000 0000
000001e0: 0000 0000 0000 0000 0000 0000 0000 0000
000001f0: 0000 0000 0000 0000 0000 0000 0000 0000
00000200: 0000 0000 0000 0000 0000 0000 0000 803f
00000210: 0000 803f 0000 803f 0000 0000 0000 0000
00000220: 0000 0000 0000 0000 0000 0000 0000 0000
00000230: 0000 0000 0000 0000 0000 0000 0000 0000
00000240: 0000 0000 0000 0000 0000 0000 0000 0000
00000250: 0000 0000 0000 0000 0000 0000 0000 0000
00000260: 0000 0000 0000 803f 0000 803f 0000 803f
00000270: 0000 0000 0000 0000 0000 0000 0000 0000
00000280: 0000 0000 0000 0000 0000 0000 0000 0000
00000290: 0000 0000 0000 0000 0000 0000 0000 0000
000002a0: 0000 0000 0000 0000 0000 0000 0000 0000
000002b0: 0000 0000 0000 0000 0000 0000 0000 803f
000002c0: 0000 803f 0000 0000 0000 0000 0000 0000
000002d0: 0000 0000 0000 0000 0000 0000 0000 0000
000002e0: 0000 0000 0000 0000 0000 0000 0000 0000
000002f0: 0000 0000 0000 803f 0000 0000 0000 0000
00000300: 0000 0000 0000 0000 0000 803f 0000 0000
00000310: 0000 0000 0000 0000 0000 803f 0000 803f
00000320: 0000 0000 0000 0000 0000 803f 0000 0000
00000330: 0000 0000 0000 0000 0000 0000 0000 0000
00000340: 0000 0000 0000 0000 0000 0000 0000 0000
00000350: 0000 0000 0000 0000 0000 0000 0000 0000
00000360: 0000 0000 0000 0000 0000 0000 0000 803f
00000370: 0000 803f 0000 803f 0000 0000 0000 0000
00000380: 0000 0000 0000 0000 0000 0000 0000 0000
00000390: 0000 0000 0000 0000 0000 0000 0000 0000
000003a0: 0000 0000 0000 0000 0000 0000 0000 0000
000003b0: 0000 0000 0000 0000 0000 0000 0000 0000
000003c0: 0000 0000 0000 803f 0000 803f 0000 803f
000003d0: 0000 0000 0000 0000 0000 0000 0000 0000
000003e0: 0000 0000 0000 0000 0000 0000 0000 0000
000003f0: 0000 0000 0000 0000 0000 0000 0000 0000

layer2.gcn.weight f4 [16, 8, 1, 1]
-0.3123555 -0.015597023 0.31939432 -0.0127045475 -0.044078063 -0.11249761 -0.23197745 0.277187
-0.21537368 0.07948259 -0.0021923585 -0.05828914 -0.30692405 -0.20449579 0.17632763 -0.3478889
0.4089341 -0.27098623 -0.36658606 0.19602057 0.21447739 0.18122654 -0.22358075 -0.013520488
0.23276171 -0.3364686 0.0054468187 -0.27717787 0.14178106 -0.19392934 -0.28979242 0.33671427
0.099567324 -0.13805006 -0.010139047 0.03707389 0.03890429 0.017799318 0.01040981 -0.10307688
0.29323506 0.1559182 0.3127892 -0.17860441 0.24261388 0.29705134 -0.124405675 -0.055502824
0.15640016 -0.35911343 -0.31730756 0.070336714 -0.03081735 0.03670043 0.2923049 0.27085873
-0.42445895 -0.111274526 0.05700678 -0.30573925 0.086253926 -0.02243459 0.19970226 0.15967111
0.19027899 0.18544695 0.17508085 0.32771933 0.021424426 0.32318792 0.22299358 -0.11400859
-0.3781091 0.14405103 -0.29081202 -0.14210133 0.07561105 0.2110504 -0.092102796 -0.041827433
0.044234846 0.019526508 0.023779785 0.13895583 -0.12690395 0.26687166 -0.24492955 0.24936475
-0.30479774 0.19329219 -0.27611655 0.19247918 -0.1609939 0.12041883 0.03607385 -0.29099125
0.49054703 -0.08123734 0.0047087152 0.13357708 -0.11413993 0.17135116 0.23156703 -0.25239035
-0.030935066 0.28358495 -0.19841409 -0.0782801 0.117187776 0.15477028 -0.14816691 0.0023193182
-0.20916162 0.13998881 0.047569882 0.03886584 -0.18683903 0.10812258 -0.11917508 -0.11229608
-0.03293469 -0.0977982 0.4205732 -0.22427802 0.3401419 0.097698845 0.3130043 -0.068074904
00000000: 0fed 9fbe a88a 7fbc a787 a33e bc26 50bc
00000010: 338b 34bd 2665 e6bd 7f8b 6dbe 74eb 8d3e
00000020: eb8a 5cbe c5c7 a23d acad 0fbb 98c0 6ebd
00000030: 2625 9dbe 5867 51be 3b8f 343e 7e1e b2be
00000040: cf5f d13e b5be 8abe 2bb1 bbbe 9eb9 483e
00000050: f69f 5b3e 7393 393e 5af2 64be 0985 5dbc
00000060: 1659 6e3e 9d45 acbe 3a7b b23b 42ea 8dbe
00000070: 0e2f 113e 6a95 46be ac5f 94be d065 ac3e
00000080: f4e9 cb3d ff5c 0dbe 3f1e 26bc cbda 173d
00000090: 1b5a 1f3d e0cf 913c e88d 2a3c f919 d3bd
000000a0: e822 963e 05a9 1f3e e825 a03e 13e4 36be
000000b0: c66f 783e 1d17 983e 67c8 febd ee56 63bd
000000c0: 5d27 203e b7dd b7be 2376 a2be b20c 903d
000000d0: ab74 fcbc 3153 163d fda8 953e ffad 8a3e
000000e0: af52 d9be e6e3 e3bd f17f 693d db89 9cbe
000000f0: e6a5 b03d bfc8 b7bc c07e 4c3e d380 233e
00000100: 7fd8 423e cee5 3d3e 6548 333e d4ca a73e
00000110: 4782 af3c e378 a53e 6e58 643e 567d e9bd
00000120: 8497 c1be 1d82 133e 50e5 94be 0383 11be
00000130: f7d9 9a3d 991d 583e 64a0 bcbd 3e53 2bbd
00000140: 992f 353d 0ef6 9f3c d3cd c23c 704a 0e3e
00000150: 1cf3 01be 67a3 883e d0ce 7abe 7959 7f3e
00000160: 730e 9cbe 63ee 453e 265f 8dbe 4319 453e
00000170: 96db 24be 269e f63d 2cc2 133d cefc 94be
00000180: fb28 fb3e c35f a6bd 914b 9a3b 6ec8 083e
00000190: 32c2 e9bd ae76 2f3e e81f 6d3e 4f39 81be
000001a0: 896b fdbc 0c32 913e 102d 4bbe 5151 a0bd
000001b0: 2500 f03d 1a7c 1e3e 11b9 17be b4ff 173b
000001c0: 772e 56be 3a59 0f3e a3d8 423d c931 1f3d
000001d0: bb52 3fbe 5f6f dd3d 1012 f4bd 7dfb e5bd
000001e0: 87e6 06bd 6c4a c8bd 5f55 d73e 23a9 65be
000001f0: 1427 ae3e 5516 c83d 1a42 a03e db6a 8bbd

layer2.gcn.bias f4 [16]
0.17393681 0.26379403 0.024763575 0.028465612 -0.15359439 -0.30155534 0.15517467 0.26057586
-0.41144422 0.2656318 -0.3191918 0.05235057 -0.07615328 0.00097238726 0.2616363 0.0019964862
00000000: 7e1c 323e 0310 873e fbdc ca3c b730 e93c
00000010: d947 1dbe 7665 9abe 1ce6 1e3e 336a 853e
00000020: d1a8 d2be e400 883e 1c6d a3be 8d6d 563d
00000030: 40f6 9bbd cee7 7e3a 31f5 853e 7bd7 023b

layer2.tcn.weight f4 [16, 16, 3, 1]
0.15285037 0.17815655 0.22836861 0.00264528 0.10959684 0.034887556 -0.1928103 -0.044040393
-0.042906232 0.010391683 0.0051214397 -0.013376487 -0.0071699303 -0.13557968 0.05201724 0.061591797
0.025071613 -0.027994493 -0.17485054 -0.14689854 -0.023769379 0.051198043 0.023717694 -0.053587563
-0.16790083 -0.05490754 -0.039367314 0.08129098 -0.019612776 -0.005239259 -0.0033115176 0.02697817
-0.07084196 -0.07795536 -0.058803838 -0.089058004 0.024768235 0.023521084 -0.060289785 -0.13971908
0.119429864 -0.054605793 -0.046801317 0.117640615 0.00429226 0.13074791 -0.033245556 0.025264133
-0.00951712 0.006230545 -0.07813859 0.07920269 0.052390493 -0.0875018 -0.07628019 0.022222158
0.05619915 0.06685531 0.02443707 -0.06972575 0.11237783 -0.03974083 0.090586364 0.0014513736
-0.12319943 -0.10228208 -0.027788932 0.11015271 -0.03758443 0.16692072 0.091714 0.16822906
0.11444995 -0.056716047 -0.07568354 0.09329499 0.12787798 0.053789377 -0.13399248 0.007378806
-0.0761668 0.00020650774 -0.015491538 0.097172454 -0.05728469 -0.12181626 -0.14245804 -0.101503044
-0.086452425 -0.09132685 -0.06527008 -0.14376517 -0.041379344 -0.06453393 0.15040232 0.059287246
0.087076515 0.06818145 0.2171489 -0.028433727 0.01982591 0.117413834 -0.018029572 -0.14466748
0.015572965 -0.0550533 0.015688023 0.12558661 -0.002898955 0.055418022 0.0122075 0.07158898
-0.032954138 0.018254735 -0.034645908 -0.13191815 -0.07376592 0.07959404 0.053895436 0.1843553
-0.045633458 0.017938096 -0.07478304 -0.10719658 0.03851516 -0.090259045 -0.015431323 -0.09532086
0.030243099 0.058878 -0.0075096143 -0.15416907 -0.24922875 -0.09251343 -0.13836062 -0.06672193
-0.08475021 -0.08030688 -0.10205937 0.058446933 0.049123567 -0.045772996 0.052123357 0.13853854
-0.031402353 -0.15726098 -0.1376784 -0.16689464 -0.013953801 -0.018284762 0.02192673 0.08417959
0.1392841 0.042389363 0.036841765 -0.052954987 0.010925427 -0.12861677 -0.04461733 0.063604705
-0.07167589 -0.021399403 0.15534846 -0.06566182 0.1914734 0.043935817 -0.13018207 -0.0031151872
-0.07429782 0.075566955 0.09126823 -0.16744184 -0.06798125 -0.18043381 0.055184714 -0.07739477
0.07393853 -0.039980527 -0.1624134 -0.008573615 -0.0026988906 0.04367397 -0.052567746 -0.040712893
-0.09064402 0.076918036 0.057413958 0.07146282 -0.18826853 0.069971904 -0.08430382 0.008156707
-0.16076106 -0.04361168 0.045884293 -0.06461187 -0.030344635 -0.030186825 0.008455373 0.12323074
-0.015080614 0.039789133 -0.16281836 0.010385118 0.015380806 0.008897928 -0.057539098 0.05049358
-0.09134632 0.06059677 -0.099181145 0.017605318 0.10151077 -0.15092857 0.030011766 -0.20486991
0.14561863 0.0135655925 -0.018063508 0.06422705 0.04712361 -0.027824432 0.12103269 0.058665495
-0.11575839 0.10890253 -0.0829453 0.101609014 0.085627116 0.12389462 0.14167203 0.12814677
0.1440399 0.17691547 -0.07072352 0.118288785 0.06056943 -0.012749046 -0.113786094 -0.026035314
0.016570367 -0.1474269 -0.123317935 -0.10018573 -0.1789979 -0.13880569 0.11085623 0.092042506
-0.04731032 -0.04843557 -0.06283795 0.027595693 0.0583501 -0.113855556 0.028342787 0.07364484
00000000: cf84 1c3e ac6e 363e 76d9 693e 6f5c 2d3b
00000010: 4f74 e03d 41e6 0e3d 1070 45be b363 34bd
00000020: 72be 2fbd e141 2a3c c0d1 a73b 0e29 5bbc
00000030: bcf1 eabb 66d5 0abe 0810 553d ae47 7c3d
00000040: fc62 cd3c b554 e5bc 050c 33be 926c 16be
00000050: 00b8 c2bc 0ab5 513d 9c4b c23c a27e 5bbd
00000060: 32ee 2bbe bbe6 60bd 9f3f 21bd e37b a63d
00000070: f9aa a0bc 17ae abbb 0c06 59bb 5301 dd3c
00000080: 9715 91bd 0fa7 9fbd 4bdc 70bd 0b64 b6bd
00000090: c1e6 ca3c 4aaf c03c 6cf2 76bd 8512 0fbe
000000a0: a597 f43d 53aa 5fbd bdb2 3fbd 90ed f03d
000000b0: 16a6 8c3b c8e2 053e 7e2c 08bd baf6 ce3c
000000c0: b2ed 1bbc 9a29 cc3b 2007 a0bd 0535 a23d
000000d0: 6a97 563d 2534 b3bd ca38 9cbd 3e0b b63c
000000e0: 1431 663d 70eb 883d 4030 c83c 60cc 8ebd
000000f0: 5926 e63d 48c7 22bd 5885 b93d 043c be3a
00000100: fc4f fcbd 4479 d1bd 9da5 e3bc be97 e13d
00000110: 22f2 19bd 44ed 2a3e 8dd4 bb3d 3d44 2c3e
00000120: bc64 ea3d 164f 68bd f9ff 9abd 7211 bf3d
00000130: 72f2 023e 4052 5c3d 5335 09be e9c9 f13b
00000140: 57fd 9bbd 008a 5839 38d0 7dbc 5a02 c73d
00000150: 5aa3 6abd ce7a f9bd 85e0 11be d4e0 cfbd
00000160: f80d b1bd 9209 bbbd 52ac 85bd 2d37 13be
00000170: 637d 29bd 5d2a 84bd 1103 1a3e 2fd7 723d
00000180: 2c55 b23d b7a2 8b3d 485c 5e3e d9ed e8bc
00000190: f269 a23c aa76 f03d c1b2 93bc b623 14be
000001a0: c025 7f3c 927f 61bd 2b84 803c c799 003e
000001b0: 65fc 3dbb 02fe 623d f701 483c 3e9d 923d
000001c0: ebfa 06bd f48a 953c dee8 0dbd 8d15 07be
000001d0: 9612 97bd 3302 a33d 76c1 5c3d a3c7 3c3e
000001e0: 26ea 3abd eaf2 923c da27 99bd e189 dbbd
000001f0: 13c2 1d3d bcd9 b8bd a9d3 7cbc 9537 c3bd
00000200: 60c0 f73c 0f2a 713d 3613 f6bb 7fde 1dbe
00000210: d235 7fbe ae77 bdbd 68ae 0dbe 82a5 88bd
00000220: 8591 adbd ef77 a4bd 8104 d1bd 0d66 6f3d
00000230: cb35 493d 777c 3bbd 4d7f 553d 0cdd 0d3e
00000240: c19f 00bd 0609 21be 91fb 0cbe 6ee6 2abe
00000250: 7c9e 64bc edc9 95bc b09f b33c 5966 ac3d
00000260: 7ea0 0e3e 78a0 2d3d 64e7 163d 54e7 58bd
00000270: 9000 333c 1db4 03be a9c0 36bd 2f43 823d
00000280: cfca 92bd cd4d afbc ab13 1f3e b479 86bd
00000290: 9a11 443e 0bf6 333d 734e 05be 2b28 4cbb
000002a0: 7529 98bd d9c2 9a3d d6ea ba3d e075 2bbe
000002b0: c139 8bbd a4c3 38be 5e09 623d 2681 9ebd
000002c0: 166d 973d 9fc2 23bd b34f 26be 5978 0cbc
000002d0: dfdf 30bb 7ae3 323d 4751 57bd 90c2 26bd
000002e0: 92a3 b9bd 3487 9d3d e62a 6b3d 195b 923d
000002f0: 77c9 40be 6e4d 8f3d 7ba7 acbd b5a3 053c
00000300: 8c9e 24be 29a2 32bd 2bf1 3b3d 3a53 84bd
00000310: 5095 f8bc 5c4a f7bc 6888 0a3c 6660 fc3d
00000320: ae14 77bc eef9 223d dbb9 26be 5826 2a3c
00000330: c7ff 7b3c 9dc8 113c 1eae 6bbd 5bd2 4e3d
00000340: c813 bbbd 5234 783d 7c1f cbbd 0739 903c
00000350: e1e4 cf3d 058d 1abe 3cdb f53c 6bc9 51be
00000360: 0d1d 153e 3842 5e3c ecf9 93bc 7989 833d
00000370: b004 413d 10f0 e3bc fddf f73d 3b4b 703d
00000380: bc12 edbd 4a08 df3d 3adf a9bd 6318 d03d
00000390: 455d af3d 76bc fd3d 7912 113e e838 033e
000003a0: 327f 133e 5429 353e 7ed7 90bd 6441 f23d
000003b0: a717 783d 60e1 50bc af08 e9bd 0348 d5bc
000003c0: 94be 873c 14f7 16be 1d8e fcbd 2d2e cdbd
000003d0: 3a4b 37be 1423 0ebe 9708 e33d c880 bc3d
000003e0: 77c8 41bd 6064 46bd 2fb1 80bd 5d10 e23c
000003f0: 8400 6f3d 1a2d e9bd 222f e83c 1bd3 963d

layer2.tcn.bias f4 [16]
2.980877e-05 1.8617422e-05 -6.266768e-05 -1.7857421e-07 -9.7828044e-05 6.698935e-05 4.193817e-05 -4.7449592e-07
-0.000102606835 -6.8882095e-05 -8.67509e-05 2.246481e-05 -0.00010934943 2.6216614e-05 3.2568623e-06 -3.6245907e-05
00000000: d90d fa37 9c2c 9c37 746c 83b8 1bbe 3fb4
00000010: 0829 cdb8 a27c 8c38 c4e6 2f38 39be feb4
00000020: a02e d7b8 cb74 90b8 09ee b5b8 d072 bc37
00000030: 8752 e5b8 c0eb db37 7890 5a36 bf06 18b8

layer2.bn.weight f4 [16]
1.4843607 1.4214021 1.5418109 1.6159045 1.5305164 1.5129702 1.3467072 1.284633
1.3481585 1.3145014 1.4510009 1.2910208 1.3528714 1.4261205 1.1724261 1.5445391
00000000: 88ff bd3f 81f0 b53f 0f5a c53f f5d5 ce3f
00000010: f6e7 c33f 02a9 c13f e760 ac3f db6e a43f
00000020: 7590 ac3f 9541 a83f 66ba b93f 2b40 a53f
00000030: e42a ad3f 1e8b b63f 0f12 963f 75b3 c53f

layer2.bn.bias f4 [16]
0.1700053 0.1524618 0.17375381 0.20384875 0.15289478 0.18706113 0.10316729 0.0048089637
0.07659009 -0.013902976 0.10727036 0.122965544 0.1814991 0.07528013 -0.039969888 0.1291065
00000000: df15 2e3e f21e 1c3e 85ec 313e babd 503e
00000010: 7390 1c3e f48c 3f3e 5f49 d33d 8394 9d3b
00000020: 44db 9c3d 4fc9 63bc 90b0 db3d 5cd5 fb3d
00000030: e6da 393e 782c 9a3d 77b7 23bd 7f34 043e

layer2.bn.running_mean f4 [16]
-0.030351965 -0.31067044 -0.13789515 0.1544318 0.3026365 0.26105618 -0.21743403 -0.017109897
-0.11765006 0.005553763 0.121056765 0.004012735 0.32656917 -0.090368986 -0.03546579 0.16896705
00000000: afa4 f8bc 3210 9fbe 6334 0dbe 5f23 1e3e
00000010: 2cf3 9a3e 28a9 853e 07a7 5ebe 0e2a 8cbc
00000020: 84f2 f0bd 57fc b53b 9cec f73d 437d 833b
00000030: 1334 a73e 6013 b9bd 9444 11bd b305 2d3e

layer2.bn.running_var f4 [16]
0.059404556 0.09829373 0.07747926 0.072275534 0.066283196 0.06196673 0.13359083 0.14768629
0.059761424 0.12997988 0.063437514 0.08218083 0.09809236 0.20362142 0.08817947 0.08248445
00000000: 3152 733d 394e c93d 72ad 9e3d 3205 943d
00000010: 7cbf 873d d3d0 7d3d 09cc 083e 133b 173e
00000020: 65c8 743d 7219 053e 87eb 813d 6c4e a83d
00000030: a6e4 c83d 2282 503e 7097 b43d 9bed a83d

layer2.res.0.weight f4 [16, 8, 1, 1]
-0.16742817 0.24306378 0.42905328 -0.01695895 0.08092501 -0.19259904 -0.23708677 -0.11084207
-0.13157085 -0.24609962 0.12378985 -0.20723277 0.38899848 -0.26601788 0.09579793 0.1413047
-0.24409162 0.28647968 0.15938175 0.102377646 0.13947254 -0.13328196 -0.20306738 -0.096921116
0.49950817 -0.22077307 -0.102987364 0.0809131 0.03148376 -0.11913658 -0.025452534 0.3223434
0.049231198 0.23483114 -0.08442499 0.07907603 -0.05444861 0.18552412 -0.026684903 -0.19811684
0.06964377 0.25585005 -0.12583151 0.07504241 0.046413127 0.31216657 -0.21508113 -0.018897522
0.1733515 -0.12772594 -0.36476016 -0.32537898 0.04032155 0.05877924 0.25051618 -0.045659017
0.2100326 0.063884154 -0.08652125 0.15575221 0.0011731592 0.16717799 -0.12364574 0.28725073
-0.24140483 0.16996557 0.2068702 -0.061811868 0.11315425 -0.02020342 -0.2618919 0.029605124
0.1913324 0.4481099 0.11406434 -0.09136177 0.016081119 0.16489871 0.37652296 0.02035132
-0.30960646 -0.04284258 0.015256587 -0.28618395 0.15619107 0.031662364 -0.2345356 0.107323274
0.06344629 -0.035720788 0.13532703 -0.46177188 0.4149359 -0.027052863 -0.07850189 0.121771604
-0.035076074 0.30378705 0.28461123 0.1291095 0.15140009 0.11259703 -0.25627258 -0.21008699
0.38826013 0.4013039 -0.1813945 -0.037477296 0.2172814 0.17300268 0.13445699 -0.15901743
-0.20788784 0.18005718 0.0026958187 -0.08075529 -0.30481726 0.1483748 0.05195522 -0.0071254857
0.10695644 0.2678266 0.19684012 -0.07805567 -0.15566547 -0.23286603 -0.09023071 -0.25121993
00000000: 4a72 2bbe b6e5 783e dfac db3e 7fed 8abc
00000010: 03bc a53d af38 45be e0c6 72be 2b01 e3bd
00000020: 82ba 06be 8a01 7cbe 8885 fd3d d434 54be
00000030: cf2a c73e 7f33 88be b531 c43d 2eb2 103e
00000040: 27f3 79be 77ad 923e f834 233e 5fab d13d
00000050: e4d1 0e3e 117b 08be e5f0 4fbe 947e c6bd
00000060: 89bf ff3e 5612 62be 0aeb d2bd c4b5 a53d
00000070: 1df5 003d e1fd f3bd d581 d0bc 320a a53e
00000080: a7a6 493d 9377 703e 02e7 acbd 9df2 a13d
00000090: 8105 5fbd 09fa 3d3e 4c9a dabc 24df 4abe
000000a0: 65a1 8e3d c7fe 823e fad9 00be d6af 993d
000000b0: b11b 3e3d 4cd4 9f3e 3a3e 5cbe face 9abc
000000c0: 0e83 313e 97ca 02be d8c1 babe 1398 a6be
000000d0: 3628 253d 80c2 703d a843 803e f304 3bbd
000000e0: c912 573e b2d5 823d 0e32 b1bd 827d 1f3e
000000f0: b1c4 993a b530 2b3e fa39 fdbd 8712 933e
00000100: d432 77be 740b 2e3e c8d5 533e 712e 7dbd
00000110: 6abd e73d a581 a5bc b216 86be 7286 f23c
00000120: a4ec 433e a96e e53e 919a e93d e11b bbbd
00000130: 8dbc 833c 35db 283e 9ec7 c03e d0b7 a63c
00000140: bd84 9ebe b37b 2fbd c4f6 793c b486 92be
00000150: 8df0 1f3e 65b0 013d 1a2a 70be 4ecc db3d
00000160: 21f0 813d f64f 12bd 2b93 0a3e 5d6d ecbe
00000170: 7a72 d43e f79d ddbc 99c5 a0bd 6463 f93d
00000180: eeab 0fbd fa89 9b3e 90b8 913e 4835 043e
00000190: a008 1b3e 4699 e63d 2936 83be 0b21 57be
000001a0: 08ca c63e b477 cd3e 7bbf 39be cb81 19bd
000001b0: 047f 5e3e 9d27 313e 18af 093e 77d5 22be
000001c0: 8de0 54be e960 383e 55ac 303b 0863 a5bd
000001d0: 0211 9cbe 90ef 173e ffce 543d e87c e9bb
000001e0: fa0b db3d 9120 893e 7590 493e a7db 9fbd
000001f0: c566 1fbe 6f74 6ebe e1ca b8bd e69f 80be

layer2.res.0.bias f4 [16]
1.2136307e-05 2.9491723e-05 3.547556e-05 6.511435e-06 2.2469737e-06 -2.9301467e-05 1.9220923e-05 -1.5188744e-05
1.2232749e-05 -7.658028e-07 -2.7441885e-05 -2.0960637e-05 -3.073694e-05 9.594297e-06 5.6230865e-06 0.00015996433
00000000: 0b9d 4b37 fe64 f737 98cb 1438 cd7c da36
00000010: b7ca 1636 6ccc f5b7 9e3c a137 29d3 7eb7
00000020: 423b 4d37 9191 4db5 0033 e6b7 a0d4 afb7
00000030: 8aeb 00b8 31f7 2037 f2ad bc36 19bc 2739

layer2.res.1.weight f4 [16]
1.2524308 1.2576813 1.3345002 1.3286052 1.197802 1.1381797 1.0597097 1.0765342
1.1701545 1.1300445 1.1165565 1.0818732 1.2761334 1.1217614 0.93023497 1.1617302
00000000: a74f a03f b3fb a03f e7d0 aa3f bc0f aa3f
00000010: 9351 993f dfaf 913f 91a4 873f dfcb 893f
00000020: 9fc7 953f 4ca5 903f 53eb 8e3f d27a 8a3f
00000030: 5758 a33f e195 8f3f e123 6e3f 93b3 943f

layer2.res.1.bias f4 [16]
0.1700053 0.1524618 0.17375381 0.20384875 0.15289478 0.18706113 0.10316729 0.0048089637
0.07659009 -0.013902976 0.10727036 0.122965544 0.1814991 0.07528013 -0.039969888 0.1291065
00000000: df15 2e3e f21e 1c3e 85ec 313e babd 503e
00000010: 7390 1c3e f48c 3f3e 5f49 d33d 8394 9d3b
00000020: 44db 9c3d 4fc9 63bc 90b0 db3d 5cd5 fb3d
00000030: e6da 393e 782c 9a3d 77b7 23bd 7f34 043e

layer2.res.1.running_mean f4 [16]
0.06587619 -0.10952527 0.13087499 0.09677715 0.07669619 0.13992608 -0.2745173 0.26701078
0.02384453 0.43626282 -0.23604417 -0.15767936 0.17783612 0.24913965 0.0025096869 -0.062075786
00000000: 19ea 863d c94e e0bd 1804 063e 1933 c63d
00000010: e412 9d3d c848 0f3e 888d 8cbe a3b5 883e
00000020: 9b55 c33c d75d df3e 90b5 71be b376 21be
00000030: ac1a 363e 771e 7f3e 8f79 243b 2e43 7ebd

layer2.res.1.running_var f4 [16]
0.034143057 0.041510794 0.016375568 0.043749712 0.007293775 0.012365396 0.091936536 0.06655319
0.01222202 0.44251856 0.040391456 0.101669796 0.05328122 0.1776335 0.036431972 0.017125692
00000000: 97d9 0b3d 3907 2a3d 0e26 863c e632 333d
00000010: 9f00 ef3b 3b98 4a3c 3949 bc3d 0a4d 883d
00000020: de3e 483c cb91 e23e 8371 253d 4138 d03d
00000030: 693d 5a3d 8ee5 353e b139 153d 2e4b 8c3c

fc.weight f4 [5, 16]
0.23662293 -0.19788606 0.27414957 -0.43401033 0.10976358 -0.22703336 0.03646667 -0.06691179
-0.15823473 -0.45490244 0.0963397 0.3078467 0.26975685 -0.1486086 -0.16803108 0.041895963
0.2888628 -0.31815663 0.27508178 0.35654247 -0.44396767 -0.06568426 -0.38953388 0.37418446
0.40590495 -0.34126237 0.2736244 -0.18108808 0.10020727 -0.4301681 0.09472161 -0.4151583
-0.36987424 -0.054013886 -0.45811275 0.11167743 -0.19236349 -0.20197734 0.23419979 0.22261447
-0.45256913 0.39520654 -0.47610623 -0.05931044 -0.41872478 0.3667859 0.34247047 0.14805602
-0.058414407 0.5294871 0.27564502 -0.27054846 -0.21060221 -0.35624406 0.15837322 -0.47624353
0.2257702 0.11884322 0.15670447 0.26538506 -0.0034355195 0.19085453 -0.08007944 -0.37626582
-0.5659706 -0.43108127 -0.58236814 0.28407913 0.5865475 0.32790807 0.13208292 -0.016383024
-0.40372363 -0.16471988 -0.29716223 -0.11423952 -0.14270478 0.15002032 -0.18914518 0.5572198
00000000: 484d 723e a5a2 4abe 555d 8c3e 9a36 debe
00000010: bacb e03d 6f7b 68be 135e 153d 0c09 89bd
00000020: 4908 22be f9e8 e8be c04d c53d 159e 9d3e
00000030: 921d 8a3e da2c 18be 5710 2cbe 1a9b 2b3d
00000040: d3e5 933e 6de5 a2be 85d7 8c3e bc8c b63e
00000050: bb4f e3be 7885 86bd fc70 c7be 1b95 bf3e
00000060: c6d2 cf3e f1b9 aebe 7f18 8c3e 276f 39be
00000070: 7839 cd3d fe3e dcbe 67fd c13d a18f d4be
00000080: 2860 bdbe aa3d 5dbd c18d eabe 23b7 e43d
00000090: effa 44be 26d3 4ebe 12d2 6f3e 0cf5 633e
000000a0: 24b7 e7be 8358 ca3e 32c4 f3be 81ef 72bd
000000b0: 1863 d6be 5dcb bb3e 4a58 af3e ff9b 173e
000000c0: f243 6fbd 778c 073f 5821 8d3e 5485 8abe
000000d0: 1ba8 57be 9f65 b6be 972c 223e 31d6 f3be
000000e0: 4e30 673e 1364 f33d 2377 203e 8de0 873e
000000f0: 7426 61bb 5f6f 433e b000 a4bd eaa5 c0be
00000100: 73e3 10bf afb6 dcbe 1416 15bf d272 913e
00000110: fa27 163f 91e3 a73e bf40 073e b135 86bc
00000120: ddb4 cebe 54ac 28be a625 98be 69f6 e9bd
00000130: 3421 12be ed9e 193e 46af 41be f5a5 0e3f

fc.bias f4 [5]
-0.055591393 -0.05041748 0.07374346 -0.10254021 0.044771973
00000000: cdb3 63bd 8f82 4ebd d006 973d 9a00 d2bd
00000010: d162 373d
