best_stgcn.pth (torch, 12194 bytes, 16 tensors)

layer1.A f4 [21, 21]
1.0 1.0 0.0 0.0 0.0 1.0 0.0 0.0
0.0 1.0 0.0 0.0 0.0 1.0 0.0 0.0
0.0 1.0 0.0 0.0 0.0 1.0 1.0 1.0
0.0 0.0 0.0 0.0 0.0 0.0 0.0 0.0
0.0 0.0 0.0 0.0 0.0 0.0 0.0 0.0
0.0 0.0 0.0 1.0 1.0 1.0 0.0 0.0
0.0 0.0 0.0 0.0 0.0 0.0 0.0 0.0
0.0 0.0 0.0 0.0 0.0 0.0 0.0 0.0
0.0 1.0 1.0 1.0 0.0 0.0 0.0 0.0
0.0 0.0 0.0 0.0 0.0 0.0 0.0 0.0
0.0 0.0 0.0 0.0 0.0 0.0 0.0 1.0
1.0 0.0 0.0 0.0 0.0 0.0 0.0 0.0
0.0 0.0 0.0 0.0 0.0 0.0 0.0 0.0
0.0 1.0 0.0 0.0 0.0 0.0 1.0 1.0
0.0 0.0 1.0 0.0 0.0 0.0 0.0 0.0
0.0 0.0 0.0 0.0 0.0 0.0 0.0 0.0
0.0 0.0 0.0 1.0 1.0 1.0 0.0 0.0
0.0 0.0 0.0 0.0 0.0 0.0 0.0 0.0
0.0 0.0 0.0 0.0 0.0 0.0 0.0 0.0
0.0 1.0 1.0 1.0 0.0 0.0 0.0 0.0
0.0 0.0 0.0 0.0 0.0 0.0 0.0 0.0
0.0 0.0 0.0 0.0 0.0 0.0 0.0 1.0
1.0 0.0 0.0 0.0 0.0 0.0 0.0 0.0
0.0 0.0 0.0 0.0 0.0 1.0 0.0 0.0
0.0 0.0 1.0 0.0 0.0 0.0 1.0 1.0
0.0 0.0 1.0 0.0 0.0 0.0 0.0 0.0
0.0 0.0 0.0 0.0 0.0 0.0 0.0 0.0
0.0 0.0 0.0 1.0 1.0 1.0 0.0 0.0
0.0 0.0 0.0 0.0 0.0 0.0 0.0 0.0
0.0 0.0 0.0 0.0 0.0 0.0 0.0 0.0
0.0 1.0 1.0 1.0 0.0 0.0 0.0 0.0
0.0 0.0 0.0 0.0 0.0 0.0 0.0 0.0
00000000: 0000 803f 0000 803f 0000 0000 0000 0000
00000010: 0000 0000 0000 803f 0000 0000 0000 0000
00000020: 0000 0000 0000 803f 0000 0000 0000 0000
00000030: 0000 0000 0000 803f 0000 0000 0000 0000
00000040: 0000 0000 0000 803f 0000 0000 0000 0000
00000050: 0000 0000 0000 803f 0000 803f 0000 803f
00000060: 0000 0000 0000 0000 0000 0000 0000 0000
00000070: 0000 0000 0000 0000 0000 0000 0000 0000
00000080: 0000 0000 0000 0000 0000 0000 0000 0000
00000090: 0000 0000 0000 0000 0000 0000 0000 0000
000000a0: 0000 0000 0000 0000 0000 0000 0000 803f
000000b0: 0000 803f 0000 803f 0000 0000 0000 0000
000000c0: 0000 0000 0000 0000 0000 0000 0000 0000
000000d0: 0000 0000 0000 0000 0000 0000 0000 0000
000000e0: 0000 0000 0000 0000 0000 0000 0000 0000
000000f0: 0000 0000 0000 0000 0000 0000 0000 0000
00000100: 0000 0000 0000 803f 0000 803f 0000 803f
00000110: 0000 0000 0000 0000 0000 0000 0000 0000
00000120: 0000 0000 0000 0000 0000 0000 0000 0000
00000130: 0000 0000 0000 0000 0000 0000 0000 0000
00000140: 0000 0000 0000 0000 0000 0000 0000 0000
00000150: 0000 0000 0000 0000 0000 0000 0000 803f
00000160: 0000 803f 0000 0000 0000 0000 0000 0000
00000170: 0000 0000 0000 0000 0000 0000 0000 0000
00000180: 0000 0000 0000 0000 0000 0000 0000 0000
00000190: 0000 0000 0000 0000 0000 0000 0000 0000
000001a0: 0000 0000 0000 803f 0000 0000 0000 0000
000001b0: 0000 0000 0000 0000 0000 803f 0000 803f
000001c0: 0000 0000 0000 0000 0000 803f 0000 0000
000001d0: 0000 0000 0000 0000 0000 0000 0000 0000
000001e0: 0000 0000 0000 0000 0000 0000 0000 0000
000001f0: 0000 0000 0000 0000 0000 0000 0000 0000
00000200: 0000 0000 0000 0000 0000 0000 0000 803f
00000210: 0000 803f 0000 803f 0000 0000 0000 0000
00000220: 0000 0000 0000 0000 0000 0000 0000 0000
00000230: 0000 0000 0000 0000 0000 0000 0000 0000
00000240: 0000 0000 0000 0000 0000 0000 0000 0000
00000250: 0000 0000 0000 0000 0000 0000 0000 0000
00000260: 0000 0000 0000 803f 0000 803f 0000 803f
00000270: 0000 0000 0000 0000 0000 0000 0000 0000
00000280: 0000 0000 0000 0000 0000 0000 0000 0000
00000290: 0000 0000 0000 0000 0000 0000 0000 0000
000002a0: 0000 0000 0000 0000 0000 0000 0000 0000
000002b0: 0000 0000 0000 0000 0000 0000 0000 803f
000002c0: 0000 803f 0000 0000 0000 0000 0000 0000
000002d0: 0000 0000 0000 0000 0000 0000 0000 0000
000002e0: 0000 0000 0000 0000 0000 0000 0000 0000
000002f0: 0000 0000 0000 803f 0000 0000 0000 0000
00000300: 0000 0000 0000 0000 0000 803f 0000 0000
00000310: 0000 0000 0000 0000 0000 803f 0000 803f
00000320: 0000 0000 0000 0000 0000 803f 0000 0000
00000330: 0000 0000 0000 0000 0000 0000 0000 0000
00000340: 0000 0000 0000 0000 0000 0000 0000 0000
00000350: 0000 0000 0000 0000 0000 0000 0000 0000
00000360: 0000 0000 0000 0000 0000 0000 0000 803f
00000370: 0000 803f 0000 803f 0000 0000 0000 0000
00000380: 0000 0000 0000 0000 0000 0000 0000 0000
00000390: 0000 0000 0000 0000 0000 0000 0000 0000
000003a0: 0000 0000 0000 0000 0000 0000 0000 0000
000003b0: 0000 0000 0000 0000 0000 0000 0000 0000
000003c0: 0000 0000 0000 803f 0000 803f 0000 803f
000003d0: 0000 0000 0000 0000 0000 0000 0000 0000
000003e0: 0000 0000 0000 0000 0000 0000 0000 0000
000003f0: 0000 0000 0000 0000 0000 0000 0000 0000

layer1.tc.weight f4 [8, 3, 3, 1]
-0.190794 0.02322321 -0.05518964 0.21509928 -0.0077858553 0.017022032 0.6729382 0.58814573
0.5069395 0.06035357 0.2212993 0.1683636 -0.13346428 -0.000472025 0.041059364 -0.13983709
-0.27377746 -0.08879848 -0.18194684 -0.22186728 -0.096781 0.18177259 0.31810018 0.0064615984
0.18760808 0.11747271 0.1130532 -0.16102257 0.18462023 0.2122565 0.016977608 -0.010181117
0.14222477 0.042058825 0.25901663 0.15748024 -0.25265762 0.04890213 -0.10647958 0.14079767
-0.018276181 -0.0690983 -0.11133039 0.20542473 0.037191674 -0.18649442 0.18458161 -0.03360619
0.3525888 -0.03316019 -0.33410004 -0.031300068 0.21334514 -0.20871496 -0.16294558 0.061163336
-0.005337056 0.35455537 -0.37492242 -0.03773187 -0.22115876 -0.21250826 0.19652629 0.05146294
-0.15221526 0.36648986 0.3264601 0.08864544 0.07287931 0.09954431 0.27491108 0.11297579
00000000: 815f 43be 9a3e be3c 880e 62bd fc42 5c3e
00000010: 7d20 ffbb ca71 8b3c ae45 2c3f b890 163f
00000020: c9c6 013f 4e35 773d 499c 623e 8267 2c3e
00000030: dcaa 08be 207a f7b9 dd2d 283d 7431 0fbe
00000040: 8f2c 8cbe fadb b5bd 4650 3abe 2d31 63be
00000050: 1e35 c6bd 9822 3a3e 07de a23e d1bb d33b
00000060: 551c 403e 8895 f03d 7088 e73d 1ae3 24be
00000070: 160d 3d3e c559 593e a014 8b3c b3ce 26bc
00000080: 5fa3 113e e045 2c3d d49d 843e 8042 213e
00000090: 575c 81be 9a4d 483d f711 dabd 442d 103e
000000a0: eeb7 95bc 6983 8dbd 3001 e4bd dc5a 523e
000000b0: 4c56 183d 65f8 3ebe f602 3d3e a5a6 09bd
000000c0: 8586 b43e fbd2 07bd 290f abbe 8034 00bd
000000d0: 2677 5a3e 60b9 55be 35db 26be 6886 7a3d
000000e0: 78e2 aebb 4888 b53e d5f5 bfbe bc8c 1abd
000000f0: 7177 62be c49b 59be 303e 493e ceca 523d
00000100: 51de 1bbe 8fa4 bb3e c725 a73e be8b b53d
00000110: bf41 953d e3dd cb3d 25c1 8c3e da5f e73d

layer1.tc.bias f4 [8]
0.10557992 -0.75562876 -0.15730396 -0.46424276 0.28728327 0.04084637 0.2422529 0.24083193
00000000: 493a d83d e370 41bf 4a14 21be 3ab1 edbe
00000010: cb16 933e 864e 273d 2511 783e a59c 763e

layer1.bn.weight f4 [8]
1.0695195 1.1158642 0.987177 0.7861916 0.8765286 0.7737821 0.91814893 0.8186505
00000000: 04e6 883f a3d4 8e3f a2b7 7c3f da43 493f
00000010: 2e64 603f 9516 463f cf0b 6b3f 1493 513f

layer1.bn.bias f4 [8]
-0.3199908 -0.31405494 -0.097696625 -0.31617382 -0.17711246 -0.21227121 -0.22655267 -0.16358596
00000000: d6d5 a3be cfcb a0be 2b15 c8bd 89e1 a1be
00000010: f85c 35be a05d 59be 6cfd 67be 1483 27be

layer1.bn.running_mean f4 [8]
-0.04923466 -0.062428016 -0.37632167 0.14699683 -0.19131559 -0.033374336 -0.034503862 1.3700304
00000000: 48aa 49bd 85b4 7fbd 3cad c0be 5686 163e
00000010: 3ce8 43be 87b3 08bd ec53 0dbd 285d af3f

layer1.bn.running_var f4 [8]
0.12308022 0.14651862 0.6526835 0.07041179 0.102071114 0.028226929 0.022796951 2.1616974
00000000: 7b11 fc3d fa08 163e 4416 273f 0e34 903d
00000010: a90a d13d 293c e73c acc0 ba3c 4059 0a40

layer2.A f4 [21, 21]
1.0 1.0 0.0 0.0 0.0 1.0 0.0 0.0
0.0 1.0 0.0 0.0 0.0 1.0 0.0 0.0
0.0 1.0 0.0 0.0 0.0 1.0 1.0 1.0
0.0 0.0 0.0 0.0 0.0 0.0 0.0 0.0
0.0 0.0 0.0 0.0 0.0 0.0 0.0 0.0
0.0 0.0 0.0 1.0 1.0 1.0 0.0 0.0
0.0 0.0 0.0 0.0 0.0 0.0 0.0 0.0
0.0 0.0 0.0 0.0 0.0 0.0 0.0 0.0
0.0 1.0 1.0 1.0 0.0 0.0 0.0 0.0
0.0 0.0 0.0 0.0 0.0 0.0 0.0 0.0
0.0 0.0 0.0 0.0 0.0 0.0 0.0 1.0
1.0 0.0 0.0 0.0 0.0 0.0 0.0 0.0
0.0 0.0 0.0 0.0 0.0 0.0 0.0 0.0
0.0 1.0 0.0 0.0 0.0 0.0 1.0 1.0
0.0 0.0 1.0 0.0 0.0 0.0 0.0 0.0
0.0 0.0 0.0 0.0 0.0 0.0 0.0 0.0
0.0 0.0 0.0 1.0 1.0 1.0 0.0 0.0
0.0 0.0 0.0 0.0 0.0 0.0 0.0 0.0
0.0 0.0 0.0 0.0 0.0 0.0 0.0 0.0
0.0 1.0 1.0 1.0 0.0 0.0 0.0 0.0
0.0 0.0 0.0 0.0 0.0 0.0 0.0 0.0
0.0 0.0 0.0 0.0 0.0 0.0 0.0 1.0
1.0 0.0 0.0 0.0 0.0 0.0 0.0 0.0
0.0 0.0 0.0 0.0 0.0 1.0 0.0 0.0
0.0 0.0 1.0 0.0 0.0 0.0 1.0 1.0
0.0 0.0 1.0 0.0 0.0 0.0 0.0 0.0
0.0 0.0 0.0 0.0 0.0 0.0 0.0 0.0
0.0 0.0 0.0 1.0 1.0 1.0 0.0 0.0
0.0 0.0 0.0 0.0 0.0 0.0 0.0 0.0
0.0 0.0 0.0 0.0 0.0 0.0 0.0 0.0
0.0 1.0 1.0 1.0 0.0 0.0 0.0 0.0
0.0 0.0 0.0 0.0 0.0 0.0 0.0 0.0
00000000: 0000 803f 0000 803f 0000 0000 0000 0000
00000010: 0000 0000 0000 803f 0000 0000 0000 0000
00000020: 0000 0000 0000 803f 0000 0000 0000 0000
00000030: 0000 0000 0000 803f 0000 0000 0000 0000
00000040: 0000 0000 0000 803f 0000 0000 0000 0000
00000050: 0000 0000 0000 803f 0000 803f 0000 803f
00000060: 0000 0000 0000 0000 0000 0000 0000 0000
00000070: 0000 0000 0000 0000 0000 0000 0000 0000
00000080: 0000 0000 0000 0000 0000 0000 0000 0000
00000090: 0000 0000 0000 0000 0000 0000 0000 0000
000000a0: 0000 0000 0000 0000 0000 0000 0000 803f
000000b0: 0000 803f 0000 803f 0000 0000 0000 0000
000000c0: 0000 0000 0000 0000 0000 0000 0000 0000
000000d0: 0000 0000 0000 0000 0000 0000 0000 0000
000000e0: 0000 0000 0000 0000 0000 0000 0000 0000
000000f0: 0000 0000 0000 0000 0000 0000 0000 0000
00000100: 0000 0000 0000 803f 0000 803f 0000 803f
00000110: 0000 0000 0000 0000 0000 0000 0000 0000
00000120: 0000 0000 0000 0000 0000 0000 0000 0000
00000130: 0000 0000 0000 0000 0000 0000 0000 0000
00000140: 0000 0000 0000 0000 0000 0000 0000 0000
00000150: 0000 0000 0000 0000 0000 0000 0000 803f
00000160: 0000 803f 0000 0000 0000 0000 0000 0000
00000170: 0000 0000 0000 0000 0000 0000 0000 0000
00000180: 0000 0000 0000 0000 0000 0000 0000 0000
00000190: 0000 0000 0000 0000 0000 0000 0000 0000
000001a0: 0000 0000 0000 803f 0000 0000 0000 0000
000001b0: 0000 0000 0000 0000 0000 803f 0000 803f
000001c0: 0000 0000 0000 0000 0000 803f 0000 0000
000001d0: 0000 0000 0000 0000 0000 0000 0000 0000
000001e0: 0000 0000 0000 0000 0000 0000 0000 0000
000001f0: 0000 0000 0000 0000 0000 0000 0000 0000
00000200: 0000 0000 0000 0000 0000 0000 0000 803f
00000210: 0000 803f 0000 803f 0000 0000 0000 0000
00000220: 0000 0000 0000 0000 0000 0000 0000 0000
00000230: 0000 0000 0000 0000 0000 0000 0000 0000
00000240: 0000 0000 0000 0000 0000 0000 0000 0000
00000250: 0000 0000 0000 0000 0000 0000 0000 0000
00000260: 0000 0000 0000 803f 0000 803f 0000 803f
00000270: 0000 0000 0000 0000 0000 0000 0000 0000
00000280: 0000 0000 0000 0000 0000 0000 0000 0000
00000290: 0000 0000 0000 0000 0000 0000 0000 0000
000002a0: 0000 0000 0000 0000 0000 0000 0000 0000
000002b0: 0000 0000 0000 0000 0000 0000 0000 803f
000002c0: 0000 803f 0000 0000 0000 0000 0000 0000
000002d0: 0000 0000 0000 0000 0000 0000 0000 0000
000002e0: 0000 0000 0000 0000 0000 0000 0000 0000
000002f0: 0000 0000 0000 803f 0000 0000 0000 0000
00000300: 0000 0000 0000 0000 0000 803f 0000 0000
00000310: 0000 0000 0000 0000 0000 803f 0000 803f
00000320: 0000 0000 0000 0000 0000 803f 0000 0000
00000330: 0000 0000 0000 0000 0000 0000 0000 0000
00000340: 0000 0000 0000 0000 0000 0000 0000 0000
00000350: 0000 0000 0000 0000 0000 0000 0000 0000
00000360: 0000 0000 0000 0000 0000 0000 0000 803f
00000370: 0000 803f 0000 803f 0000 0000 0000 0000
00000380: 0000 0000 0000 0000 0000 0000 0000 0000
00000390: 0000 0000 0000 0000 0000 0000 0000 0000
000003a0: 0000 0000 0000 0000 0000 0000 0000 0000
000003b0: 0000 0000 0000 0000 0000 0000 0000 0000
000003c0: 0000 0000 0000 803f 0000 803f 0000 803f
000003d0: 0000 0000 0000 0000 0000 0000 0000 0000
000003e0: 0000 0000 0000 0000 0000 0000 0000 0000
000003f0: 0000 0000 0000 0000 0000 0000 0000 0000

layer2.tc.weight f4 [16, 8, 3, 1]
-0.017335888 -0.021204539 -0.033687636 0.30781463 0.30538818 0.3172738 -0.062225617 -0.060595937
-0.07758038 0.015910758 -0.025873413 -0.00044086037 0.12515536 0.15005213 0.10838209 0.0027413836
-0.015016542 -0.030979706 -0.093245186 -0.088997155 -0.024986185 0.06340245 0.08367095 0.048525892
0.35672763 0.3500734 0.24049945 -0.028902143 -0.020900603 -0.027261304 0.18783459 0.15994489
0.16464487 0.0070779985 -0.011397263 8.687253e-05 0.005901296 0.0842013 0.00065184454 -0.082511865
-0.066283554 -0.12832141 -0.051357996 -0.072006226 -0.12797934 -0.006114259 -0.057192605 -0.03940312
-0.04094521 -0.07212223 -0.06449258 0.3139375 0.30125692 0.3434592 -0.15433936 -0.09358821
-0.08239448 0.04345371 0.13396691 0.13994417 0.17306934 0.12060242 0.21851513 -0.06504685
0.040835872 -0.028131075 0.030474791 -0.08674509 -0.03961791 0.0651962 0.05731655 0.004138287
-0.1288745 -0.12745716 -0.080182 -0.12307383 -0.122060835 -0.12193824 -0.1521579 -0.05483333
-0.0028489989 0.16465223 0.1547858 0.16771224 -0.016984625 -0.07595294 0.042278375 0.1552179
0.061959505 0.061066203 0.2354659 0.21324903 0.27080497 0.100162834 0.088142835 0.14563082
-0.123066515 -0.10718366 -0.078439936 -0.059698243 -0.047268324 -0.05664634 -0.12176299 -0.07833576
-0.13255177 0.16871807 0.20463674 0.18981035 0.036000073 -0.050357323 0.07739464 0.17002359
0.07031716 0.16223559 0.23697245 0.24071191 0.1760483 0.063819185 0.13110374 0.10010511
0.05677092 0.03635025 0.04318045 0.31031623 0.30679297 0.31808716 -0.016330568 0.059967082
0.037878737 -0.041685652 -0.08230037 -0.06224525 0.06384001 0.08434657 0.041899163 0.0068614422
-0.0025596996 -0.022026304 -0.1575408 -0.12089793 -0.13323206 0.04961593 0.0004565423 -0.0063568214
-0.062487613 -0.06816626 -0.073434465 -0.09638938 -0.09688172 -0.104860246 0.08610804 0.1415117
0.0930048 0.034484796 0.02051645 0.017891007 -0.096884415 -0.11026523 -0.10811438 0.09094621
0.042723697 0.034306373 0.004426294 -0.003300314 -0.02466415 0.12084369 0.10406514 0.13449576
0.39080334 0.37492788 0.33514243 -0.018968372 -0.014797124 -0.01738173 0.25860843 0.1003004
0.18389755 0.011948498 0.02975696 0.00937303 0.019715102 -0.011581072 -0.105520636 -0.10108799
-0.015766643 -0.09048244 -0.0017098647 -0.085622415 -0.15703255 -0.032388292 -0.018280597 -0.023117712
0.10644313 0.089327015 0.07147675 0.018658863 0.002452007 0.09471235 0.20533182 0.10490058
0.1361397 -0.12615849 -0.11988115 -0.12185749 0.120265074 0.1738645 0.10978985 -0.177165
-0.086164154 -0.10138666 -0.053879358 -0.05626429 -0.084865764 -0.14083008 -0.12109673 -0.14103559
-0.1828841 -0.19061314 -0.17041792 -0.012745271 -0.024907617 -0.0060704285 -0.121535264 -0.10528774
-0.14921227 0.098723575 0.093023635 0.12112552 0.111999206 0.12941314 0.031161243 0.23330455
0.10024091 0.23840626 0.17780581 0.12924138 0.11516626 0.15452746 0.12711821 0.2300973
0.29318708 0.29872993 0.28709581 0.0013177679 0.007143877 0.0046103694 0.16134879 0.09650411
0.07026313 -0.00071189593 0.0112544345 0.008463647 0.06347252 0.01564117 0.028503578 -0.14590165
00000000: fe03 8ebc 24b5 adbc 0cfc 09bd e199 9d3e
00000010: d75b 9c3e b671 a23e 4ae0 7ebd 7233 78bd
00000020: 76e2 9ebd 4757 823c 7bf4 d3bc 4723 e7b9
00000030: ba28 003e 44a7 193e 6ef7 dd3d c9a8 333b
00000040: f107 76bc 27c9 fdbc 55f7 bebd 2444 b6bd
00000050: d4af ccbc 25d9 813d ad5b ab3d 16c3 463d
00000060: 01a5 b63e d23c b33e 7d45 763e 30c4 ecbc
00000070: be37 abbc 1953 dfbc b657 403e 98c8 233e
00000080: aa98 283e 8eee e73b 96bb 3abc 562f b638
00000090: a95f c13b bb71 ac3d 8ce0 2a3a fbfb a8bd
000000a0: acbf 87bd b066 03be c35c 52bd 0078 93bd
000000b0: 040d 03be 1f5a c8bb cb42 6abd 2a65 21bd
000000c0: 2ab6 27bd d2b4 93bd b014 84bd 6abc a03e
000000d0: 593e 9a3e e2d9 af3e 230b 1ebe 2dab bfbd
000000e0: 70be a8bd 84fc 313d 9f2e 093e 864d 0f3e
000000f0: 1739 313e 67fe f63d 6ec2 5f3e 4837 85bd
00000100: 8443 273d 2473 e6bc 45a6 f93c 69a7 b1bd
00000110: 6446 22bd 9685 853d c2c4 6a3d 789a 873b
00000120: adf7 03be 2184 02be 7636 a4bd 220e fcbd
00000130: 08fb f9bd c2ba f9bd 48cf 1bbe ea98 60bd
00000140: 45b6 3abb 989a 283e 2b80 1e3e c2bc 2b3e
00000150: 5723 8bbc 378d 9bbd 172c 2d3d 71f1 1e3e
00000160: 40c9 7d3d 8e20 7a3d f91d 713e f45d 5a3e
00000170: f3a6 8a3e 2c22 cd3d 3b84 b43d 3f20 153e
00000180: 4c0a fcbd 1b83 dbbd 1ea5 a0bd 2586 74bd
00000190: 6e9c 41bd fe05 68bd e05e f9bd 806e a0bd
000001a0: a7bb 07be 6ec4 2c3e 4b8c 513e a55d 423e
000001b0: d074 133d 7b43 4ebd 1581 9e3d aa1a 2e3e
000001c0: 7102 903d 1621 263e e8a8 723e 2f7d 763e
000001d0: 0146 343e a2b3 823d 0f40 063e e803 cd3d
000001e0: a088 683d 00e4 143d fcdd 303d c5e1 9e3e
000001f0: f813 9d3e 52dc a23e afc7 85bc 0ba0 753d
00000200: bc26 1b3d 93be 2abd 198d a8bd e0f4 7ebd
00000210: 8dbe 823d e5bd ac3d 759e 2b3d f3d5 e03b
00000220: a2c0 27bb 8270 b4bc 6052 21be 5599 f7bd
00000230: fc6d 08be 133a 4b3d 125c ef39 e24c d0bb
00000240: 03f3 7fbd c19a 8bbd cf64 96bd cc67 c5bd
00000250: ec69 c6bd f8c0 d6bd 6959 b03d 71e8 103e
00000260: 4d79 be3d ee3f 0d3d 1d12 a83c 2990 923c
00000270: 566b c6bd bdd2 e1bd 126b ddbd 0242 ba3d
00000280: 0bff 2e3d d784 0c3d 720a 913b 154a 58bb
00000290: 790c cabc e67c f73d 1b20 d53d 42b9 093e
000002a0: 6017 c83e 8cf6 bf3e ca97 ab3e 8f63 9bbc
000002b0: a36f 72bc 2164 8ebc 5368 843e 4c6a cd3d
000002c0: a44f 3c3e a2c3 433c dec4 f33c 5691 193c
000002d0: 9181 a13c 89be 3dbc 341b d8bd 3807 cfbd
000002e0: 0c29 81bc dc4e b9bd 8a1d e0ba ce5a afbd
000002f0: 24cd 20be 96a9 04bd 31c1 95bc 5b61 bdbc
00000300: dbfe d93d 15f1 b63d 6762 923d 79da 983c
00000310: dab1 203b 8cf8 c13d 8142 523e 1ed6 d63d
00000320: 3568 0b3e b12f 01be 4084 f5bd 6b90 f9bd
00000330: 894d f63d 8909 323e 80d9 e03d be6a 35be
00000340: d576 b0bd cfa3 cfbd 9ab0 5cbd 6275 66bd
00000350: 1ace adbd c335 10be 9001 f8bd a26b 10be
00000360: f845 3bbe 1730 43be 0982 2ebe 8bd1 50bc
00000370: 0f0b ccbc 72ea c6bb 7be7 f8bd 19a1 d7bd
00000380: 1acb 18be 962f ca3d 2d83 be3d a810 f83d
00000390: d75f e53d e184 043e dd45 ff3c 63e7 6e3e
000003a0: 1b4b cd3d c520 743e ba12 363e da57 043e
000003b0: 4adc eb3d 723c 1e3e 472b 023e a09e 6b3e
000003c0: 9e1c 963e 21f3 983e 39fe 923e f4b8 ac3a
000003d0: 2f17 ea3b 9512 973b 9e38 253e f2a3 c53d
000003e0: 1ee6 8f3d 879e 3aba 8564 383c 1cab 0a3c
000003f0: e1fd 813d e921 803c 5680 e93c 3e67 15be

layer2.tc.bias f4 [16]
-0.30536845 -0.13488816 -0.3189794 0.016346509 0.04576778 -0.21070877 -0.10714094 -0.28966027
0.19395082 -0.016587827 -0.1490679 -0.3508384 -0.07482117 -0.23244031 -0.29304183 -0.36418903
00000000: 4159 9cbe 1f20 0abe 4551 a3be 1de9 853c
00000010: ff76 3b3d 0ac4 57be b66c dbbd 5a4e 94be
00000020: 0b9b 463e 32e3 87bc 41a5 18be 17a1 b3be
00000030: d73b 99bd d504 6ebe 9409 96be fc76 babe

layer2.bn.weight f4 [16]
1.6576294 1.6405519 1.4836782 1.6917803 1.5500112 1.5779324 1.5416714 1.7056098
1.4513853 1.6758858 1.6090057 1.7937946 1.532551 1.6531385 1.7124496 1.7009264
00000000: 332d d43f 9bfd d13f 2be9 bd3f 428c d83f
00000010: c466 c63f b0f9 c93f 7d55 c53f 6c51 da3f
00000020: fec6 b93f 6d83 d63f e6f3 cd3f 109b e53f
00000030: a22a c43f 0b9a d33f 8c31 db3f f5b7 d93f

layer2.bn.bias f4 [16]
0.24643563 0.24569166 0.14639598 0.36736512 0.24356987 0.17715767 0.13229738 0.25600424
0.19176373 0.30834842 0.24283957 0.27472633 0.20335473 0.23003078 0.29720813 0.23122598
00000000: 9f59 7c3e 9896 7b3e d4e8 153e 4817 bc3e
00000010: 616a 793e d268 353e f778 073e fd12 833e
00000020: b65d 443e d8df 9d3e f0aa 783e eea8 8c3e
00000030: 393c 503e 308d 6b3e aa2b 983e 81c6 6c3e

layer2.bn.running_mean f4 [16]
0.36568436 0.8675397 0.4743676 0.35333177 0.50597954 0.42335066 0.1615355 0.8239978
0.39161593 0.44524303 0.69474125 0.33033666 0.8315323 0.6100796 0.72989076 0.22177865
00000000: fb3a bb3e 1517 5e3f 4fe0 f23e e7e7 b43e
00000010: e087 013f 6bc1 d83e 9069 253e 85f1 523f
00000020: e281 c83e e5f6 e33e 90da 313f e321 a93e
00000030: 4ddf 543f 2d2e 1c3f 1fda 3a3f f119 633e

layer2.bn.running_var f4 [16]
1.1321683 5.516766 1.6782583 1.0855285 1.2926338 0.990657 0.55358005 6.501835
1.1963639 1.541692 3.8519025 0.9101837 5.4321413 4.0895195 5.022842 0.5916341
00000000: e4ea 903f 5989 b040 2bd1 d63f 99f2 8a3f
00000010: 0675 a53f b29b 7d3f 6cb7 0d3f 080f d040
00000020: 7422 993f 2a56 c53f 9285 7640 cd01 693f
00000030: 1ad4 ad40 58dd 8240 1fbb a040 5575 173f

fc.weight f4 [5, 16]
0.24672833 -0.5719789 0.3568348 0.23723601 0.14403461 0.1752321 0.057219647 -0.40570706
-0.4014411 0.17193168 -0.63431954 0.3027692 -0.35891667 -0.58389825 -0.559355 0.082984015
0.1515982 -0.76286066 0.4823043 0.28588924 0.44196105 0.24371897 -0.58293664 -0.38409042
-0.47102067 0.23237711 -0.5103821 0.46889323 -0.58798444 -0.7444058 -0.55947894 0.55842966
-0.44648933 0.49161428 -0.24032636 -0.8184693 -0.74913687 0.06069017 0.05286521 0.5752226
0.65630984 -0.8445739 0.45620787 -0.13105634 0.34034815 0.49283427 0.36505467 -0.21989673
0.02321213 -0.099509306 -0.099269755 -0.3369656 -0.25329152 0.35655606 0.0030142518 0.25604367
-0.10293397 -0.17869268 -0.04242687 0.38190323 0.06541605 -0.0032712303 -0.036505602 0.13628444
-0.7427653 0.14930847 -0.4586347 0.46216357 0.22848165 -0.6958394 0.36760712 0.4483866
-0.16260459 -0.0967663 0.16219845 -0.8843944 0.0536832 0.4298396 0.26469338 -0.83239686
00000000: 5aa6 7c3e 366d 12bf 0db3 b63e ffed 723e
00000010: cf7d 133e 0b70 333e 265f 6a3d d6b8 cfbe
00000020: b089 cdbe dc0e 303e c462 22bf 9104 9b3e
00000030: edc3 b7be 5b7a 15bf e431 0fbf 86f3 a93d
00000040: 8f3c 1b3e d64a 43bf 97f0 f63e 1360 923e
00000050: b848 e23e 7791 793e 563b 15bf 80a7 c4be
00000060: 9f29 f1be 44f4 6d3e 67a8 02bf c612 f03e
00000070: 2686 16bf 6191 3ebf 033a 0fbf 3ff5 0e3f
00000080: 409a e4be deb4 fb3e 1d18 76be 3487 51bf
00000090: 6fc7 3fbf 4196 783d 3189 583d ca41 133f
000000a0: ec03 283f ff35 58bf 1494 e93e a233 06be
000000b0: 1d42 ae3e c654 fc3e 72e8 ba3e 9c2c 61be
000000c0: 5d27 be3c 89cb cbbd f14d cbbd c186 acbe
000000d0: 6daf 81be 848e b63e c18a 453b 2818 833e
000000e0: 0ccf d2bd 37fb 36be ccc7 2dbd d288 c33e
000000f0: daf8 853d 2362 56bb e686 15bd 268e 0b3e
00000100: de25 3ebf 52e4 183e 2bd2 eabe b4a0 ec3e
00000110: 18f7 693e 8822 32bf 0037 bc3e ee92 e53e
00000120: d181 26be 692d c6bd 5a17 263e ac67 62bf
00000130: eae2 5b3d f013 dc3e e485 873e f617 55bf

fc.bias f4 [5]
0.2845798 -0.28947696 -0.25767908 -0.13377573 0.19870795
00000000: 72b4 913e 5336 94be 83ee 83be 81fc 08be
00000010: 197a 4b3e
