best_model.pth (torch, 21474 bytes, 32 tensors)

layer1.A f4 [21, 21]
000000 00 00 80 3f 00 00 80 3f 00 00 00 00 00 00 00 00
       1.0 1.0 0.0 0.0
000010 00 00 00 00 00 00 80 3f 00 00 00 00 00 00 00 00
       0.0 1.0 0.0 0.0
000020 00 00 00 00 00 00 80 3f 00 00 00 00 00 00 00 00
       0.0 1.0 0.0 0.0
000030 00 00 00 00 00 00 80 3f 00 00 00 00 00 00 00 00
       0.0 1.0 0.0 0.0
000040 00 00 00 00 00 00 80 3f 00 00 00 00 00 00 00 00
       0.0 1.0 0.0 0.0
000050 00 00 00 00 00 00 80 3f 00 00 80 3f 00 00 80 3f
       0.0 1.0 1.0 1.0
000060 00 00 00 00 00 00 00 00 00 00 00 00 00 00 00 00
       0.0 0.0 0.0 0.0
000070 00 00 00 00 00 00 00 00 00 00 00 00 00 00 00 00
       0.0 0.0 0.0 0.0
000080 00 00 00 00 00 00 00 00 00 00 00 00 00 00 00 00
       0.0 0.0 0.0 0.0
000090 00 00 00 00 00 00 00 00 00 00 00 00 00 00 00 00
       0.0 0.0 0.0 0.0
0000a0 00 00 00 00 00 00 00 00 00 00 00 00 00 00 80 3f
       0.0 0.0 0.0 1.0
0000b0 00 00 80 3f 00 00 80 3f 00 00 00 00 00 00 00 00
       1.0 1.0 0.0 0.0
0000c0 00 00 00 00 00 00 00 00 00 00 00 00 00 00 00 00
       0.0 0.0 0.0 0.0
0000d0 00 00 00 00 00 00 00 00 00 00 00 00 00 00 00 00
       0.0 0.0 0.0 0.0
0000e0 00 00 00 00 00 00 00 00 00 00 00 00 00 00 00 00
       0.0 0.0 0.0 0.0
0000f0 00 00 00 00 00 00 00 00 00 00 00 00 00 00 00 00
       0.0 0.0 0.0 0.0
000100 00 00 00 00 00 00 80 3f 00 00 80 3f 00 00 80 3f
       0.0 1.0 1.0 1.0
000110 00 00 00 00 00 00 00 00 00 00 00 00 00 00 00 00
       0.0 0.0 0.0 0.0
000120 00 00 00 00 00 00 00 00 00 00 00 00 00 00 00 00
       0.0 0.0 0.0 0.0
000130 00 00 00 00 00 00 00 00 00 00 00 00 00 00 00 00
       0.0 0.0 0.0 0.0
000140 00 00 00 00 00 00 00 00 00 00 00 00 00 00 00 00
       0.0 0.0 0.0 0.0
000150 00 00 00 00 00 00 00 00 00 00 00 00 00 00 80 3f
       0.0 0.0 0.0 1.0
000160 00 00 80 3f 00 00 00 00 00 00 00 00 00 00 00 00
       1.0 0.0 0.0 0.0
000170 00 00 00 00 00 00 00 00 00 00 00 00 00 00 00 00
       0.0 0.0 0.0 0.0
000180 00 00 00 00 00 00 00 00 00 00 00 00 00 00 00 00
       0.0 0.0 0.0 0.0
000190 00 00 00 00 00 00 00 00 00 00 00 00 00 00 00 00
       0.0 0.0 0.0 0.0
0001a0 00 00 00 00 00 00 80 3f 00 00 00 00 00 00 00 00
       0.0 1.0 0.0 0.0
0001b0 00 00 00 00 00 00 00 00 00 00 80 3f 00 00 80 3f
       0.0 0.0 1.0 1.0
0001c0 00 00 00 00 00 00 00 00 00 00 80 3f 00 00 00 00
       0.0 0.0 1.0 0.0
0001d0 00 00 00 00 00 00 00 00 00 00 00 00 00 00 00 00
       0.0 0.0 0.0 0.0
0001e0 00 00 00 00 00 00 00 00 00 00 00 00 00 00 00 00
       0.0 0.0 0.0 0.0
0001f0 00 00 00 00 00 00 00 00 00 00 00 00 00 00 00 00
       0.0 0.0 0.0 0.0
000200 00 00 00 00 00 00 00 00 00 00 00 00 00 00 80 3f
       0.0 0.0 0.0 1.0
000210 00 00 80 3f 00 00 80 3f 00 00 00 00 00 00 00 00
       1.0 1.0 0.0 0.0
000220 00 00 00 00 00 00 00 00 00 00 00 00 00 00 00 00
       0.0 0.0 0.0 0.0
000230 00 00 00 00 00 00 00 00 00 00 00 00 00 00 00 00
       0.0 0.0 0.0 0.0
000240 00 00 00 00 00 00 00 00 00 00 00 00 00 00 00 00
       0.0 0.0 0.0 0.0
000250 00 00 00 00 00 00 00 00 00 00 00 00 00 00 00 00
       0.0 0.0 0.0 0.0
000260 00 00 00 00 00 00 80 3f 00 00 80 3f 00 00 80 3f
       0.0 1.0 1.0 1.0
000270 00 00 00 00 00 00 00 00 00 00 00 00 00 00 00 00
       0.0 0.0 0.0 0.0
000280 00 00 00 00 00 00 00 00 00 00 00 00 00 00 00 00
       0.0 0.0 0.0 0.0
000290 00 00 00 00 00 00 00 00 00 00 00 00 00 00 00 00
       0.0 0.0 0.0 0.0
0002a0 00 00 00 00 00 00 00 00 00 00 00 00 00 00 00 00
       0.0 0.0 0.0 0.0
0002b0 00 00 00 00 00 00 00 00 00 00 00 00 00 00 80 3f
       0.0 0.0 0.0 1.0
0002c0 00 00 80 3f 00 00 00 00 00 00 00 00 00 00 00 00
       1.0 0.0 0.0 0.0
0002d0 00 00 00 00 00 00 00 00 00 00 00 00 00 00 00 00
       0.0 0.0 0.0 0.0
0002e0 00 00 00 00 00 00 00 00 00 00 00 00 00 00 00 00
       0.0 0.0 0.0 0.0
0002f0 00 00 00 00 00 00 80 3f 00 00 00 00 00 00 00 00
       0.0 1.0 0.0 0.0
000300 00 00 00 00 00 00 00 00 00 00 80 3f 00 00 00 00
       0.0 0.0 1.0 0.0
000310 00 00 00 00 00 00 00 00 00 00 80 3f 00 00 80 3f
       0.0 0.0 1.0 1.0
000320 00 00 00 00 00 00 00 00 00 00 80 3f 00 00 00 00
       0.0 0.0 1.0 0.0
000330 00 00 00 00 00 00 00 00 00 00 00 00 00 00 00 00
       0.0 0.0 0.0 0.0
000340 00 00 00 00 00 00 00 00 00 00 00 00 00 00 00 00
       0.0 0.0 0.0 0.0
000350 00 00 00 00 00 00 00 00 00 00 00 00 00 00 00 00
       0.0 0.0 0.0 0.0
000360 00 00 00 00 00 00 00 00 00 00 00 00 00 00 80 3f
       0.0 0.0 0.0 1.0
000370 00 00 80 3f 00 00 80 3f 00 00 00 00 00 00 00 00
       1.0 1.0 0.0 0.0
000380 00 00 00 00 00 00 00 00 00 00 00 00 00 00 00 00
       0.0 0.0 0.0 0.0
000390 00 00 00 00 00 00 00 00 00 00 00 00 00 00 00 00
       0.0 0.0 0.0 0.0
0003a0 00 00 00 00 00 00 00 00 00 00 00 00 00 00 00 00
       0.0 0.0 0.0 0.0
0003b0 00 00 00 00 00 00 00 00 00 00 00 00 00 00 00 00
       0.0 0.0 0.0 0.0
0003c0 00 00 00 00 00 00 80 3f 00 00 80 3f 00 00 80 3f
       0.0 1.0 1.0 1.0
0003d0 00 00 00 00 00 00 00 00 00 00 00 00 00 00 00 00
       0.0 0.0 0.0 0.0
0003e0 00 00 00 00 00 00 00 00 00 00 00 00 00 00 00 00
       0.0 0.0 0.0 0.0
0003f0 00 00 00 00 00 00 00 00 00 00 00 00 00 00 00 00
       0.0 0.0 0.0 0.0

layer1.gcn.weight f4 [8, 3, 1, 1]
000000 8f 6e e9 be b2 85 00 bf a8 9d 47 be d7 70 d2 be
       -0.45592162 -0.50204 -0.19493735 -0.41101715
000010 73 75 61 3e 20 ad f7 bd 9b c7 13 bf da 7f 4b 3e
       0.2201746 -0.12093568 -0.5772645 0.1987299
000020 f3 49 8a be 12 10 21 be c9 d0 bc 3e ab fc 13 3f
       -0.27009544 -0.15728787 0.3687804 0.57807416
000030 c6 d1 d5 3e 08 81 37 be c9 db 0f bf 15 35 a2 3d
       0.41761607 -0.17920315 -0.5619474 0.07920281
000040 24 87 b4 bd 06 74 b4 be e3 f2 8c 3e 5c 69 db be
       -0.088148385 -0.3524477 0.27529058 -0.4285382
000050 47 75 8a 3e da f7 b1 3e 00 f6 28 3d ed 19 33 be
       0.270426 0.34759408 0.04125023 -0.17490359

layer1.gcn.bias f4 [8]
000000 99 12 88 bb d2 35 ca be 2a 0d 82 bb 70 73 96 3e
       -0.0041526076 -0.39494187 -0.0039688544 0.29384947
000010 23 c3 e5 3b 2c d1 06 be 06 3f 84 3e 12 d5 95 bd
       0.0070117875 -0.1316573 0.25829333 -0.073160306

layer1.tcn.weight f4 [8, 8, 3, 1]
000000 33 f0 af 3c 08 2b 52 3e 90 97 64 bd 42 bd 13 3e
       0.02147684 0.20524228 -0.055808604 0.14427665
000010 3a c2 51 be 61 f7 32 3e ae 52 0c 3d ef f0 1d be
       -0.20484248 0.1747718 0.034258537 -0.1542394
000020 b4 e9 27 3e cf 27 a7 bd c6 32 0c 3e 6c 70 3f be
       0.16397744 -0.0816189 0.13691244 -0.1869523
000030 ae a7 c5 bd a1 d3 45 3c f5 49 87 bd 88 97 39 be
       -0.09651123 0.012074382 -0.06605903 -0.18124211
000040 29 43 1d be d0 8d 89 bd 4b a6 b7 bb de f6 bb 3d
       -0.15357651 -0.06716502 -0.0056045405 0.091779456
000050 8d 5c 39 3e 08 2e 2b 3c ec 1e a9 bd e1 46 00 3e
       0.18101712 0.010447986 -0.08257851 0.12527038
000060 0b d2 12 bd ce f2 8e bd d6 f0 a0 bc c3 ae 00 be
       -0.035844844 -0.06979905 -0.01964609 -0.12566666
000070 59 ea 20 3d 7c d4 24 3e c7 c0 81 bd 7b 4f c6 bd
       0.03928599 0.16096681 -0.063355975 -0.096831284
000080 8c fa 2e be 79 da 8e bc d7 93 43 bd 48 d4 92 3d
       -0.17087764 -0.01743816 -0.047748413 0.07169396
000090 01 47 58 3e eb af af 3c 8a 21 a9 3d 6e dc 4c bd
       0.21120836 0.021446189 0.0825835 -0.050014906
0000a0 d4 33 d4 3d 93 ff 1d 3e b2 a1 68 bd f9 2a 70 bd
       0.10361448 0.15429525 -0.05679483 -0.058634732
0000b0 87 5d 97 3d 6a ba 00 bd f7 31 14 bd df 52 f0 3d
       0.07390886 -0.03142778 -0.036180463 0.117345564
0000c0 40 c2 12 be 15 38 e7 3d 3d 67 4d be b0 85 29 3d
       -0.14331913 0.11289994 -0.20058914 0.04138726
0000d0 01 c5 45 3d e3 96 10 be 42 b1 88 bd 61 37 1a be
       0.04828358 -0.14120059 -0.06674434 -0.15060188
0000e0 34 ba 57 3e ba 62 5b 3d b6 3d 41 be 6e d6 f0 3d
       0.21067125 0.05356095 -0.18871197 0.11759649
0000f0 34 b7 ff 3c 0f 17 a9 bd 85 e7 cd bc 0a 30 0d 3d
       0.031215288 -0.08256351 -0.025134811 0.03446964
000100 28 18 8c 3d c9 9a 06 3e 99 7f f0 3d d9 6e 06 bb
       0.06840545 0.13144983 0.11743087 -0.0020512848
000110 e7 47 25 bc a7 5b 35 be 31 7d c0 3c bf 4a 0b 3e
       -0.010087944 -0.17710744 0.023497196 0.13602732
000120 77 50 44 3e 91 00 90 3d 2d 94 af bd c9 5a b5 3d
       0.1917132 0.07031358 -0.08573184 0.088552065
000130 ea a8 58 3c b2 d2 17 be 46 b8 4c bd 9d a6 de 3d
       0.013223866 -0.14826468 -0.049980424 0.10871623
000140 a2 95 03 3e 09 24 1a be 39 14 3b be 9b 75 45 3d
       0.12850049 -0.15052809 -0.18269433 0.04820786
000150 42 d1 8a bd 24 6a 60 bd e2 75 aa bd 59 90 44 3e
       -0.06778194 -0.054788724 -0.083232656 0.1919569
000160 af d7 07 3e 78 5d 54 ba e9 a0 c8 bd 70 82 57 3e
       0.1326587 -0.0008101086 -0.09796316 0.21045852
000170 95 57 30 be 58 62 45 be 08 40 fb 3c b4 c6 3d 3c
       -0.1722091 -0.19275796 0.03067018 0.011583019
000180 23 0d 3a be 69 11 53 3d d0 da 1e 3e 2a 33 2a 3e
       -0.18169074 0.051530275 0.15513158 0.1662108
000190 ff 16 2c bd 4e 1e e4 bd 2c b5 0e 3d 23 51 53 3e
       -0.04201412 -0.11138593 0.034840748 0.2063642
0001a0 e5 28 32 be c3 d4 39 3e 3e 50 36 be 73 b2 0f 3e
       -0.17398413 0.18147568 -0.17804047 0.14032917
0001b0 24 d4 5e 3d 7b 28 19 be 75 59 fc 3d 0d 61 c8 bc
       0.05440153 -0.14956848 0.1232175 -0.02446034
0001c0 13 72 42 3e 0b 9e b4 3d a9 16 3f 3d c1 27 0d 3e
       0.18988828 0.08819207 0.04665247 0.13784696
0001d0 5e 6d e7 bd 1a 60 36 3e e9 ab fa bd a2 c7 fc bd
       -0.11300157 0.17810097 -0.122398205 -0.123427644
0001e0 b4 b6 a2 3d d7 68 15 bd e7 a8 57 bd 58 03 e5 bd
       0.07945004 -0.036476936 -0.052651312 -0.111822784
0001f0 01 9c e7 bd f4 c8 aa bd 48 74 4c 3d 82 28 15 be
       -0.11309052 -0.0833911 0.049915582 -0.14566234
000200 60 bc 8f 3d f8 8c 38 3e 03 3f f1 3d 5c a8 f9 bd
       0.070183516 0.18022525 0.11779597 -0.12190315
000210 d8 c6 41 be 5f 1b 60 bb 50 be 4d 3d c0 5b 1c be
       -0.18923509 -0.0034196002 0.050230324 -0.15269375
000220 ed 71 44 bd 7c 7a 7e bc 3c 8d 14 3d 3e ea 80 3d
       -0.04796021 -0.015532132 0.036267504 0.06294678
000230 5c f6 0d bb ce 0c 13 bc 98 5d 82 bd f6 a6 3a 3e
       -0.0021661734 -0.008975221 -0.06365508 0.18227753
000240 26 1d 1b be 43 06 80 bd b3 6b db bd 6e 35 97 bd
       -0.15147838 -0.06251194 -0.10713901 -0.07383238
000250 bb f4 38 3e 76 c7 a5 3d 42 6e 23 bd 57 58 3f be
       0.18062107 0.08094685 -0.039900072 -0.18686043
000260 ab 15 cc 3c 71 4a 46 3e 54 04 0d 3e 13 cd 14 3e
       0.024912676 0.19364335 0.13771182 0.14531355
000270 74 c4 39 3e 84 3d e9 bc 34 6a 89 bd 7a f4 a4 3c
       0.18141347 -0.028471716 -0.0670971 0.020136107
000280 28 27 9d bd 8b ed 7c 3c 86 80 08 bd 0b c9 2d 3e
       -0.07673484 0.015437494 -0.033325695 0.16971223
000290 f0 31 e7 bd 1e 69 d6 bd 82 5c 3d be c6 30 fa 3d
       -0.11288822 -0.10469268 -0.1849232 0.12216334
0002a0 7f 04 7d bd 00 01 40 be 33 e9 bb bd 11 68 9c bd
       -0.061771866 -0.18750381 -0.091753386 -0.076370366
0002b0 99 d8 c3 bd 79 d7 04 be 55 75 d1 3c d7 6f c3 bd
       -0.09562797 -0.12972821 0.025568644 -0.09542816
0002c0 9a fd e9 bd 4b 64 d1 ba b4 f8 96 bc c4 19 d9 bd
       -0.11425324 -0.0015975324 -0.018429138 -0.106006175
0002d0 84 0f 11 3e 82 44 25 be c3 26 3f be 07 6c 50 3e
       0.14166075 -0.16139415 -0.1866713 0.20353709
0002e0 9f 29 0a 3e 05 f7 df 3d a1 7c 38 be 47 c4 9f bd
       0.1349244 0.10935787 -0.18016292 -0.07801109
0002f0 70 3c c3 bd 04 53 8b bd 43 30 02 be de 13 cd bd
       -0.09533012 -0.06802943 -0.12713723 -0.10013555

layer1.tcn.bias f4 [8]
000000 9d 36 9d bd 93 8a 28 3e 66 34 48 3e be 23 c8 bd
       -0.07676432 0.16459112 0.19551238 -0.09772442
000010 d6 f1 8f bd 9f 6a 12 be 1c 93 af 3d 15 0f b5 3d
       -0.070285484 -0.14298485 0.08572981 0.08840767

layer1.bn.weight f4 [8]
000000 7d cf 7d 3f a1 57 84 3f af 16 80 3f b9 66 80 3f
       0.99144727 1.0339242 1.0006922 1.0031348
000010 19 4b 80 3f 55 d9 83 3f 81 2c 81 3f 36 4a 7d 3f
       1.0022918 1.03007 1.0091707 0.9894136

layer1.bn.bias f4 [8]
000000 b7 e5 a4 bb 0f 7b e2 3c fd 21 97 bc 97 97 d6 bc
       -0.005032267 0.02764657 -0.018448824 -0.02619533
000010 11 37 b2 bc 00 17 a1 3c fb 0f f9 3b 67 40 d4 bc
       -0.021754773 0.019664288 0.007600782 -0.025909616

layer1.bn.running_mean f4 [8]
000000 94 56 01 bf 9a 35 32 3f 76 3d 03 3f ad 6d 55 bf
       -0.5052273 0.6961304 0.51265657 -0.83370477
000010 9f be 0e be a0 b2 73 3e 76 12 41 3f 92 4a 0b 3f
       -0.13939904 0.23798609 0.75418794 0.5441066

layer1.bn.running_var f4 [8]
000000 a9 fd 8a 3c 09 67 1c 3d 11 69 fc 3b 0b 05 ce 3c
       0.016966658 0.0381842 0.0077029546 0.025148889
000010 15 f8 5a 3b 0f 56 3e 3b 1b 06 38 3d 71 34 89 3c
       0.0033412029 0.0029042994 0.044927698 0.016748639

layer1.res.0.weight f4 [8, 3, 1, 1]
000000 f0 b5 11 be a4 f0 4d be 0d 1b f0 3d 55 23 a9 be
       -0.1422956 -0.20111328 0.117239095 -0.3303477
000010 5c da 3e bd e1 9b 2f bc 45 e0 d2 3e a3 c6 39 be
       -0.046594962 -0.010718317 0.4118673 -0.1814218
000020 d5 fa e3 bd 5c b2 13 bf 24 b7 be 3e 4d 78 56 be
       -0.11131827 -0.5769403 0.372491 -0.20944329
000030 98 f8 d9 bc 94 ec 5f bd 17 3b a1 3e de 05 8d 3e
       -0.026607797 -0.054668978 0.31490394 0.2754354
000040 d4 7f c3 3e 09 1e f8 be e3 54 48 3e 90 2c f7 3e
       0.38183463 -0.48460415 0.19563632 0.48276186
000050 4c 4a be bd 29 10 15 be fc 9c c2 be 86 aa ab be
       -0.09291515 -0.14556946 -0.38010395 -0.33528537

layer1.res.0.bias f4 [8]
000000 d1 7a f6 3d ab 68 a6 be 4d bb f2 be 32 d2 07 be
       0.12035144 -0.3250173 -0.47408524 -0.13263777
000010 63 84 ec 3e 8f ae 02 be 2c 73 af bc c1 30 c2 be
       0.46194753 -0.12761901 -0.021417223 -0.3792782

layer1.res.1.weight f4 [8]
000000 b2 d1 7c 3f 31 80 83 3f 6c ae 7c 3f a6 23 77 3f
       0.9875747 1.0273496 0.98703647 0.9653877
000010 80 5a 79 3f 4d f9 82 3f bb f8 81 3f b5 83 79 3f
       0.9740372 1.023233 1.0154032 0.97466594

layer1.res.1.bias f4 [8]
000000 0d 8b dc ba 01 3a fc 3c 65 72 69 bc 12 1c e9 bc
       -0.0016826108 0.030789377 -0.014248465 -0.028455768
000010 ef 81 a1 bc 2d 1c 99 3c 4f 9b 86 3c f7 58 f0 bc
       -0.019715277 0.018690193 0.016431479 -0.029339297

layer1.res.1.running_mean f4 [8]
000000 3c bd 8e bd c4 54 0c bf ff 84 9f be 4d a6 94 be
       -0.06969687 -0.5481684 -0.31156155 -0.29033127
000010 58 78 d1 3e 41 1e 7a 3e ef 6c ae 3e c5 a1 25 bf
       0.40912127 0.24425603 0.34067485 -0.64699966

layer1.res.1.running_var f4 [8]
000000 51 59 be 3b 12 20 fc 3b e1 ed 4c 3c 5a 19 ed 3c
       0.005808987 0.0076942528 0.012507887 0.028942753
000010 0a a8 14 3a 3a 3b b7 3c 8b d3 d1 3c b9 ab 6b 3c
       0.0005670792 0.022367109 0.025613567 0.014384204

layer2.A f4 [21, 21]
000000 00 00 80 3f 00 00 80 3f 00 00 00 00 00 00 00 00
       1.0 1.0 0.0 0.0
000010 00 00 00 00 00 00 80 3f 00 00 00 00 00 00 00 00
       0.0 1.0 0.0 0.0
000020 00 00 00 00 00 00 80 3f 00 00 00 00 00 00 00 00
       0.0 1.0 0.0 0.0
000030 00 00 00 00 00 00 80 3f 00 00 00 00 00 00 00 00
       0.0 1.0 0.0 0.0
000040 00 00 00 00 00 00 80 3f 00 00 00 00 00 00 00 00
       0.0 1.0 0.0 0.0
000050 00 00 00 00 00 00 80 3f 00 00 80 3f 00 00 80 3f
       0.0 1.0 1.0 1.0
000060 00 00 00 00 00 00 00 00 00 00 00 00 00 00 00 00
       0.0 0.0 0.0 0.0
000070 00 00 00 00 00 00 00 00 00 00 00 00 00 00 00 00
       0.0 0.0 0.0 0.0
000080 00 00 00 00 00 00 00 00 00 00 00 00 00 00 00 00
       0.0 0.0 0.0 0.0
000090 00 00 00 00 00 00 00 00 00 00 00 00 00 00 00 00
       0.0 0.0 0.0 0.0
0000a0 00 00 00 00 00 00 00 00 00 00 00 00 00 00 80 3f
       0.0 0.0 0.0 1.0
0000b0 00 00 80 3f 00 00 80 3f 00 00 00 00 00 00 00 00
       1.0 1.0 0.0 0.0
0000c0 00 00 00 00 00 00 00 00 00 00 00 00 00 00 00 00
       0.0 0.0 0.0 0.0
0000d0 00 00 00 00 00 00 00 00 00 00 00 00 00 00 00 00
       0.0 0.0 0.0 0.0
0000e0 00 00 00 00 00 00 00 00 00 00 00 00 00 00 00 00
       0.0 0.0 0.0 0.0
0000f0 00 00 00 00 00 00 00 00 00 00 00 00 00 00 00 00
       0.0 0.0 0.0 0.0
000100 00 00 00 00 00 00 80 3f 00 00 80 3f 00 00 80 3f
       0.0 1.0 1.0 1.0
000110 00 00 00 00 00 00 00 00 00 00 00 00 00 00 00 00
       0.0 0.0 0.0 0.0
000120 00 00 00 00 00 00 00 00 00 00 00 00 00 00 00 00
       0.0 0.0 0.0 0.0
000130 00 00 00 00 00 00 00 00 00 00 00 00 00 00 00 00
       0.0 0.0 0.0 0.0
000140 00 00 00 00 00 00 00 00 00 00 00 00 00 00 00 00
       0.0 0.0 0.0 0.0
000150 00 00 00 00 00 00 00 00 00 00 00 00 00 00 80 3f
       0.0 0.0 0.0 1.0
000160 00 00 80 3f 00 00 00 00 00 00 00 00 00 00 00 00
       1.0 0.0 0.0 0.0
000170 00 00 00 00 00 00 00 00 00 00 00 00 00 00 00 00
       0.0 0.0 0.0 0.0
000180 00 00 00 00 00 00 00 00 00 00 00 00 00 00 00 00
       0.0 0.0 0.0 0.0
000190 00 00 00 00 00 00 00 00 00 00 00 00 00 00 00 00
       0.0 0.0 0.0 0.0
0001a0 00 00 00 00 00 00 80 3f 00 00 00 00 00 00 00 00
       0.0 1.0 0.0 0.0
0001b0 00 00 00 00 00 00 00 00 00 00 80 3f 00 00 80 3f
       0.0 0.0 1.0 1.0
0001c0 00 00 00 00 00 00 00 00 00 00 80 3f 00 00 00 00
       0.0 0.0 1.0 0.0
0001d0 00 00 00 00 00 00 00 00 00 00 00 00 00 00 00 00
       0.0 0.0 0.0 0.0
0001e0 00 00 00 00 00 00 00 00 00 00 00 00 00 00 00 00
       0.0 0.0 0.0 0.0
0001f0 00 00 00 00 00 00 00 00 00 00 00 00 00 00 00 00
       0.0 0.0 0.0 0.0
000200 00 00 00 00 00 00 00 00 00 00 00 00 00 00 80 3f
       0.0 0.0 0.0 1.0
000210 00 00 80 3f 00 00 80 3f 00 00 00 00 00 00 00 00
       1.0 1.0 0.0 0.0
000220 00 00 00 00 00 00 00 00 00 00 00 00 00 00 00 00
       0.0 0.0 0.0 0.0
000230 00 00 00 00 00 00 00 00 00 00 00 00 00 00 00 00
       0.0 0.0 0.0 0.0
000240 00 00 00 00 00 00 00 00 00 00 00 00 00 00 00 00
       0.0 0.0 0.0 0.0
000250 00 00 00 00 00 00 00 00 00 00 00 00 00 00 00 00
       0.0 0.0 0.0 0.0
000260 00 00 00 00 00 00 80 3f 00 00 80 3f 00 00 80 3f
       0.0 1.0 1.0 1.0
000270 00 00 00 00 00 00 00 00 00 00 00 00 00 00 00 00
       0.0 0.0 0.0 0.0
000280 00 00 00 00 00 00 00 00 00 00 00 00 00 00 00 00
       0.0 0.0 0.0 0.0
000290 00 00 00 00 00 00 00 00 00 00 00 00 00 00 00 00
       0.0 0.0 0.0 0.0
0002a0 00 00 00 00 00 00 00 00 00 00 00 00 00 00 00 00
       0.0 0.0 0.0 0.0
0002b0 00 00 00 00 00 00 00 00 00 00 00 00 00 00 80 3f
       0.0 0.0 0.0 1.0
0002c0 00 00 80 3f 00 00 00 00 00 00 00 00 00 00 00 00
       1.0 0.0 0.0 0.0
0002d0 00 00 00 00 00 00 00 00 00 00 00 00 00 00 00 00
       0.0 0.0 0.0 0.0
0002e0 00 00 00 00 00 00 00 00 00 00 00 00 00 00 00 00
       0.0 0.0 0.0 0.0
0002f0 00 00 00 00 00 00 80 3f 00 00 00 00 00 00 00 00
       0.0 1.0 0.0 0.0
000300 00 00 00 00 00 00 00 00 00 00 80 3f 00 00 00 00
       0.0 0.0 1.0 0.0
000310 00 00 00 00 00 00 00 00 00 00 80 3f 00 00 80 3f
       0.0 0.0 1.0 1.0
000320 00 00 00 00 00 00 00 00 00 00 80 3f 00 00 00 00
       0.0 0.0 1.0 0.0
000330 00 00 00 00 00 00 00 00 00 00 00 00 00 00 00 00
       0.0 0.0 0.0 0.0
000340 00 00 00 00 00 00 00 00 00 00 00 00 00 00 00 00
       0.0 0.0 0.0 0.0
000350 00 00 00 00 00 00 00 00 00 00 00 00 00 00 00 00
       0.0 0.0 0.0 0.0
000360 00 00 00 00 00 00 00 00 00 00 00 00 00 00 80 3f
       0.0 0.0 0.0 1.0
000370 00 00 80 3f 00 00 80 3f 00 00 00 00 00 00 00 00
       1.0 1.0 0.0 0.0
000380 00 00 00 00 00 00 00 00 00 00 00 00 00 00 00 00
       0.0 0.0 0.0 0.0
000390 00 00 00 00 00 00 00 00 00 00 00 00 00 00 00 00
       0.0 0.0 0.0 0.0
0003a0 00 00 00 00 00 00 00 00 00 00 00 00 00 00 00 00
       0.0 0.0 0.0 0.0
0003b0 00 00 00 00 00 00 00 00 00 00 00 00 00 00 00 00
       0.0 0.0 0.0 0.0
0003c0 00 00 00 00 00 00 80 3f 00 00 80 3f 00 00 80 3f
       0.0 1.0 1.0 1.0
0003d0 00 00 00 00 00 00 00 00 00 00 00 00 00 00 00 00
       0.0 0.0 0.0 0.0
0003e0 00 00 00 00 00 00 00 00 00 00 00 00 00 00 00 00
       0.0 0.0 0.0 0.0
0003f0 00 00 00 00 00 00 00 00 00 00 00 00 00 00 00 00
       0.0 0.0 0.0 0.0

layer2.gcn.weight f4 [16, 8, 1, 1]
000000 d7 66 bd bb 35 3e d8 39 a4 7f b5 bc c9 bf 78 3e
       -0.0057800817 0.00041245078 -0.02215559 0.2429191
000010 8c e7 ab 3e ea 77 ad 3e c6 eb aa be 40 84 4e be
       0.33575094 0.3388055 -0.33383006 -0.20167637
000020 f7 a4 3a 3d 03 b4 61 bd 32 80 26 3e 04 74 2b be
       0.04556748 -0.055103313 0.1625984 -0.16743475
000030 19 a1 85 3d 27 f6 96 be ab 8d ef 3d 68 9f dc 3c
       0.065248676 -0.29484674 0.11696943 0.02693148
000040 ab 52 7c 3e a9 21 9f be 01 18 56 be 79 98 81 3e
       0.2464091 -0.31080368 -0.20907594 0.2531164
000050 7f f6 d5 3d 74 36 3f bd e0 02 50 3e 58 fe 05 3e
       0.10447406 -0.04668279 0.20313597 0.13085306
000060 5b 2e 91 3c 06 f2 a3 bd f0 c8 81 3e 72 17 5f be
       0.0177223 -0.08005147 0.25348616 -0.21786287
000070 4c 9b df bd 24 54 a9 3e 77 cf 7f 3e 9e 7e 8d 3d
       -0.109182924 0.33072007 0.24981485 0.06908916
000080 0b 86 f5 bb f6 f0 7c 3d a9 7d ca bc ff 49 68 3e
       -0.007492786 0.061753236 -0.024718123 0.22684477
000090 f9 6d af 3e 6a 80 62 3e a5 3b 21 3e b3 2a 49 3e
       0.3426359 0.22119299 0.15745409 0.19645195
0000a0 11 d1 30 3c ad 63 9b be a8 29 c0 bd 9f be a0 be
       0.010792033 -0.30349484 -0.09382945 -0.31395432
0000b0 a7 54 88 bd 7a b7 9d be a8 e4 75 bc a1 d5 b1 3b
       -0.06656771 -0.30804044 -0.015008129 0.005427078
0000c0 be 65 9c bd 34 dd 69 3e d0 56 1d 3e 17 b9 64 3e
       -0.07636593 0.22838289 0.15365148 0.22336231
0000d0 4a a6 a1 3d 18 9c b5 3e f9 36 55 3e ad 87 b4 3d
       0.07893045 0.35470653 0.20821752 0.088149406
0000e0 58 ad fa bc e7 cc 83 3d d1 66 cf 3d e0 e7 91 3e
       -0.030600235 0.064355664 0.101270325 0.2849722
0000f0 66 d7 10 3e 9b 49 63 be 9b 76 06 be 23 b5 c5 3d
       0.14144668 -0.22196047 -0.13131182 0.0965369
000100 fb 4a aa 3e 5c dc ff 3c 75 c5 a7 be cd d0 5e be
       0.3326033 0.031233005 -0.32767835 -0.21759339
000110 55 ca 92 3e 9e 1a 11 bd fe 03 49 3e bb 53 2d be
       0.28669992 -0.035425775 0.19630429 -0.16926472
000120 38 fd 90 3e 91 b9 b0 3e 1a 2f d3 3d 42 2e 0e be
       0.2831819 0.34516576 0.10311718 -0.13884833
000130 94 a9 0e 3e 51 dd 8e 3e 5e 31 61 be 02 a1 80 be
       0.13931876 0.27903226 -0.21991488 -0.2512284
000140 fb 4b b2 3b 3f 0d 75 be 47 55 ae 3e 56 5b f0 3c
       0.0054411865 -0.23930834 0.34049436 0.029340427
000150 4e c2 e6 3d ad f0 3e be 11 f3 56 be 38 47 96 3e
       0.112675294 -0.18646498 -0.2099116 0.2935121
000160 4a 33 7a 3e 5d 69 8c be 79 5b 8f 3e 13 9e db bd
       0.24433628 -0.27424136 0.27999476 -0.1072351
000170 48 01 8f 3e 43 5c 15 be bd ec 9c 3e 6c e9 7a 3e
       0.27930665 -0.14585976 0.30649367 0.24503106
000180 ef 57 55 bc 46 cc 26 3e 5b 99 69 be 49 ba 68 bd
       -0.013021453 0.16288862 -0.22812407 -0.05681828
000190 fb e6 b1 3e 17 4d 42 3e 2b 2b 3c bd b0 a0 2c bd
       0.34746537 0.1897472 -0.045939606 -0.04214543
0001a0 7b 10 a5 3e d1 ac 85 3e 41 b4 73 3e 0b 05 20 bc
       0.32239136 0.2610841 0.2379923 -0.009766827
0001b0 e0 4a 9f be 21 b3 a2 be b5 89 c8 bc ec e9 60 be
       -0.31111813 -0.3177729 -0.024479726 -0.21964234
0001c0 a4 59 8f 3e 55 ea a7 be 00 49 85 3e cc c1 56 be
       0.27998078 -0.3279597 0.26032257 -0.20972365
0001d0 a4 1b 99 3e b2 44 3b bd 08 84 28 be a4 dd a5 3e
       0.299039 -0.04571981 -0.16456616 0.3239566
0001e0 8c 7e 77 be 71 7a f0 3c 91 13 0a 3e a8 4d 14 3e
       -0.24169368 0.02935526 0.13484026 0.14482749
0001f0 4c 42 89 be b5 f5 2e bd 08 36 8e be fd b0 41 bd
       -0.26808393 -0.042714793 -0.27775598 -0.04728793

layer2.gcn.bias f4 [16]
000000 72 fc 38 be ac 48 3c bd 9e 84 81 be 5c fa 2f bd
       -0.1806505 -0.045967743 -0.2529649 -0.04296337
000010 e0 1a a2 3d 59 31 e6 bd d2 e3 c0 3c 1b ed 98 bd
       0.07915282 -0.11239881 0.023546133 -0.07467099
000020 99 3d 94 3e 6c 47 8d be 65 a1 e4 3d 4d d3 ed bc
       0.28953245 -0.27593553 0.11163596 -0.02903142
000030 13 ec 38 bd 43 8c 00 3e b6 25 11 3d f2 f8 36 3d
       -0.045147013 0.12553506 0.035436355 0.044671007

layer2.tcn.weight f4 [16, 16, 3, 1]
000000 58 a8 2c 3c d9 d6 49 bd 88 a0 7d bd 3c 1b 27 be
       0.010538183 -0.04927716 -0.061920673 -0.16318983
000010 20 98 96 bd 8d 09 90 3d 41 8e d7 bc b7 6a 26 bc
       -0.07353234 0.07033072 -0.02631295 -0.010157279
000020 fc 0c 0f 3e e8 74 0c 3e a7 d5 13 3e ef 3c 48 3d
       0.13969797 0.13716471 0.1443697 0.048886236
000030 96 a2 b7 bd 04 f9 e4 3d 0a 21 51 bd 75 10 0d 3d
       -0.08966558 0.111803085 -0.0510569 0.034439523
000040 81 04 53 3d f6 c0 82 bd bc 8e e2 bc 1e 9f 25 bd
       0.051517967 -0.06384461 -0.027655952 -0.04043495
000050 39 4f 45 3d e5 e7 59 bd 2b 01 22 3d cb 58 a0 bc
       0.048171256 -0.053199667 0.039551895 -0.01957359
000060 06 20 9d 3d f3 0f a7 bd 7e 9e 82 3c 70 d1 c3 3d
       0.076721236 -0.08157339 0.015944716 0.095614314
000070 b0 17 d4 bd db 5c bb bd 5e c8 a2 3d 69 c6 30 bc
       -0.103560805 -0.0914857 0.07948373 -0.010789492
000080 78 77 38 3d 66 c6 4a 3d 2b 4d a3 bd 4b 27 06 3d
       0.04503581 0.049505614 -0.07973703 0.032752316
000090 dd 46 c9 3d 6e 13 1e 3e 82 4c 17 3e ef 0e 0e 3e
       0.09827969 0.154371 0.14775279 0.13872884
0000a0 54 3b 66 bd 88 f1 e5 bd c9 33 05 3e 44 ff 2f bd
       -0.056208923 -0.11227709 0.13008036 -0.04296805
0000b0 60 d7 b9 bc be cf 06 3d 6e e2 a7 3d 55 83 13 be
       -0.022685707 0.032912962 0.08197485 -0.14405568
0000c0 ed ab 0b bd b6 ba b7 3d dc 61 8f 3d 13 86 08 3d
       -0.034099508 0.08971159 0.07001087 0.03333099
0000d0 6a 13 a4 bd cd f5 ed bc 2d d7 01 bd 88 7b bb 3d
       -0.080115154 -0.029047871 -0.03169935 0.09154421
0000e0 ce b6 97 3d 91 68 ea 3d b3 37 ef 3d 9b 8a 2a bc
       0.07407914 0.11445726 0.11680546 -0.010409023
0000f0 1e 6e b2 bc 40 48 17 be 50 51 9a 3d e4 8c d3 bd
       -0.021781024 -0.14773655 0.075350404 -0.10329607
000100 67 8c 55 bd 1d 24 08 3e b3 9b 18 be 40 8d be bd
       -0.05213585 0.13295026 -0.14903145 -0.09304285
000110 cb 5d 1e be 04 93 b1 bd 65 67 f3 3c d1 4d d9 3d
       -0.15465467 -0.08670619 0.029712388 0.106105454
000120 69 6e 8e bc 89 be 1b be cb b3 e9 3c 42 e3 99 3d
       -0.017386632 -0.15209402 0.028528115 0.07514049
000130 eb b6 e6 3d 61 c1 18 be ac c1 e4 bd 1d 67 44 3d
       0.112653576 -0.14917518 -0.111697525 0.0479499
000140 af da 13 3e eb 39 9a bd 22 68 e8 39 fd 29 95 3d
       0.1443889 -0.07530578 0.00044328073 0.07283399
000150 92 a2 20 3d 40 e4 c6 bd 92 41 45 bd 81 00 d0 3d
       0.03921754 -0.09711504 -0.048158236 0.10156346
000160 9e 0e 0c 3c fd cd ce 3d 8b 19 8f bd b9 8d 85 bc
       0.008548407 0.10097883 -0.06987294 -0.01630293
000170 80 a5 ce 3d 51 bd e8 3d 0a a3 10 bd 00 c6 e1 3d
       0.1009016 0.11364234 -0.035311736 0.11024094
000180 60 10 06 3e e0 44 01 3e 75 08 fa bc b0 15 45 bd
       0.13092184 0.1262393 -0.03052161 -0.048116386
000190 47 1e 5a 3c e9 8b f9 bd 6a f8 e1 3d ff 48 96 bd
       0.013312883 -0.12184889 0.11033709 -0.07338142
0001a0 1d 1e ec bb 85 27 e3 3c 73 21 aa 3d 3a 10 19 be
       -0.007205738 0.027728805 0.08307161 -0.14947596
0001b0 67 aa 71 bc e5 e3 4d bd 0e 92 04 be 57 0b 85 bc
       -0.0147501 -0.050266165 -0.1294634 -0.016240759
0001c0 c6 3e fc bd 6d e7 5d bd 23 a5 93 bd 34 c7 69 bd
       -0.123166606 -0.054175783 -0.07209232 -0.05707474
0001d0 e3 8c ac bc 37 fb a8 3d 13 5f 02 be c5 1e 9f 3d
       -0.021063274 0.082510404 -0.1273158 0.07769541
0001e0 7c d5 19 3e 2f 83 23 bd 63 c9 f0 3b d8 88 0f 3d
       0.15022844 -0.03992003 0.007348226 0.035042614
0001f0 b5 36 0c be f4 1d 0b 3e da c6 64 3d f4 c6 be 3d
       -0.13692744 0.13585645 0.055853702 0.09315291
000200 fc da 64 3d 8f d7 1d 3c b7 31 a4 bd 5b 98 94 bd
       0.055872902 0.009633913 -0.08017295 -0.07255622
000210 7b 70 8a 3d e1 11 f9 3d 1c 40 40 3d 8b c1 09 be
       0.06759735 0.12161613 0.04693614 -0.13452737
000220 a4 c0 fa 3d 56 c1 5e 3d f6 70 79 bd b2 0d 63 3d
       0.122437745 0.0543836 -0.060898744 0.055432983
000230 f3 19 c1 3d ee 45 94 3d 2f 68 59 3d 3f 1a 9d bd
       0.094287775 0.072399005 0.053077873 -0.07671022
000240 ca 10 34 bc e5 d8 0c be 1c 99 3f 3c 7d c8 f3 3d
       -0.010990331 -0.13754614 0.011694219 0.119034745
000250 c7 28 a4 bd db 0e da 3d 16 d1 6d bd f0 38 c5 bb
       -0.0801559 0.10647365 -0.058060728 -0.0060187504
000260 5d 6d e0 bd 42 ef 6e 3d ce 26 53 bc 3f db b3 3d
       -0.109583594 0.058333643 -0.01288767 0.08782052
000270 e0 a4 2e 3d 8b 05 fe 3c d5 3e 7d 3d b9 fa 69 bd
       0.042637706 0.031008502 0.0618275 -0.057123873
000280 3f 1f c7 3d 8f 66 e7 3d bc fd a3 3d 15 fa 50 bd
       0.097227566 0.112988584 0.0800738 -0.051019747
000290 7e 65 ec 3d 71 b8 27 3e f3 a0 02 be bf 5d 61 bd
       0.115427956 0.16378953 -0.1275671 -0.055021044
0002a0 1b 2b 84 bc 2a 27 81 bd 5c cd 12 bd a0 16 38 3b
       -0.016133836 -0.06306298 -0.035840377 0.0028089657
0002b0 a0 c5 bc 3d 42 58 7c bd 23 b1 f7 bd 82 19 8d bc
       0.092173815 -0.061607607 -0.12094333 -0.017224077
0002c0 e0 b7 e8 bc d2 3a a0 3d 78 c0 90 bd f6 73 b8 bd
       -0.028407991 0.07823719 -0.070679605 -0.09006493
0002d0 6c 18 c1 3c 3d 88 65 3d 9c bf 05 be 45 01 f2 bc
       0.023571216 0.05603813 -0.13061374 -0.029541621
0002e0 17 e6 52 bd 6c b4 43 3d 45 e9 8f bb c5 f4 57 3d
       -0.051488962 0.047779486 -0.0043918216 0.052723665
0002f0 7e 49 1b 3e db 88 b3 3d 93 40 da 3d ca c6 e6 bc
       0.15164754 0.087663375 0.10656848 -0.028170962
000300 d2 0e b1 bc ef f9 82 bd 5b f2 81 3d 24 74 da bd
       -0.021613512 -0.06395327 0.06345054 -0.10666683
000310 df 62 14 be 47 85 26 bd 86 6c e3 bd f9 bb 67 3d
       -0.14490841 -0.040654447 -0.111046836 0.05657575
000320 2a 6a bd 3c e2 92 f7 3d 00 87 14 3e 06 b4 f5 3b
       0.023121912 0.120885625 0.14504623 0.007498267
000330 66 8c 70 3d c6 64 94 3d a2 70 bd 3c fc 5e c7 bd
       0.058727644 0.072457835 0.023124997 -0.09734914
000340 ac f3 45 bd 86 7e 7f bb 85 70 10 be ba 7f 8c bc
       -0.048328087 -0.0038985326 -0.14105423 -0.017150749
000350 05 09 c4 3d 95 5d 32 bb b7 14 dd bd 63 a4 3e 3c
       0.09572033 -0.0027216424 -0.10794967 0.011635873
000360 fb 01 40 bc b1 28 87 3d ec 65 0c be 58 9f 86 3d
       -0.011719222 0.06599558 -0.13710755 0.06573361
000370 40 db 7c bd 49 19 36 3d 95 df 02 3e c7 9c f8 3d
       -0.06173253 0.044457708 0.12780602 0.12139278
000380 9d 95 0f bc 72 de db 3d 5e dc 0b bd e9 34 62 bd
       -0.008763698 0.107357875 -0.034145705 -0.05522624
000390 b6 6d cf bd eb e4 e9 3d 88 2e bd 3d 93 8a 9a bd
       -0.101283476 0.11420616 0.09237391 -0.07545962
0003a0 12 94 09 3e 91 90 a6 3d 44 71 09 be b8 e3 15 3e
       0.1343539 0.081330426 -0.13422114 0.14637649
0003b0 a9 f4 c6 3d 67 ca 63 bd 55 39 0b 3e 5f 5c e7 bd
       0.09714634 -0.055612948 0.13596089 -0.11296915
0003c0 ac c9 2a 3c 9b 0f 26 3e 86 26 04 3e 65 ee 0b bd
       0.010424059 0.1621689 0.1290532 -0.034162898
0003d0 69 10 92 bd 74 97 94 bc ce a5 d7 3b 9f 97 b7 bd
       -0.07132036 -0.018138625 0.0065810448 -0.08964466
0003e0 89 a2 06 bd 46 11 14 3e fb 6b c7 3d c8 6b b7 3d
       -0.03286985 0.14459714 0.097373925 0.089561045
0003f0 78 52 af bd eb 13 d9 bd 15 1e 82 bd a6 90 a4 3d
       -0.085606515 -0.10599502 -0.06353394 0.08035402

layer2.tcn.bias f4 [16]
000000 da 3b 15 3d e5 cd cc bc ee bf 3c 3d 7e eb c9 3d
       0.036434032 -0.025000522 0.046081476 0.0985937
000010 48 b4 ac 3c 83 7e cb bc 33 dd 22 3d 48 65 45 3d
       0.021082059 -0.024840599 0.039761733 0.048192292
000020 d1 6c f1 bd 80 f2 df 3c e5 59 8b bd ba 6c 7a bc
       -0.11788333 0.027337313 -0.068042554 -0.0152847115
000030 71 35 e0 3d 96 89 9b bd 76 f4 d7 3d 4e 67 cb 3d
       0.10947693 -0.07594602 0.10544674 0.09931813

layer2.bn.weight f4 [16]
000000 9e 51 7c 3f fe d9 81 3f 49 5d 81 3f 52 03 7b 3f
       0.9856204 1.0144651 1.0106593 0.9805194
000010 00 45 82 3f a0 9b 79 3f 70 eb 81 3f 49 b4 7c 3f
       1.0177307 0.9750309 1.0149975 0.98712593
000020 36 d1 78 3f 13 60 7f 3f 2c 20 7b 3f dd 5c 81 3f
       0.9719423 0.9975597 0.98095965 1.0106465
000030 f1 ab 80 3f 54 0b 7f 3f 08 0b 81 3f 3b 8d 7e 3f
       1.0052472 0.9962666 1.0081491 0.9943425

layer2.bn.bias f4 [16]
000000 ae c2 71 bc f0 42 c3 3b d6 b3 14 3c 5a c6 b1 bc
       -0.014755888 0.0059589073 0.009076079 -0.021701027
000010 c4 07 a4 ba 04 27 e1 bc e7 37 95 3b c5 ea 26 bc
       -0.0012514521 -0.027484424 0.004553783 -0.010187809
000020 11 ba c1 bc c9 a4 94 ba c4 5c 81 bc 3a 8f c3 3b
       -0.023648294 -0.0011340614 -0.015791304 0.0059680017
000030 01 07 45 3c 65 7f 54 bb 36 ae 94 3b 86 11 18 bc
       0.012025596 -0.0032424566 0.004537369 -0.009281522

layer2.bn.running_mean f4 [16]
000000 58 1e f9 3e 8d 94 8f bf d9 a0 59 be 01 cb 8f 3d
       0.48655963 -1.1217209 -0.21252765 0.07021142
000010 2c 41 8b 3f a3 e9 47 be 05 ac 16 3e ef ce d1 bf
       1.0879264 -0.19522719 0.14714058 -1.6391276
000020 dd af 39 be a8 3f 14 3f 8f 64 7e be 57 f7 f7 be
       -0.18133493 0.5790963 -0.24843048 -0.48430893
000030 ff f6 25 3e f7 37 ef bd c5 a5 1e be 7a 41 bb bf
       0.16207503 -0.11680596 -0.15492924 -1.4629357

layer2.bn.running_var f4 [16]
000000 f3 96 7d 3e 44 c2 1a 3f 6e 71 6f 3f 4f 97 19 3f
       0.24764614 0.60452676 0.93532455 0.59996504
000010 97 41 b9 3e 93 51 6b 3f 5b 43 e3 3e 9a e2 c5 3f
       0.36182854 0.9192135 0.44387326 1.5459778
000020 c7 15 3a 3f b5 aa 0a 3f 62 85 c1 3e db c8 6f 3f
       0.7268948 0.5416673 0.37797076 0.93665856
000030 f7 d4 53 3f 4c 7e 40 3e 92 f9 60 3e bc 7b 55 3f
       0.82746834 0.18798178 0.21970204 0.8339193

layer2.res.0.weight f4 [16, 8, 1, 1]
000000 42 c4 28 be 43 f5 72 be 8f fe 03 3e 2e 27 95 be
       -0.16481116 -0.23726372 0.12890075 -0.29131454
000010 2e d3 70 3e 99 14 43 3e c2 49 b7 bd 6d 92 a6 be
       0.23518059 0.19050826 -0.08949615 -0.3253359
000020 69 6a 1d 3e 30 8b 49 be f1 e2 9a 3e c9 36 9c be
       0.15372624 -0.19682002 0.30251268 -0.30510548
000030 ec 0a c0 3c e1 6d a1 3d b6 39 6f be fa 8e 1e 3e
       0.023442708 0.07882286 -0.23361859 0.15484229
000040 2c 2f 79 be 51 86 c6 bd 5a df 67 bd 4c 31 6b be
       -0.24334401 -0.096935876 -0.05660949 -0.22968024
000050 27 ce e2 3d fd 91 2a 3e 27 66 48 be 66 30 76 be
       0.11074477 0.16657253 -0.19570218 -0.240419
000060 80 ad 30 3e a1 7d 11 3e 2f 52 9d bd 3b 82 a9 3e
       0.17253685 0.1420808 -0.07681691 0.3310717
000070 9e e8 db bc 8d 4b 59 bd 95 9c 9a be c2 cd 17 be
       -0.026844319 -0.053050566 -0.30197588 -0.14824584
000080 68 44 5f bc e7 62 08 3e fb e3 69 3e 91 e3 93 3e
       -0.013627149 0.13318978 0.22840874 0.28884557
000090 15 d9 6d be ac 7c 30 3e 1b ed 39 bd cf 5f 8a 3e
       -0.23227341 0.17235059 -0.045392137 0.2702622
0000a0 8e d8 b2 be c4 ae 9c be 17 d2 eb bd 5d 67 ad be
       -0.34930843 -0.30602086 -0.11514681 -0.33867922
0000b0 fa b3 ae be 63 e1 8c 3e b8 ed 71 be 36 6d 75 be
       -0.34121686 0.27515706 -0.23625839 -0.23967442
0000c0 04 81 0e bd 68 c3 b1 3b b1 b8 94 3e 40 7b a2 be
       -0.034791008 0.0054249056 0.29047158 -0.31734657
0000d0 52 aa 0e bd 3f b2 d5 3d 11 7b c1 bd ff ba d0 3d
       -0.0348304 0.10434388 -0.09447301 0.10191917
0000e0 86 c8 ad 3e 58 27 54 3e ee 4e 47 3d 93 12 3d 3c
       0.3394205 0.20718133 0.048659258 0.011540073
0000f0 c5 a2 8e 3e db 3c 55 be f9 ff 82 3e d7 38 6d 3e
       0.27858558 -0.20823996 0.25585917 0.23166214
000100 73 99 2f 3e f0 93 8b 3e 7a 43 97 3e 4e 0f f9 bc
       0.1714838 0.27261305 0.29543668 -0.030402806
000110 27 4f 26 bc 6a 8c 81 be 24 4c 16 3e 16 d4 8d 3e
       -0.010150707 -0.2530244 0.14677483 0.2770087
000120 f8 ab ab 3e 43 40 77 be b9 6c 10 3c c4 68 49 3e
       0.3352964 -0.24145608 0.008814984 0.19668871
000130 a0 38 82 be ef 49 7b bd 1a 3b 13 3e e6 5b e5 3c
       -0.25433826 -0.061349805 0.14378014 0.027997922
000140 98 4e 5f 3e fb 9d 3f 3d 69 81 b7 3e 38 b7 b5 be
       0.21807325 0.04678152 0.3584092 -0.35491347
000150 cc b4 3b 3d 7a 1d 91 be 88 ec e4 bd 96 dc d8 3d
       0.04582672 -0.283428 -0.11177927 0.105889484
000160 cc 76 b3 3e c5 3a 41 be 20 68 59 3e 47 8c 0b 3e
       0.35051572 -0.18870075 0.21231127 0.1362773
000170 af 63 91 3e a2 33 17 3e 16 25 16 3d 13 47 69 3e
       0.28396365 0.1476579 0.03665646 0.22781019
000180 9d c5 b6 be 69 26 11 be 99 54 6b bd 83 6c 8a be
       -0.35697642 -0.14174809 -0.057453725 -0.27035913
000190 bf f9 6b 3e 79 f6 5c 3e a1 d7 05 3d e6 55 b7 be
       0.2304449 0.21578397 0.032676343 -0.35807723
0001a0 fc ab 1b bd 0c f3 9b 3d 4b 0d 94 3e 7e 68 ad be
       -0.038005814 0.07614717 0.28916392 -0.33868784
0001b0 54 fd 2d 3e 82 58 86 3e e0 2e 19 3e da c4 65 3e
       0.16991168 0.262394 0.14959288 0.22438374
0001c0 68 c8 65 3e 15 62 a0 3e 73 a4 1b be a0 fb a5 3e
       0.2243973 0.3132483 -0.15199451 0.32418537
0001d0 9b 30 4c be 01 5d 91 3e 10 b1 8b 3e 35 36 8f be
       -0.19940417 0.2839127 0.27283525 -0.27971044
0001e0 d6 4a 93 3e 7d ac 25 be b2 e0 0f be c0 b9 88 be
       0.28768033 -0.1617908 -0.14050558 -0.26704216
0001f0 01 f1 8b be 73 61 af be 4d eb 8b 3e ca 23 63 3e
       -0.2733231 -0.34254035 0.27327958 0.22181621

layer2.res.0.bias f4 [16]
000000 ab de 47 be 1a e0 90 be fb ce 2e 3e 7b db ef 3d
       -0.19518535 -0.28295976 0.17071144 0.117117845
000010 0d 16 d7 bd c8 05 c9 3d df 49 ad bd a3 a9 8a be
       -0.10502253 0.09815556 -0.084613554 -0.27082548
000020 c5 a4 90 be ff b5 2e be db 37 88 3e 53 02 3a be
       -0.2825071 -0.17061614 0.26605114 -0.18164949
000030 ac f6 87 3d c1 2a c3 bd 90 8d b3 3e 17 f1 3f 3e
       0.06638846 -0.09529639 0.3506894 0.18744312

layer2.res.1.weight f4 [16]
000000 e3 cd 7c 3f ae 4e 81 3f 5a b5 80 3f 4f 05 79 3f
       0.9875166 1.0102136 1.0055344 0.97273725
000010 5d 93 7f 3f ae de 78 3f b5 8b 7c 3f b2 78 7e 3f
       0.99834234 0.9721478 0.98650676 0.99402916
000020 82 be 7b 3f 83 a1 7e 3f c1 54 7e 3f 73 9e 7e 3f
       0.98337567 0.994652 0.99348074 0.99460524
000030 82 31 81 3f 12 f3 7f 3f 56 30 81 3f 9a 02 7c 3f
       1.0093234 0.9998027 1.0092876 0.9844147

layer2.res.1.bias f4 [16]
000000 4d fa 77 bc e4 f5 b0 3b 10 69 16 3c 25 7e bd bc
       -0.01513536 0.005400406 0.009180322 -0.02313144
000010 20 ff a0 ba e3 60 e4 bc dc 44 03 3b f4 20 30 bc
       -0.0012283064 -0.02787823 0.0020030057 -0.010750044
000020 0e bd cb bc f0 58 4d bb b7 13 70 bc 8a 72 ac 3b
       -0.024870422 -0.0031333528 -0.014653138 0.0052626776
000030 4f 28 42 3c 46 7f 50 bb 50 e1 a7 3b b6 6d 1d bc
       0.011850431 -0.0031814142 0.005123295 -0.009608677

layer2.res.1.running_mean f4 [16]
000000 7d 72 00 bf 82 0e 9d be a8 e5 a7 be a0 00 d1 3d
       -0.50174695 -0.3067513 -0.327924 0.10205197
000010 e6 04 b0 3e a6 3a 67 bf 27 69 a3 bd fa 3b ec 3e
       0.34378737 -0.90323865 -0.079790406 0.46139508
000020 0d 40 79 3e 26 d1 e6 3b 8d c4 90 3e 0e bb 12 3f
       0.2434084 0.0070439754 0.28274956 0.5731667
000030 23 56 ae be d8 cc cc 3e 98 22 6f 3f 83 bb 8d 3c
       -0.34050092 0.40000033 0.9341216 0.017301327

layer2.res.1.running_var f4 [16]
000000 57 8f 93 3e 4c 83 a2 3e 66 15 38 3e bb e3 dc 3e
       0.28820297 0.31740797 0.17976913 0.43142495
000010 08 51 55 3e f0 69 4a 3f 2f 5a a5 3e ce 93 d4 3e
       0.20831692 0.790679 0.32295367 0.41519016
000020 04 b4 69 3e df c9 2d 3e 48 21 bb 3e c4 14 9c 3e
       0.22822577 0.16971539 0.3654883 0.30484593
000030 07 e2 b9 3e 31 56 f4 3e 26 9b 94 3e 99 b3 8b 3e
       0.36305258 0.4772201 0.2902462 0.2728546

fc.weight f4 [5, 16]
000000 5f 5a 5f 3d 2e d3 43 be 14 d3 3e bd 13 34 3b bd
       0.054529544 -0.19123527 -0.04658802 -0.04570396
000010 58 73 32 be 16 fd 5e 3d 4b d1 66 3e 30 f5 97 bd
       -0.17426813 0.05444058 0.22540776 -0.07419813
000020 36 90 1d 3e 9f 7f f6 3d 08 c8 09 3e b1 39 b8 bd
       0.15387043 0.120360605 0.13455212 -0.08995379
000030 70 23 b3 bd d8 20 2c be e9 91 2b 3e 2e 83 4a be
       -0.087469935 -0.16809404 0.16754879 -0.19776604
000040 19 85 10 be d7 e4 fd 3c 34 41 84 3d a5 df c5 bd
       -0.14113273 0.030992908 0.06457749 -0.096617974
000050 d4 c1 85 3e 32 3f 5b be c1 f3 5d be 7d f5 9d bd
       0.26124442 -0.21410826 -0.21675016 -0.07712839
000060 79 3d 37 be c7 40 34 be 69 6a 37 be 46 fe 1e 3e
       -0.17894544 -0.17602836 -0.17911686 0.15526685
000070 8a d7 31 bc b8 be a9 3d 07 99 62 3e c9 5c 34 bd
       -0.010854611 0.0828833 0.22128688 -0.0440338
000080 a3 33 ba bd fb 84 2b 3e 78 74 b5 bd 56 89 4b 3c
       -0.0909188 0.16749947 -0.08860105 0.01242288
000090 59 9b 0a be da 3c 56 be a4 c2 8b bb 86 1c ed 3c
       -0.13535823 -0.2092165 -0.0042651463 0.028944265
0000a0 b0 c0 73 be 40 61 2f 3e 21 74 78 bd fd 69 98 3d
       -0.23803973 0.17126942 -0.060657624 0.07442091
0000b0 d9 e5 90 bd 7b 44 71 be 26 6c 49 3e cf 73 71 bd
       -0.0707509 -0.2356128 0.19670162 -0.058948334
0000c0 ec 2d 11 be ac 66 e8 3d d0 8a ef 3c bf cc 07 3d
       -0.14177674 0.11347708 0.029240996 0.033154245
0000d0 fc 0f 22 3e 7b ea 38 3d 27 07 15 be 02 87 9a 3d
       0.1582641 0.045145493 -0.1455351 0.07545282
0000e0 db 3b d2 bb fb de 09 3e 5d 74 51 be 23 45 28 3e
       -0.0064158267 0.13463967 -0.20454545 0.16432624
0000f0 d4 ca ed bb 66 74 23 3e 0e 00 ad bd ff c3 f6 bc
       -0.007256845 0.15962371 -0.08447276 -0.030122755
000100 4c 83 2e be db 6d 12 bd 44 c8 48 3e 5b 05 39 be
       -0.17042273 -0.035749298 0.19607645 -0.18068449
000110 2f ad 32 be 78 4c 38 be 1f 7b 30 3e ed bf 89 3c
       -0.17448877 -0.1799792 0.17234467 0.01681515
000120 8b 66 1a be 52 52 8a 3e af a0 3c be 74 c1 f8 3d
       -0.1507818 0.2701593 -0.18420671 0.12146273
000130 33 2e 15 3e d3 6a 20 3e b4 32 38 be 8f 34 30 be
       0.14568405 0.1566575 -0.17988092 -0.1720755

fc.bias f4 [5]
000000 e4 cf 55 3e 9c f5 94 3d 19 ed 61 3e 74 28 f5 bc
       0.20880085 0.07273409 0.22063102 -0.029926516
000010 ba 0c e0 bc
       -0.027349818
