mlp_hand_posture_best.pt (torch, 202941 bytes, 6 tensors)

net.0.weight f4 [256, 63]
00000000: 7e57 0d02 1c3e c682 b89d 5902 1afc ba82
00000010: bb09 c982 ca2e c982 8c4a bc82 9c18 bf82
00000020: c1aa c282 3cfc c382 e569 c982 80a3 bb82
00000030: cf23 b782 0a22 d082 3c75 c282 d852 c182
00000040: ae9d be02 5ab7 b082 508d b982 aa2c bf82
00000050: 185b b382 b041 c582 249f c582 9ccd d382
00000060: 62f8 d082 5b74 c682 1f81 dc02 9717 c682
00000070: 87d5 c702 fb53 c382 5090 cb82 96f3 b282
00000080: 8303 cb02 27a7 c582 8d03 bd82 7fbe cb02
00000090: 4512 ce82 502b bf82 1a22 d002 9d82 ca82
000000a0: f217 cf82 ed2d bb02 f4d1 ba82 0ccd ca82
000000b0: 4aa1 b902 81dd c482 2bce d282 3ef4 ca02
000000c0: db60 ca82 94d9 cc82 a691 c502 a389 b382
000000d0: 86ce ba82 ee1b c602 6190 cd82 f3e8 bb82
000000e0: a4dd b702 7062 bc82 db21 b782 1bcc b702
000000f0: ced1 c982 76fa b282 fddc c902 2a99 f7bc
00000100: 9169 ae3d 5b9e d439 3139 fdbd 4743 cebd
00000110: 499c a53e 5d09 28bd e2d2 c7bd cf5d e53e
00000120: 0bf1 723d 3ca6 053e c14f 0a3f a34d d73c
00000130: e173 223e bc6d db3e a8d8 a13d b763 f7bd
00000140: 68b4 d9bc 3b63 b73d e11c aa3e 1e9d 593d
00000150: 522a 9dbc a2ca 1dbe 1147 373d b3fe e93d
00000160: 8ef8 89be 14ea a33d 0c56 023e f051 b1be
00000170: 2247 a0bc f8f8 7ebd 0b69 9b3e 4a52 283d
00000180: a3d0 b2bd ffd2 25bd aec7 3bbb 5e79 613c
00000190: 19fb 38be c9e3 e4bd 37e2 66bd 2cde 98bd
000001a0: 8909 71bd d9bf df3c 9105 2c3e 8451 55bd
000001b0: 6288 febd e7ee 6a3d f74d 2dbe 8ab1 af3c
000001c0: c477 06bd 69e7 33be 0596 49bd 6f57 723e
000001d0: e6c4 73be 8414 0a3d 0a19 753d 099d 32be
000001e0: 48d7 4d3d 382d 27be 7785 61bd 555e c03c
000001f0: 26fc 57bd 45d6 15be 2c5a b500 d6ad 9001
00000200: 452b ba82 3082 5182 e4cf 4682 6eb8 3882
00000210: a6d2 2b02 a2eb 0802 23ae 0d01 177a 8202
00000220: 0841 9001 ead2 5d82 d6d7 d102 e8dc 1881
00000230: 247f 4f02 6c49 3600 dcd1 4982 b0e4 9502
00000240: 8e3b 5682 4087 aa02 18fc ff81 7c2f 3682
00000250: d068 8f82 45d7 1b03 4809 0e00 fc19 6202
00000260: 9fc3 5d82 d089 7402 2dac 4d83 16f7 0902
00000270: 01c8 1083 88ce 5383 bf26 2002 a628 8402
00000280: e802 5782 2e4b 7282 08a5 6303 005f 8482
00000290: 6cf3 2583 a5e1 8882 6c93 8682 253d 2f82
000002a0: 1d86 ba82 e475 bd80 bc53 4b02 9f03 5582
000002b0: d2ed c202 3625 7f02 c310 3782 809e 8c82
000002c0: 81c7 6202 41ed be82 7419 fc81 80d3 be01
000002d0: c821 e901 cbc1 ac02 5f6b 0b82 63b9 0603
000002e0: 42b7 1382 2005 6782 99bf a782 d09b c981
000002f0: c2a5 8602 2d5d dc3e c8ab 59be 1c6b 3cb9
00000300: 502b 91be 1336 86be f324 cf3c 7695 d2bd
00000310: ae7c 6bbe 6967 53be 230b b9bd 4597 c93c
00000320: 55b1 23be f24a 67be 4115 f53d cced 44be
00000330: 85b1 bd3d 017d 7f3e 9f67 3d3e aa54 87bd
00000340: ad9b a73e fdb9 213e 68f3 2abe ed3a 503e
00000350: cb48 523e 58ed 16be 2537 bd3d dc90 663c
00000360: d444 09bd d10f ef3d 9b90 9a3e 42b9 eb3d
00000370: 23cb 6c3e 8603 573e f9ec 393d 4bfa 003e
00000380: 45a7 063e 07f9 9cbd 9259 013e da13 a33d
00000390: bc2f 26bb ef26 bbbc 1f6d 873d 0083 093e
000003a0: 438a 06bd 245b 5b3c f909 f83d 7005 e33d
000003b0: 5f61 713d c044 3c3d 63bb 5abc 32b3 3b3e
000003c0: 5a58 81bc be39 b5bd c783 d0bb 9977 673d
000003d0: f133 cbbd aacf b63c 1b38 0f3d c876 dabd
000003e0: b8e4 983b 7b58 84bd 7c98 863c d3b4 363e
000003f0: 5171 7502 b89a b082 4a97 2902 3253 a982
1.0384153e-37 -2.9129134e-37 1.5987905e-37 -2.7474943e-37 -2.953988e-37 -2.9561151e-37 -2.7666905e-37 -2.8079053e-37
-2.8603746e-37 -2.879745e-37 -2.9595076e-37 -2.7571025e-37 -2.6909986e-37 -3.058239e-37 -2.8573027e-37 -2.8406351e-37
2.8008495e-37 -2.5966114e-37 -2.7264416e-37 -2.8090564e-37 -2.6353971e-37 -2.8984251e-37 -2.903789e-37 -3.1121677e-37
-3.0705418e-37 -2.916027e-37 3.2400207e-37 -2.9107025e-37 2.936298e-37 -2.8700877e-37 -2.9911e-37 -2.629456e-37
2.9830185e-37 -2.904249e-37 -2.7773092e-37 2.9937509e-37 -3.0279466e-37 -2.8089788e-37 3.0582426e-37 -2.97562e-37
-3.042966e-37 2.750354e-37 -2.745075e-37 -2.9798923e-37 2.7275882e-37 -2.8926749e-37 -3.0975061e-37 2.982142e-37
-2.9736825e-37 -3.009999e-37 2.9030146e-37 -2.6380686e-37 -2.7448782e-37 2.9109516e-37 -3.0204912e-37 -2.7610887e-37
2.7016649e-37 -2.7680618e-37 -2.6908865e-37 2.7006584e-37 -2.9654718e-37 -2.6298507e-37 2.9661137e-37 -0.030224402
0.08516229 0.00040553775 -0.12364424 -0.10071426 0.323458 -0.041024555 -0.097570196 0.44798133
0.059311908 0.13051695 0.54027945 0.026282137 0.15864517 0.42857158 0.07902652 -0.12079566
-0.026575282 0.089544736 0.33225158 0.053128354 -0.019185219 -0.1540933 0.04474551 0.11425533
-0.26947445 0.08003631 0.12728137 -0.34632826 -0.019565169 -0.062249154 0.3035358 0.041094102
-0.087312005 -0.040484425 -0.0028652954 0.013761846 -0.18064536 -0.11176259 -0.05636808 -0.07464251
-0.058846984 0.02731316 0.16798998 -0.052079692 -0.12428357 0.05735674 -0.16924272 0.021446962
-0.03282906 -0.17568745 -0.049215335 0.23666166 -0.2380558 0.03371097 0.059838332 -0.17442717
0.050254136 -0.16325843 -0.055058923 0.023482481 -0.052730702 -0.14632519 1.6654572e-38 5.314669e-38
-2.735508e-37 -1.5392257e-37 -1.4606404e-37 -1.3571114e-37 1.2623549e-37 1.0059325e-37 2.6022547e-38 1.917186e-37
5.299056e-38 -1.6297045e-37 3.0833674e-37 -2.8076483e-38 1.5244446e-37 4.985456e-39 -1.4827374e-37 2.2024842e-37
-1.5739328e-37 2.5056885e-37 -9.4033943e-38 -1.3384876e-37 -2.107212e-37 4.5797523e-37 1.289026e-39 1.6611315e-37
-1.6292656e-37 1.7965839e-37 -6.0441734e-37 1.0136081e-37 -4.254739e-37 -6.2244413e-37 1.1766063e-37 1.9418988e-37
-1.5796539e-37 -1.7800928e-37 6.689875e-37 -1.9450184e-37 -4.8768577e-37 -2.0112918e-37 -1.9774146e-37 -1.2874517e-37
-2.740722e-37 -1.73992e-38 1.4938115e-37 -1.5649808e-37 2.864224e-37 1.874512e-37 -1.3449527e-37 -2.0662126e-37
1.6661113e-37 -2.8054168e-37 -9.2606704e-38 7.0098465e-38 8.5639156e-38 2.538436e-37 -1.0242921e-37 3.9591874e-37
-1.0852447e-37 -1.697267e-37 -2.4648416e-37 -7.405932e-38 1.978467e-37 0.43039837 -0.21256936 -0.00017968978
-0.28353357 -0.2621313 0.025286173 -0.10282414 -0.2299678 -0.20644917 -0.09035327 0.024608264
-0.15985616 -0.22587183 0.119669445 -0.19231337 0.09262375 0.24950029 0.1849656 -0.06607945
0.3273596 0.15793605 -0.16694415 0.20334978 0.20535581 -0.14738977 0.092390336 0.014072623
-0.033512905 0.116729386 0.3018845 0.115099445 0.23124366 0.20997438 0.04539201 0.12595479
0.13149746 -0.07664686 0.12631825 0.07962771 -0.0025358042 -0.022845713 0.0661261 0.13428879
-0.0328467 0.013388429 0.12111277 0.110850215 0.05893075 0.045964003 -0.013350341 0.18330076
-0.0157892 -0.08848904 -0.0063633653 0.05651054 -0.099220164 0.022315819 0.034965616 -0.10667187
0.0046659373 -0.06462189 0.016430132 0.17842416 1.8032277e-37 -2.594968e-37 1.2459577e-37 -2.488007e-37

net.0.bias f4 [256]
00000000: 20f5 ce82 8f90 8fbd 1407 8782 f4e1 923c
00000010: 9603 c382 4ac1 7b3d 776f 073e b29d 843d
00000020: 5478 14be d322 8d3d 6187 b382 7d11 f33d
00000030: 62b0 e8bd 966f b13d 505e 21bd b6ee b03c
00000040: 4e50 e33d b8df a001 75ed 2fbd 0540 e1bc
00000050: 2a63 bd82 59fe 7d3d fb43 d43d 5027 4dbd
00000060: c4ae 8cbc b224 d1bd 3d9c a43d 029e ab3d
00000070: c88f c382 6fbd c23d bfb3 4fbd cd97 50bd
00000080: e398 37be ccf8 083e 1bfd c53c 42a9 4ebe
00000090: ce3e d0bd 6d9c fc3c 4b3b a9bd ab9e 06be
000000a0: e62a edbc 2ccf b682 0428 873c 87fc bb3d
000000b0: 60a4 1982 798d ea39 8600 4abd 4b2e 5dbb
000000c0: f901 d182 4677 c082 7fbe 773d b48c cf3d
000000d0: 2a0b 803d 5961 c582 93d4 73bd 26cb be82
000000e0: 4090 00bc 906e d93d e1dd e6bd 800a edbd
000000f0: c943 0ebe 7e2d 6bbc 754c ed3d d60d c53d
00000100: 6e1c 383c 9419 b6bd 6e56 0abd 097a 6f3c
00000110: 52e3 bf3b 9b1f 813d 94d1 2082 c39f 56bd
00000120: 2c9f bc82 c79a 53bd 667a 0d3e 83ef 0dbd
00000130: 6e74 bf82 e7c9 50bd 80c8 2fbd bb7e 9ebd
00000140: e040 263b 5765 8dbd 74c6 3bbd 3732 b4bc
00000150: eecd bd00 4131 c982 ec88 0f3e 9dc8 b882
00000160: f51f 9b3c f95e 27bd 0413 a73d 8e5f 3402
00000170: 1f51 3d3d be7a 04be 1d42 67bd 9383 c9bd
00000180: 6f87 ed3d c3fa 0bbe 8b78 47bd a71a 3cbc
00000190: 37c6 9602 ed2f 8b3c ce97 c53a 2a42 b982
000001a0: f570 c53d 6d35 b73d d40f 5cbd 9ed1 c33d
000001b0: 6cda b63d 0f34 b882 1293 ccbd 486d c482
000001c0: 8af2 833d 5c27 e93d bd65 173d 5c64 8c3d
000001d0: 1546 d53d fb20 f43c 54e9 be82 2613 b882
000001e0: 5e85 b682 6b0f 8b3c dec8 96bc 9abc 0ebe
000001f0: 2d23 af82 4e36 a43d a74c 1dbd c7dd bd82
00000200: d049 c182 07ac 56bd c569 663d fc83 c482
00000210: 549f c082 b344 e9bb 1641 2f3d bbb8 4c3d
00000220: 44e1 08be 2372 50bc 188f 0a3e 6948 ce39
00000230: b6b0 b982 9a4d 803d 8ee5 28be 76b2 b182
00000240: 3c8b d102 2810 9d3d ba41 efbd b3cb d13d
00000250: aa93 ba82 a95f 0a3e 519c 0c3d bebf c5bc
00000260: 8417 133d 31a9 0b3e eff5 0c3e 9429 c582
00000270: acd5 013d 8713 b682 dd41 cd82 3b04 42bd
00000280: b974 803c e8a2 1abd 827f b582 3768 b882
00000290: fe59 d53d 59a2 d4bc e7ed 9e3d fc52 79bd
000002a0: eed5 063d a32d a782 61a3 b93c 07e5 cfbd
000002b0: d5c0 f7b9 63d2 aabd decc f73d 8144 29bd
000002c0: 6558 90bd b49a 263d 86a0 d63d d04a e6bd
000002d0: 8f19 ba82 d41c 1abd a9d1 d4bd 040b ef3c
000002e0: 9483 ba82 b6df 543d a96a 50bd d18b 1dbe
000002f0: 8963 c282 4020 cf82 cc8f 1e3d 1549 eebc
00000300: 0c27 d7bb 8f10 8bbd b17f 913d 4a6d 1b3d
00000310: 976d dbbd b808 833d 0044 8fbc 0241 c582
00000320: a21b cdbc b0a0 af3d f2db 36be d995 c33d
00000330: a9a0 c13d cbe3 3abd c656 233c 817e 653c
00000340: f3fc b982 7682 2a3d 145d 0d3e 6d59 29bc
00000350: 1b8f fb3d 8cc3 ad3b f8b5 2ebd 07e2 62bc
00000360: 6cd1 b83c 5a01 98bd eaff ba82 d7c9 03be
00000370: 7d39 ca82 cfdd b982 c38c 0c3c 0d9b 5182
00000380: 11ae 04be 9bb1 45bd d252 4b3c bf78 a6bd
00000390: f93e 0a3e 1d95 f1bd b451 b382 b6f2 463c
000003a0: 428c b2bd bd86 453d 9b8b a5bd 4a03 8bbd
000003b0: cc77 d2bc 9d06 c13d 78b3 e03c cf32 883d
000003c0: 57b8 163e 8ac2 603d b1b5 f33c b346 8b3d
000003d0: aeab b482 9efa c23d 5719 0dbe 9820 6ebc
000003e0: 795d 1f3e 1442 bc3d 15eb 08bb 3e63 cd82
000003f0: 7c12 b682 10cd ac82 9856 adbd 4d5f cb82
-3.0409674e-37 -0.07009994 -1.984053e-37 0.017930008 -2.8654733e-37 0.06146363 0.13226114 0.064753905
-0.14499027 0.06891408 -2.637939e-37 0.1186857 -0.11361767 0.086638615 -0.039396584 0.021598201
0.11099301 5.909574e-38 -0.042951066 -0.027496347 -2.7827971e-37 0.062010143 0.10364529 -0.05008632
-0.017173178 -0.10212077 0.080376126 0.08379747 -2.8735201e-37 0.09508788 -0.05070853 -0.05092602
-0.17929415 0.13376158 0.024168542 -0.20181754 -0.10168229 0.030836308 -0.08263262 -0.13146465
-0.02895112 -2.6861407e-37 0.016498573 0.09179025 -1.1287838e-37 0.00044737363 -0.049316905 -0.0033749517
-3.0710922e-37 -2.8280324e-37 0.060484406 0.10134259 0.062521294 -2.9002423e-37 -0.0595289 -2.8034592e-37
-0.007846892 0.10616791 -0.11272789 -0.11574268 -0.13893045 -0.014354108 0.11586849 0.096217796
0.011237247 -0.088915974 -0.033773832 0.014616498 0.005855956 0.063048564 -1.181509e-37 -0.052398454
-2.7715477e-37 -0.05166128 0.13816223 -0.034652244 -2.8131755e-37 -0.0509738 -0.04291582 -0.07739016
0.0025368258 -0.06904095 -0.045843557 -0.0219966 1.7430782e-38 -2.9562566e-37 0.14017075 -2.7151516e-37
0.018936137 -0.040862057 0.08157924 1.3251734e-37 0.04621994 -0.12937447 -0.056459535 -0.09839549
0.115980975 -0.13669877 -0.048698943 -0.011480964 2.2154289e-37 0.016990626 0.0015075149 -2.7221283e-37
0.096406855 0.08945737 -0.053726032 0.09561466 0.089283794 -2.706625e-37 -0.09988989 -2.8862336e-37
0.06442745 0.1138446 0.03696226 0.068550795 0.10413758 0.029800883 -2.8051915e-37 -2.704736e-37
-2.6819045e-37 0.016975125 -0.018406328 -0.13939133 -2.5734129e-37 0.0801817 -0.03840318 -2.7898348e-37
-2.8401168e-37 -0.05241015 0.056253213 -2.8875367e-37 -2.8303314e-37 -0.0071187853 0.04278668 0.04998086
-0.13367182 -0.012722525 0.13531148 0.00039345332 -2.7284734e-37 0.06264801 -0.16493818 -2.6110244e-37
3.0789707e-37 0.07669097 -0.11682458 0.10243931 -2.7414999e-37 0.13513054 0.034328762 -0.024139281
0.035911098 0.1363876 0.13765691 -2.8970413e-37 0.031697914 -2.6753705e-37 -3.0159846e-37 -0.047367316
0.015680658 -0.037753016 -2.6668746e-37 -2.7096186e-37 0.10417555 -0.02595632 0.0776022 -0.060870156
0.032918863 -2.4564639e-37 0.022660913 -0.101511054 -0.00047255182 -0.08340909 0.12099622 -0.041325096
-0.0704811 0.04067488 0.10479836 -0.11244738 -2.7344914e-37 -0.03762515 -0.10391552 0.029180057
-2.7405766e-37 0.05197116 -0.05088297 -0.15385367 -2.8562868e-37 -3.0434427e-37 0.038711354 -0.029087583
-0.006565934 -0.06790268 0.07104433 0.037946023 -0.10714262 0.06398147 -0.01748848 -2.898386e-37
-0.02503759 0.085755706 -0.1785734 0.095500655 0.094544716 -0.045627397 0.009969419 0.014007212
-2.7328493e-37 0.041628323 0.13805038 -0.010336262 0.122831546 0.005302852 -0.042654008 -0.013847834
0.022560798 -0.07422133 -2.7477131e-37 -0.12869965 -2.971423e-37 -2.7310619e-37 0.008578482 -1.5399392e-37
-0.12957026 -0.04826508 0.012409883 -0.08128499 0.13500585 -0.11796019 -2.6348581e-37 0.012142828
-0.08718158 0.0482242 -0.08083268 -0.06787737 -0.02569189 0.094250895 0.027429327 0.06650316
0.14718758 0.054873027 0.029749723 0.06800594 -2.6547162e-37 0.09520458 -0.13779198 -0.014534138
0.15563 0.09192291 -0.0020892073 -3.0179005e-37 -2.6753106e-37 -2.5390829e-37 -0.08463782 -2.988287e-37

net.3.weight f4 [128, 256]
00000000: 8879 d202 0424 503e 1e20 d582 d90d c2bd
00000010: 5cad c602 771a 853d 53a5 cbbc e1ab 55be
00000020: 836d 653d cba5 88be f8eb b082 bd92 88be
00000030: 7edf 3b3d fdb5 d93d c1b9 c43d 0102 3ebe
00000040: c791 b5be f108 7482 83c9 65be ff65 3cbf
00000050: 60e6 c682 63a5 69be d1a2 7dbe 0672 c9bd
00000060: 7104 c2bd 5c69 84be 49ff 5ebe d21d 68be
00000070: 958f c402 c4b4 773d 70a8 14be e88a 283b
00000080: a63e d33d a3c1 fb3e e24a 9e3e e7fb 433e
00000090: 39f4 153d b736 12be 6476 4d3e a7b8 2b3e
000000a0: 4705 763e c4a6 c402 8ba9 d0be e940 cc3c
000000b0: d5fc b302 1377 6ebe 0fcf 8a3e bdcc d23c
000000c0: df7b c902 b4be c282 b6d0 75be 65be ca3d
000000d0: a7ea 763d 569c c782 eb36 12be e06b c902
000000e0: dccf 32be ba9e 62bd 19b7 6e3d 71ed 9c3d
000000f0: c7c7 3a3e 8401 2c3d ceca 603d 8995 c63c
00000100: 9c0f b5be 7edb 153e 7adf 4f3d da32 ecbe
00000110: 0eda 013e d801 ddbe e89f 3f02 ba7e 2fbe
00000120: 2c3f 0583 a8b3 a03e d442 ab3c 02ef d2be
00000130: 4f69 b602 cb7e a53e 19ff 3f3e 3107 06bf
00000140: 948e 50be 8a81 d7be 0562 433e bad4 9abd
00000150: 8831 5281 c995 bd02 0b35 4bbe 6d39 b782
00000160: 6608 4bbe d6ca 5c3e 902d 713e 17a4 9c02
00000170: f653 2b3d c823 02be 68b5 babb 83ea 23bf
00000180: 214b 19bf cd6d 56bd 6188 d4be 83dc 123d
00000190: de4a bd82 4519 813e a0c5 003e f7e5 c702
000001a0: ec32 a43c eeb0 a33d 676d c3bc 7c62 743d
000001b0: 5eea 97be ce23 d282 3ca7 9a3e 92e4 be02
000001c0: a137 7e3d 98bc c0bd 20d7 b0bd fa47 a43c
000001d0: a229 95bd 3efe 1b3e 840d ca82 21dd c782
000001e0: e17a bf82 d56a d8bb bf06 a8bd b121 d5be
000001f0: ec0c 2103 d21e 07bd ffa5 d33d 612d d382
00000200: dcb5 ca82 ec2f e4ba 0b5a c9bc 1cbe c902
00000210: 2852 8802 8d67 10bd fae4 853d ab86 0ebf
00000220: 044b 163e d3cd 123e ffa5 f3bd 7e57 25be
00000230: d130 8902 ddf9 b63d 0f7f ffbd cb6a 8382
00000240: 4c4b 4880 e6d7 e9be 50d1 c73d 0918 3abf
00000250: 38bb b002 5d60 0fbf b1f1 813e aebd 08bf
00000260: d4dc 3e3e 66b5 aabe 7938 6a3c 40a0 a402
00000270: 8a8c 0c3e 1fad b502 e2dc 9c02 3dd8 f0be
00000280: 0d8f eb3e cb9f 0cbe dc5c ce82 5029 ac82
00000290: 4f31 21be 39ef e7be 3251 643c 39ab 073e
000002a0: 2221 a73d 72aa 6003 a037 323c e065 e23d
000002b0: e6dd 933d 20cb 7abe 026b d8be a72a 89bd
000002c0: 0b6b 9e3e 4f4f 56bd df19 b03e d742 02bf
000002d0: df14 e882 a0f9 7abe ab5b fd3d a7d8 a5be
000002e0: a04f c382 086b a73c ab31 fe3a a210 cabd
000002f0: 512c cd82 b486 be82 ce9b 0a3e e6b9 0ebf
00000300: ca23 223e 56ed 423e 7dd9 6bbe 8699 e43d
00000310: 4d0b 4f3e 047e 133e 957a c4be ab63 ac82
00000320: 8292 03be 250d bdbe d300 a43e 1ddb 1f3e
00000330: a758 5d3c 56ab a3bc f3f5 063e ee73 2ebf
00000340: eedf 2c82 179b c03d a9a6 30be d8ec 5fbe
00000350: 7bc7 1b3e 043b 4f3c 8098 0a3d 7b83 213e
00000360: e689 6d3e 04b6 c63d 889e ce02 813c ec3d
00000370: a48b b802 bea2 be82 aafc babb d687 b202
00000380: 6fb6 18bd 40b4 8abe f5f2 0e3e d617 28bf
00000390: 4cd3 51bf 1968 4abe 897f ae82 9b07 ef3c
000003a0: acb7 f0be 7969 0f3e a806 f53e d104 a5be
000003b0: f4bb 8fbe 7c7a 533e 0886 97be 33fc a5be
000003c0: 9b93 23be 8a87 45be ba5e e9bd cd84 56bf
000003d0: 625b c702 08fb 9dbe b33a f9bd d714 d3bb
000003e0: bc1d b3be 0074 f03e 3162 d7be d597 4d83
000003f0: af43 5503 6458 0a03 2274 c0bc 9eea b402
3.0926482e-37 0.20326239 -3.1315971e-37 -0.094752975 2.9192989e-37 0.064991884 -0.024859106 -0.20866348
0.05601264 -0.2668899 -2.5996315e-37 -0.26674452 0.045867436 0.10630415 0.09605742 -0.18555452
-0.35462782 -1.7928855e-37 -0.22440152 -0.73593134 -2.9225714e-37 -0.22816996 -0.24769141 -0.09836201
-0.094735034 -0.25861633 -0.21777071 -0.22667626 2.8882024e-37 0.060475126 -0.14517379 0.002571756
0.103146836 0.4917117 0.30916506 0.19139062 0.036609862 -0.14278685 0.20064694 0.16769658
0.2402545 2.889533e-37 -0.4075435 0.024933295 2.6446805e-37 -0.2328761 0.27111098 0.025732392
2.9605394e-37 -2.8615196e-37 -0.24005398 0.09899596 0.060282376 -2.9330154e-37 -0.14278762 2.9596213e-37
-0.17462105 -0.055327155 0.058280084 0.07662476 0.18240272 0.041993633 0.05488091 0.024241226
-0.35363472 0.14634511 0.050750233 -0.46132547 0.12680838 -0.4316547 1.4078355e-37 -0.17138186
-3.9157705e-37 0.31387067 0.02090589 -0.41197973 2.680294e-37 0.32323298 0.18749656 -0.52354723
-0.20366889 -0.42091018 0.1908036 -0.075601056 -3.8606445e-38 2.7857027e-37 -0.19844453 -2.6922394e-37
-0.19827422 0.21561751 0.23552537 2.3016323e-37 0.04182812 -0.12708962 -0.005697895 -0.6402971
-0.5988026 -0.052350808 -0.415103 0.035854828 -2.7814026e-37 0.25214592 0.12575388 2.9372415e-37
0.020043813 0.07992731 -0.023855878 0.059664235 -0.29670995 -3.0877278e-37 0.30205715 2.8049184e-37
0.06206477 -0.094109714 -0.08634782 0.020053852 -0.072833315 0.15233704 -2.968899e-37 -2.9367344e-37
-2.8135457e-37 -0.0066045322 -0.08204412 -0.41627267 4.732848e-37 -0.032988377 0.103343956 -3.102971e-37
-2.9785615e-37 -0.0017409301 -0.024579069 2.9643413e-37 2.003056e-37 -0.035255004 0.065378144 -0.55674237
0.14677054 0.14336328 -0.118968956 -0.16146657 2.015836e-37 0.089343764 -0.124754064 -1.9310016e-37
-6.639167e-39 -0.4567253 0.0975672 -0.72692925 2.5968334e-37 -0.56006414 0.25379708 -0.5341443
0.18638927 -0.3334152 0.014295691 2.4189613e-37 0.13725486 2.6694926e-37 2.304892e-37 -0.47039977
0.46007577 -0.13732831 -3.0322278e-37 -2.529684e-37 -0.15741466 -0.452997 0.013935374 0.1324891
0.081606165 6.6023345e-37 0.01087752 0.11054587 0.07220058 -0.24491549 -0.4226914 -0.066975884
0.30941042 -0.05232173 0.34394738 -0.5088324 -3.4101316e-37 -0.24509287 0.12371 -0.32391855
-2.8698377e-37 0.020436779 0.0019393464 -0.09866454 -3.014748e-37 -2.7995307e-37 0.13535997 -0.5575241
0.15833965 0.19035849 -0.23032184 0.11162095 0.20219155 0.1440354 -0.38374773 -2.5330335e-37
-0.12848857 -0.3692409 0.3203188 0.15610929 0.013509906 -0.01997916 0.1317976 -0.68145645
-1.2700829e-37 0.09404581 -0.17251076 -0.21867692 0.15212815 0.012648348 0.03383684 0.15772812
0.23197135 0.097026855 3.0359972e-37 0.11534978 2.711652e-37 -2.80114e-37 -0.0057063894 2.6232715e-37
-0.037283357 -0.27090645 0.13959868 -0.6566137 -0.8196304 -0.19766273 -2.5640204e-37 0.029178431
-0.4701513 0.14005078 0.4785664 -0.32230237 -0.28073084 0.20652193 -0.29594445 -0.32418975
-0.15974276 -0.19289985 -0.11395021 -0.8379639 2.9292873e-37 -0.30855584 -0.12169399 -0.0064416933
-0.34983623 0.469635 -0.42067102 -6.041838e-37 6.267277e-37 4.0656023e-37 -0.023492876 2.6583287e-37

net.3.bias f4 [128]
00000000: 5f56 c53c 8927 133d e2eb 78bd 85c4 733c
00000010: ad0f 5e3d cd83 5a3d 8734 1e3d 094e 9c3d
00000020: c2a6 46bc 35d0 913c 5390 863d 7ba9 123d
00000030: 5803 f83c 0f2f 603c 15c7 623d 600c 73bb
00000040: 8b4c 823c 0a08 903d f1a9 d93c a01f 563d
00000050: 12ca 623d aa67 c03d a732 f23c 1582 3e3d
00000060: 3801 a53d b76a 93bd 6113 dabc 8fed 3e3d
00000070: a543 ae3d 7b5d fb3c 285a 6c3d b69b 883c
00000080: cfb6 323c d0f1 c03c a603 bcbc 2d8a 1d3d
00000090: 1633 5d3d 43b8 233d 62ca d23d da43 61bc
000000a0: 9072 833c 2e11 933d 271b c33c edce 3dbd
000000b0: 6afb 3cbc 387c 903d 05be 733c c60f b882
000000c0: 4d33 dabc f889 8f3d 5e29 fc82 3e68 6fbd
000000d0: e1bb 953d f076 16bc f940 643d 89e8 983d
000000e0: 0887 823c ddf2 32bd 71b4 3c3d ff5e 9e3d
000000f0: 004d ccbc 6abe 23bc aa6d 183d e022 963d
00000100: 4afe 863c e880 193d 0ca5 bb3c b4ea b33b
00000110: 81fc 2f3c b4d4 7ebc db93 183d 9d45 b782
00000120: 4890 bd3d 095d 13bc 18e5 0b3d c386 983d
00000130: 927c 743c 3c3b 0f3e f12d d53c 1867 3c3d
00000140: af7a 98bd 1514 c2bc 24d0 9bbc 18c7 6e3c
00000150: 8157 b63c 567e 2ebd 862e 50bc b9cc 503d
00000160: b9cf debc c4d0 713d 4db8 673c ad5e 8fbb
00000170: fc9b ae3d f699 aa3d 82c0 693d 0236 3f3d
00000180: 893b b3bc bdab 95bb 88d1 fdbb 7539 463d
00000190: 745f 4c3d 0287 253d e989 c53c 93d7 c33c
000001a0: e649 913d 8469 d23d e98c b0bd d84a 6a3d
000001b0: 80f9 6e3d 0741 893d 03af 463d 6443 bd3d
000001c0: 8050 083d b7f7 e0bc a3ff 5abc a09a 883d
000001d0: 70a1 583d 9432 e6bb 7553 c63b fbb2 54bd
000001e0: 1e9c 0f3c ee9e 23bd 025e 5b3d fd81 cebc
000001f0: a2e3 bfbc 5aed 9a3c 131c 8b3c 98e8 afbc
0.024089037 0.035926376 -0.06077183 0.014878397 0.05421417 0.05334835 0.038624313 0.076320715
-0.012124719 0.017799476 0.065704964 0.03580616 0.030275032 0.013683095 0.05536564 -0.0037086233
0.01590564 0.07032783 0.026570292 0.052276254 0.05536849 0.09394772 0.029565169 0.046510775
0.08056873 -0.071980886 -0.026620569 0.046613272 0.08508996 0.030684223 0.057703167 0.016675811
0.010907843 0.023552805 -0.022950958 0.038461853 0.054003797 0.039970648 0.10292508 -0.013749087
0.016045839 0.07181011 0.023816658 -0.046339918 -0.011534551 0.07054943 0.014876847 -2.7045424e-37
-0.02663579 0.07008737 -3.7051816e-37 -0.058449022 0.07311226 -0.00918363 0.055726025 0.074662276
0.015933529 -0.043688644 0.04607052 0.07732963 -0.02493906 -0.009994129 0.03721396 0.07330871
0.016478676 0.03747645 0.022905849 0.0054906253 0.010741354 -0.015553642 0.03725038 -2.692939e-37
0.09256035 -0.008994349 0.034154028 0.07447579 0.014922278 0.1398744 0.026022883 0.045996755
-0.07445275 -0.023691216 -0.019020148 0.014573835 0.022258522 -0.042600952 -0.012706405 0.05097649
-0.02719866 0.059036985 0.014143062 -0.0043753 0.085258454 0.08330147 0.057068355 0.046682365
-0.021878975 -0.004567592 -0.0077459253 0.04839464 0.04989572 0.040411957 0.024113612 0.023906505
0.07094173 0.10274032 -0.086206265 0.057200283 0.05834341 0.06701856 0.048506748 0.09241369
0.033279896 -0.02746187 -0.013366613 0.066701174 0.052888334 -0.0070250724 0.0060524293 -0.0519285
0.008765249 -0.03994649 0.05355645 -0.025208468 -0.023423973 0.018912006 0.01698116 -0.021473214

net.6.weight f4 [5, 128]
00000000: 88dc 983f 5e7f d83e 2f3e f1bf c8d0 9c3d
00000010: 1c09 8b3e e9a5 40bf 842f 513d 634b da3e
00000020: cc38 873e 4cbb 1c3d dd7c 2a3e 3d3c a63e
00000030: bcf5 113e fbcf dd3e a28f 45bf 250d 233e
00000040: 4938 ce3d 6097 11bf 661e b2bf 19fe 253d
00000050: f33d 82bf 4ea9 4a3e b985 9b3e 46ae cd3e
00000060: d024 29be 7558 fbbd f96d 3d3e 1034 3f3e
00000070: 8aab c2be 608b 823d 755d 8c3e 88f9 4d3e
00000080: 1d73 1d3e 00ce 053f 9615 2cbd a6cd b1bf
00000090: 8c93 853d 39e9 5b3e a405 043f 3a05 8abf
000000a0: 8f2d cabe 7445 633d 7b3a 033f 8883 f3bf
000000b0: a9bb 08bf c458 aabd e746 3ebe 3c64 d182
000000c0: 0189 b63d a433 2e3e 7600 b182 b554 32bf
000000d0: f934 32bf ccc6 333d 1efb 613e 238b 21be
000000e0: 7ff0 02be b9d9 b0bf 2a8f 283e 97a1 0f3e
000000f0: 8864 0d3f 1499 da3d 5b78 35be c1a8 5b3e
00000100: 5d56 8d3e 6781 1b3f 29db f93e fdf5 d43e
00000110: f35a 01bf 6278 aa3e b5c4 0e3e 2453 c482
00000120: d4e4 823e d6bc adbd f9db e33e 1f8c 28be
00000130: dd90 133f 457d 793f 78c1 de3e 2e70 2b3e
00000140: c50c 2fbf edc0 61bf b104 5bbe d265 133e
00000150: f059 013c 5826 9d3e 4196 70be 9fe0 7fbf
00000160: 7949 c2bf cf4a b5bf 35a9 abbf 53d4 e0bf
00000170: c005 6c3e 046a f73e bd91 4b3e 8974 27bd
00000180: 21b1 993e 682a 713e 4fa6 e7bd 3043 0f3e
00000190: f67a 41bf 1a74 263e cc18 babf 8070 793e
000001a0: 89f5 a1bf 4440 abbf 1b87 10bf f56c b1bf
000001b0: 0687 1c3f 1904 a53e 0d99 183e a5e5 29bf
000001c0: 547b cbbf 673e 553d 3c08 643e 0eda c83d
000001d0: e9c1 d03d 09cc 49be 3fb6 5d3b 057c d9be
000001e0: 38bc 163d 9628 81bf a03b 893d 16b7 8cbe
000001f0: c5a2 05bf 0676 153f 79bb bbbf 70cc a13f
00000200: 2229 113f a359 f83e a02a 6e3e 7c2a b5bf
00000210: 93e9 90bf d58d db3e 64c4 8d3e d9a2 43be
00000220: cb53 b1bd 94a2 573e 00ab 9a3d 99b4 a2bf
00000230: 46c1 a43d 554a 073e 1f3a 2ebf 2b76 5c3d
00000240: b56b bbbf b4ef ec3e 88a2 813e a794 a43e
00000250: c7e3 a33e 656a 313e d036 13bf bb02 93bf
00000260: af5a 5dbf dbc1 e5be e074 843e 3e79 313e
00000270: d88d 34bf fbb5 68bf 19c5 4bbf 4ffa 10be
00000280: 8022 2ebf a373 c13e 7287 20bf a15f 523e
00000290: ea8f 793d d9aa 853e 3eaa cdbe b629 243e
000002a0: ef39 e33c 6a6a d73d 9c22 10bf 3821 ba3d
000002b0: ef8b 563f 52df b13e 1493 943d bf49 b982
000002c0: 0c8d a9bf 2f25 633e b0af 5682 1518 bb3e
000002d0: 3560 e23e b8f6 a2bf f7a8 a1be b28f b7bf
000002e0: 494a adbf 9046 263e 561f 84bf 6fd2 0a3e
000002f0: eb64 2fbf 5b10 03bf ff79 913e e0d6 fcbf
00000300: e447 70bf 5bf0 3f3e 7436 723e e430 33bf
00000310: 0fcc e13d 4a9d 1fbf cb43 f03d fa0e b802
00000320: 61fd a2bf 0a9d 9e3e 25dd 03bf d400 d33e
00000330: 845a 29be d6f3 053f 748b dabe 2ca5 44bf
00000340: 4fb2 923e d9d8 b0bf fedb b7bf d6f5 0bbc
00000350: 0586 8dbf 3028 adbf f28c 8cbf ad88 933e
00000360: 1094 4e3e cde0 393e 0e64 8d3d 843e e93e
00000370: 0ef9 eb3c 5104 27bf a953 da3e 8466 1e3e
00000380: 9e2c ea3e 2857 52bc 8859 013e d9de 68bf
00000390: 79e6 953e 36c8 0b3f 7517 f83d 50dd 22bf
000003a0: 8d9e 9e3e f458 bcbe 1897 b8be 54bf 473e
000003b0: 72ec 003f fab2 e8bf a926 cfbf fa0b 033d
000003c0: fa29 893e 8c9b d53e 165d 613d 3dd2 c83d
000003d0: 8f34 bd3d d71e ec3e c986 393e 2d91 5e3e
000003e0: bdbb 0d3f 61d1 7a3e 3816 363f fc07 4c3e
000003f0: 4afb 15bf c326 693e e250 633e 06b0 553e
1.1942301 0.42284673 -1.8847102 0.07657009 0.27155387 -0.7525316 0.051070705 0.4263564
0.2641052 0.038264558 0.16649194 0.32467833 0.14253896 0.4332274 -0.7717229 0.15922983
0.10069329 -0.56871605 -1.3915527 0.04052553 -1.0175155 0.19791147 0.3037546 0.40172023
-0.16517949 -0.12272731 0.18498982 0.18672204 -0.380215 0.0637424 0.27415052 0.2011472
0.15375943 0.52267456 -0.042012773 -1.3890884 0.06522283 0.21475686 0.51571107 -1.0782845
-0.39487883 0.055486158 0.5126111 -1.9024515 -0.53411347 -0.08317712 -0.18581735 -3.0767322e-37
0.0891285 0.17011887 -2.6008077e-37 -0.696605 -0.6961208 0.04389076 0.2206845 -0.15775733
-0.12787054 -1.3816444 0.16460863 0.14026485 0.55231524 0.106737286 -0.17721693 0.21451093
0.27604952 0.6074433 0.48800018 0.41593924 -0.505294 0.3329497 0.13942225 -2.8847332e-37
0.25565207 -0.08483283 0.44503763 -0.16459702 0.5764292 0.9745677 0.4350698 0.16742012
-0.6837886 -0.88185006 -0.21388508 0.1439431 0.007894978 0.30693316 -0.23494817 -0.9995212
-1.5178672 -1.4163455 -1.3411013 -1.7564796 0.23049068 0.4832307 0.19879813 -0.04088262
0.3001795 0.23551333 -0.11311018 0.13990474 -0.7557825 0.16255227 -1.4538817 0.24359322
-1.2653056 -1.3378987 -0.56456155 -1.3861376 0.6114353 0.3222969 0.14902134 -0.66366035
-1.5897012 0.052061465 0.22268766 0.09807216 0.101932354 -0.1970674 0.003383055 -0.42477432
0.036800593 -1.0090511 0.06700826 -0.27483433 -0.5220149 0.58383214 -1.4666587 1.2640514
0.5670339 0.48505887 0.23258448 -1.415359 -1.1321281 0.42881647 0.27688897 -0.1910509
-0.0865856 0.21058112 0.07552147 -1.2711364 0.080446765 0.13211949 -0.68057436 0.05382363
-1.4642245 0.4627663 0.25319314 0.32144663 0.32009718 0.17325743 -0.5750551 -1.1485208
-0.864665 -0.44874462 0.2587042 0.17331406 -0.70528936 -0.9090268 -0.7959762 -0.14157985
-0.6802139 0.37783536 -0.62706673 0.20544292 0.060928263 0.2610691 -0.40168947 0.16031536
0.027737586 0.10518344 -0.5630281 0.09088367 0.8380727 0.34740692 0.072546154 -2.7225635e-37
-1.3246169 0.22182153 -1.5772657e-37 0.3654181 0.44214025 -1.2731543 -0.31574222 -1.4340727
-1.3538295 0.16237855 -1.0322063 0.13556837 -0.68513364 -0.5119683 0.28413388 -1.9753075
-0.93859696 0.18744032 0.23653585 -0.69996476 0.11025249 -0.6234938 0.117316805 2.7044966e-37
-1.2733575 0.30979186 -0.51509315 0.4121157 -0.16538435 0.5232519 -0.4268452 -0.7681453
0.28651664 -1.3816177 -1.4364011 -0.008542499 -1.1056525 -1.3527889 -1.0980513 0.28815213
0.20173669 0.18152161 0.069038495 0.45555508 0.028805282 -0.6524096 0.42641953 0.15468794
0.45737165 -0.0128381625 0.1263181 -0.9096504 0.292774 0.5460237 0.12113849 -0.63618946
0.3098034 -0.36786616 -0.36052775 0.1950658 0.50360787 -1.8179619 -1.6183673 0.031993844
0.26789838 0.41720235 0.055020414 0.09805725 0.092385404 0.4611728 0.18117823 0.21735068
0.5536459 0.24493934 0.71127653 0.19924921 -0.5858656 0.22768693 0.22198823 0.20867929

net.6.bias f4 [5]
00000000: 0958 dd3d 3cf7 843d 0b51 b9bc dc28 e9bd
00000010: e1f0 c3bd
0.10807807 0.06492469 -0.022621652 -0.113847464 -0.095674284
