spatial_mlp_hand_posture.pt (torch, 72699 bytes, 8 tensors)

joint_mlp.0.weight f4 [64, 3]
-0.36147696 -0.33825594 -0.37746024 -0.19140169 -0.62608063 5.6136584 -0.39988807 0.062181994
-0.2810079 1.3066978 -0.5883528 0.15448269 1.0417407 -0.48107976 -1.9132967 -0.16380115
0.4658709 0.27447808 1.1440225 0.4818716 -0.6357383 0.7874335 0.36962247 -2.6480856
0.80142397 0.40961033 2.3999624 0.22495173 -0.10959452 2.4061165 0.8626416 -0.74595183
0.052825574 0.09145495 -0.042392742 0.54242444 -0.89912295 0.8263553 1.8586876 -0.46464238
0.60988665 -0.25032803 -0.17267464 0.48410678 4.6737127 0.18662864 -0.4030372 0.38846558
-1.420189 0.42239615 -3.3273218 -1.0240228 -0.5118049 2.5429873 -1.3944554 0.4931618
1.242249 0.6501613 0.8918687 3.6813686 -1.112025 -0.50785524 1.5295687 -0.27820945
-0.31136635 -0.30021173 -1.0001103 0.44276804 1.9511905 -0.4597916 0.3353144 -0.00560515
0.22944391 -0.8799172 1.8485703 -0.56752104 1.2428478 1.8377619 0.2890315 -0.018526321
-0.24560216 -0.7722753 0.14977098 -0.11043161 -0.62067425 0.30857253 0.32267982 -0.6548784
0.30148283 0.4099527 -1.1675892 0.95206463 1.1706632 0.9269844 -0.31865162 -1.3766446
0.6799745 -1.00131 -2.24359 -0.7359592 0.35459584 0.34143737 0.28843558 0.374463
3.5518925 0.21973619 -0.078866675 0.1246854 0.10120019 -0.8587745 -4.010041 -0.25934452
-0.24806009 0.08743483 -1.084234 0.91841143 -2.0059383 -0.23358667 0.7193948 -3.7074642
-0.42001635 -0.2917834 2.5045412 0.44723305 -0.03504968 3.5121193 0.16864248 -0.3222886
-0.18432526 0.18771815 -0.77025616 1.4671928 -0.116451666 0.30393046 2.8840134 -0.098264255
-0.43952525 0.0879866 -0.5431083 0.047593117 0.472879 -1.5537382 -0.90433985 5.7586293
-0.4462861 -0.5343804 -0.57069016 -0.4367498 -0.028914288 0.5503039 0.44129485 -0.17808215
2.9311182 -0.27375117 0.9662876 -0.2623221 -0.78930336 -0.3209025 3.251662 -0.9504835
0.04418269 4.533797 0.12322714 0.076070614 2.2907202 0.4033838 -0.5659989 0.0069704414
-0.6251663 0.15700892 -0.6000447 -1.0620419 0.7505282 2.9784853 0.21020874 -0.103530094
0.17469953 -0.019109493 0.36667883 5.0297956 0.05748424 -0.53048724 -0.21680251 -1.174716
-1.1006227 1.1454893 -0.16318707 -0.079157256 5.0639553 -1.6525512 -0.38289693 -5.332602
00000000: 8213 b9be e22f adbe 7842 c1be cefe 43be
00000010: d246 20bf 17a3 b340 21be ccbe 8cb2 7e3d
00000020: 44e0 8fbe e041 a73f 4a9e 16bf b630 1e3e
00000030: c257 853f 1650 f6be e8e6 f4bf 7dbb 27be
00000040: a186 ee3e 6488 8c3e 546f 923f e0b7 f63e
00000050: bfbf 22bf 3e95 493f 283f bd3e 3c7a 29c0
00000060: 1f2a 4d3f 72b8 d13e fc98 1940 bf59 663e
00000070: 1773 e0bd d0fd 1940 14d6 5c3f b3f6 3ebf
00000080: a15f 583d bc4c bb3d 03a4 2dbd 54dc 0a3f
00000090: ec2c 66bf 058c 533f 7ae9 ed3f 9be5 edbe
000000a0: 8821 1c3f ff2a 80be 9fd1 30be d8dc f73e
000000b0: 0e8f 9540 941b 3f3e e45a cebe f6e4 c63e
000000c0: c1c8 b5bf 4f44 d83e d7f2 54c0 2e13 83bf
000000d0: a505 03bf 4ec0 2240 847d b2bf b47f fc3e
000000e0: 0402 9f3f f970 263f 8251 643f 8b9b 6b40
000000f0: d656 8ebf cd02 02bf e8c8 c33f 7871 8ebe
00000100: 696b 9fbe 5ab5 99be 9d03 80bf 7eb2 e23e
00000110: 9cc0 f93f ce69 ebbe 54ae ab3e 68ab b7bb
00000120: 58f3 6a3e 4142 61bf f49d ec3f 0f49 11bf
00000130: a315 9f3f c83b eb3f f0fb 933e 83c4 97bc
00000140: 227f 7bbe d6b3 45bf 905d 193e f829 e2bd
00000150: 82e4 1ebf 38fd 9d3e 4a36 a53e 1ca6 27bf
00000160: f55b 9a3e 52e5 d13e 9073 95bf 82ba 733f
00000170: 4bd8 953f da4e 6d3f 4e26 a3be e435 b0bf
00000180: cf12 2e3f ed2a 80bf fb96 0fc0 d267 3cbf
00000190: 968d b53e e1d0 ae3e d4ad 933e 9db9 bf3e
000001a0: 3552 6340 8602 613e da84 a1bd 0f5b ff3d
000001b0: 0c42 cf3d a5d8 5bbf 4252 80c0 cec8 84be
000001c0: 7703 7ebe 0811 b33d 2ec8 8abf 031d 6b3f
000001d0: 4b61 00c0 5831 6fbe 422a 383f 1847 6dc0
000001e0: 620c d7be a264 95be 674a 2040 bbfb e43e
000001f0: 4190 0fbd 90c6 6040 9db0 2c3e 0303 a5be
00000200: c3bf 3cbe 3039 403e 822f 45bf f9cc bb3f
00000210: 367e eebd c69c 9b3e ad93 3840 c53e c9bd
00000220: 7409 e1be 5232 b43d 2509 0bbf 00f1 423d
00000230: 321d f23e e5e0 c6bf d182 67bf b146 b840
00000240: 9d7f e4be 27cd 08bf c018 12bf ab9d dfbe
00000250: a8dd ecbc b7e0 0c3f 66f1 e13e 2b5b 36be
00000260: 7197 3b40 1d29 8cbe a05e 773f 154f 86be
00000270: c90f 4abf 554d a4be 3b1b 5040 e352 73bf
00000280: e9f8 343d dd14 9140 835e fc3d e9ca 9b3d
00000290: 299b 1240 5288 ce3e 4ee5 10bf 4d68 e43b
000002a0: e60a 20bf f2c6 203e 889c 19bf fdf0 87bf
000002b0: 9e22 403f 819f 3e40 f640 573e 9607 d4bd
000002c0: 6fe4 323e 838b 9cbc 54bd bb3e 16f4 a040
000002d0: 9874 6b3d 03ce 07bf 7a01 5ebe 185d 96bf
000002e0: 34e1 8cbf 659f 923f 831a 27be 331d a2bd
000002f0: ec0b a240 cc86 d3bf 110b c4be ada4 aac0

joint_mlp.0.bias f4 [64]
-0.1443726 0.66753083 -0.3430064 -0.39000002 -0.13305466 -0.5434371 -0.42366222 -0.28757912
-0.30562654 -0.0034550251 0.02614849 -0.11106123 -0.08818754 0.021363325 0.014111072 -0.42506108
0.42832217 0.7697631 0.4171664 -0.62630725 0.8063727 -0.35439667 0.34255993 -0.47780344
0.77016956 -0.01991616 -0.063282765 0.5354427 0.45743322 0.49306417 -0.091606885 -0.19409579
0.1565677 0.549377 -0.18493891 -0.47713438 0.37650254 -0.45962372 0.22496991 -0.16887155
0.55967516 -0.10236623 -0.53832096 0.670847 0.005307949 -0.52066123 -0.43275893 0.6754878
-0.48318648 -0.0884061 -0.0076246327 -0.059209578 0.6056065 0.56247574 -0.003621384 -0.47116503
0.39399123 -0.06755131 -0.43916768 0.096489936 -0.5035055 0.82296985 0.5572734 0.63166946
00000000: 69d6 13be 4de3 2a3f 899e afbe 15ae c7be
00000010: 7b3f 08be b21e 0bbf 41ea d8be 923d 93be
00000020: 157b 9cbe b46d 62bb 5c35 d63c 1274 e3bd
00000030: ab9b b4bd 2402 af3c 2032 673c 9ba1 d9be
00000040: 0b4d db3e 320f 453f d696 d53e ac55 20bf
00000050: 716e 4e3f 7b73 b5be 0464 af3e a7a2 f4be
00000060: d529 453f 3727 a3bc 659a 81bd c612 093f
00000070: b034 ea3e e872 fc3e 649c bbbd 0cc1 46be
00000080: 4853 203e f9a3 0c3f a060 3dbe f54a f4be
00000090: f1c4 c03e cd53 ebbe 835e 663e aaec 2cbe
000000a0: df46 0f3f 63a5 d1bd 67cf 09bf a1bc 2b3f
000000b0: 4eee ad3b 0e4a 05bf 9492 ddbe c5ec 2c3f
000000c0: 3864 f7be 420e b5bd 0ed8 f9bb be85 72bd
000000d0: 0709 1b3f 69fe 0f3f be54 6dbb 8b3c f1be
000000e0: 38b9 c93e 5758 8abd 96da e0be 849c c53d
000000f0: bde5 00bf 27ae 523f 78a9 0e3f 17b5 213f

joint_mlp.2.weight f4 [128, 64]
0.058111787 -3.0076923 -0.09394714 2.775071 -1.3934689 0.03253366 -0.028232753 0.01177962
-0.59671533 -0.2446724 -3.7690487 -0.16141862 -0.062853724 0.29299635 0.026912283 0.08132288
0.6080358 -1.5622582 0.42372143 -0.8392009 -1.4630532 0.05290751 0.5089159 0.11113083
0.6947819 0.18654384 0.111210465 0.21438842 0.23803578 0.28298998 -0.13729364 -1.5062594
-4.7196593 0.20130089 -1.4338431 -0.06442927 -6.0192304 -0.09382345 0.27257833 0.20859334
0.10490447 -1.1219856 0.11956987 0.5637045 -0.10125871 -0.08321135 -0.018983096 -1.6399848
0.0021104515 0.053824216 0.6992072 0.29929847 -1.7360674 -0.10207415 -0.24372938 0.02734086
0.27742967 0.10300213 0.04056236 -0.016276652 0.101585716 -1.9007823 0.0032037483 -0.5182612
-0.10066417 0.30115947 -0.027233422 0.3718847 0.18679361 -0.01361984 0.0125845885 0.05911581
0.27711484 0.028294588 0.43664426 0.09183537 0.024556609 -0.051888622 -0.3742321 0.064548805
-2.5429544 0.4808794 -1.2311864 0.55683523 0.98572594 0.092068896 -3.3995929 -0.09754397
0.29028675 -0.87991124 0.19850737 -0.3840375 -0.8242512 -0.90921926 -0.04552755 -0.062715314
0.26063877 -1.0245763 0.11277076 -0.07876423 0.13307874 -0.122332364 -5.4551077 -0.42675737
0.092320144 -0.07634507 0.05808869 0.13239242 -0.30949506 -0.110734746 -0.10888179 -10.530018
-0.0089729875 -0.115118936 -0.0099705765 0.015527567 0.14846306 -0.5803792 -0.015318679 -0.0354359
-0.0042913705 0.028698195 0.028317139 0.07418653 0.06325151 -1.3775412 0.22131488 -3.4062245
0.07012679 -0.13924679 0.046807185 0.051654592 -0.113047786 0.014200002 0.08181449 0.085161574
0.0015042496 -0.117817804 -0.077093504 -0.05504198 0.043848254 0.068916544 -0.03832692 -0.06596616
-0.12303812 -0.079507135 -0.1497514 -0.09952232 0.06937092 0.07871471 -0.14791803 -0.025325418
-0.020416979 -0.02519135 -0.107060924 -0.004608461 0.08988615 0.019190822 0.026669899 -0.11570846
-0.14405717 0.08078331 -0.09185758 0.062778935 -0.15263519 -0.12232241 -0.14246143 -0.12960823
0.06487938 0.069913425 -0.06462209 -0.024843056 -0.02754606 0.070816666 -0.09115201 0.04386558
0.031599805 -0.055444375 0.039047293 0.058221936 -0.051482454 -0.122687034 -0.06810142 -0.057254612
-0.03595213 0.06802786 0.02189532 -0.11991193 0.059930056 -0.08407221 0.028498016 0.003103573
-0.015775561 0.48763898 0.06225899 -3.4756293 -5.94066 -0.040887773 -9.240319 1.6448971
-5.53863 -0.29606196 -2.8068452 -1.0901778 -1.783097 -1.7593707 -0.18655486 -0.06313796
0.22714321 1.0107399 0.12830387 0.5048115 0.8619086 0.06872974 -0.28502804 0.08165622
0.055126213 -1.792444 -0.42281738 0.335744 -0.040053368 0.005299387 -1.0008261 -6.4602275
-3.0768332 0.06420034 -5.815038 0.049457252 -0.16467802 0.051932886 -0.3440515 0.04771912
0.3148759 0.3934591 0.04091181 -0.07663256 -0.88229674 0.036298603 0.12313977 1.6501021
-0.007151559 -0.014232218 -0.2728659 -1.6425607 0.9007369 0.33417043 -1.0532014 -0.055447742
0.20568627 -2.1723065 0.11454001 -0.07670393 0.049766913 1.1568054 0.11577003 1.0469095
00000000: a006 6e3d 087e 40c0 5c67 c0bd c39a 3140
00000010: 305d b2bf 0442 053d 6048 e7bc 4fff 403c
00000020: 56c2 18bf 678b 7abe 1838 71c0 ec4a 25be
00000030: 74b9 80bd 9e03 963e 2677 dc3c 9c8c a63d
00000040: 3ca8 1b3f 14f8 c7bf 04f2 d83e dfd5 56bf
00000050: 5445 bbbf 8cb5 583d 5048 023f 9098 e33d
00000060: 3add 313f 5905 3f3e 50c2 e33d a388 5b3e
00000070: a7bf 733e 10e4 903e b496 0cbe 1ccd c0bf
00000080: 7307 97c0 d221 4e3e 2c88 b7bf 7ef3 83bd
00000090: 899d c0c0 8226 c0bd 638f 8b3e 7e99 553e
000000a0: 28d8 d63d 399d 8fbf 0ce1 f43d f04e 103f
000000b0: ba60 cfbd b66a aabd 7082 9bbc 06eb d1bf
000000c0: 804f 0a3b c876 5c3d 3eff 323f a63d 993e
000000d0: 7537 debf 410c d1bd 3294 79be f0f9 df3c
000000e0: 430b 8e3e c8f2 d23d b824 263d 9d56 85bc
000000f0: 2c0c d03d d64c f3bf faf5 513b c4ac 04bf
00000100: 0429 cebd 9331 9a3e a018 dfbc ac67 be3e
00000110: d346 3f3e c025 5fbc 972f 4e3c 6b23 723d
00000120: ffe1 8d3e 0dca e73c d68f df3e 2f14 bc3d
00000130: f12a c93c 2a89 54bd 5a9b bfbe 2a32 843d
00000140: c4bf 22c0 d335 f63e 8497 9dbf c18c 0e3f
00000150: 8958 7c3f 9e8e bc3d ee92 59c0 22c5 c7bd
00000160: 77a0 943e dd41 61bf 8445 4b3e 90a0 c4be
00000170: 2002 53bf 98c2 68bf 197b 3abd e370 80bd
00000180: 7272 853e 5125 83bf 5bf4 e63d 244f a1bd
00000190: cb45 083e 6489 fabd 3e90 aec0 f17f dabe
000001a0: 5812 bd3d ce5a 9cbd 68ee 6d3d e191 073e
000001b0: 2376 9ebe e6c8 e2bd 6afd debd f47a 28c1
000001c0: 7003 13bc 7ac3 ebbd a15b 23bc 5667 7e3c
000001d0: b306 183e bb93 14bf 32fb 7abc 3c25 11bd
000001e0: a09e 8cbb 7a18 eb3c 58f9 e73c 1cef 973d
000001f0: 028a 813d 4553 b0bf 5ea0 623e 95ff 59c0
00000200: a29e 8f3d b696 0ebe e4b8 3f3d c493 533d
00000210: 9985 e7bd 20a7 683c 5b8e a73d 3169 ae3d
00000220: 3e2a c53a 764a f1bd 33e3 9dbd b373 61bd
00000230: 3a9a 333d 1e24 8d3d b0fc 1cbd 4419 87bd
00000240: 69fb fbbd a3d4 a2bd 6e58 19be 5cd2 cbbd
00000250: 5712 8e3d 2e35 a13d d377 17be 4077 cfbc
00000260: 8241 a7bc 175e cebc c242 dbbd 9302 97bb
00000270: 3b16 b83d 1236 9d3c d57a da3c 8ff8 ecbd
00000280: b983 13be b871 a53d d41f bcbd 3e92 803d
00000290: 664c 1cbe 2c84 fabd 69e1 11be 05b8 04be
000002a0: 7bdf 843d c52e 8f3d 9658 84bd aa83 cbbc
000002b0: 46a8 e1bc 5408 913d e8ad babd 65ac 333d
000002c0: cc6e 013d a419 63bd 0ef0 1f3d 207a 6e3d
000002d0: 44df 52bd 5743 fbbd c278 8bbd d083 6abd
000002e0: 8a42 13bd 3152 8b3d d05d b33c 6394 f5bd
000002f0: 3879 753d 0d2e acbd ac74 e93c 5165 4b3b
00000300: c03b 81bc d1ab f93e 4803 7f3d b670 5ec0
00000310: e319 bec0 f079 27bd 59d8 13c1 fd8b d23f
00000320: 753c b1c0 6f95 97be 5aa3 33c0 f28a 8bbf
00000330: 863c e4bf 0f33 e1bf 3d08 3fbe 7a4e 81bd
00000340: 3b98 683e ed5f 813f 1762 033e 543b 013f
00000350: 0ba6 5c3f 2ec2 8c3d 32ef 91be 603b a73d
00000360: 06cc 613d ce6e e5bf 857b d8be a3e6 ab3e
00000370: 000f 24bd 7ba6 ad3b 121b 80bf 2fba cec0
00000380: d6ea 44c0 787b 833d cb14 bac0 b093 4a3d
00000390: 5ba1 28be 94b7 543d 8527 b0be 2075 433d
000003a0: 6a37 a13e 7973 c93e 2493 273d 88f1 9cbd
000003b0: 33de 61bf d8ad 143d b430 fc3d 8c36 d33f
000003c0: a057 eabb 402e 69bc 14b5 8bbe 6e3f d2bf
000003d0: b296 663f 6318 ab3e 4ecf 86bf 2c1d 63bd
000003e0: 6c9f 523e 1207 0bc0 f493 ea3d f316 9dbd
000003f0: 64d8 4b3d 3312 943f d618 ed3d 2101 863f

joint_mlp.2.bias f4 [128]
0.2852646 0.09855076 -0.11870234 -0.09734943 -0.15285811 -0.038786616 -0.05999226 0.31925407
0.28537303 0.28147942 0.029057246 -0.109350935 0.05779684 0.10577252 0.17140898 0.0012230426
-0.1353076 -0.12046934 0.024423892 -0.031793732 0.20883816 0.21806881 -0.012161035 -0.12999456
-0.14301121 -0.058820434 -0.118058085 0.004070468 -0.008203773 -0.8708561 0.019860953 -0.054942343
-0.119708434 -0.13732055 -0.028397292 0.15389703 0.03700839 0.34989226 0.11672224 0.10957086
-0.012628051 0.106669605 -0.08673658 -0.059876136 0.21573545 -0.053763047 -0.019251842 0.24006884
-0.088683054 -0.0445888 0.020665519 0.12042556 -0.04215021 0.0073992 0.2398463 0.12962389
-0.13402338 0.093093075 0.15955481 -0.16359474 0.15566556 -0.082877085 0.1151871 -0.07412683
0.27395365 0.03670895 0.29300946 -0.28667173 -0.051547155 0.13396531 -0.050925028 0.1191244
0.24127226 0.19788608 0.068014726 -0.09226093 0.0961854 -0.06498284 -0.08255927 0.4081603
0.15057573 0.02734229 -0.72498536 0.28120136 -0.09987593 0.14712544 -0.10617656 -0.08299096
0.016626079 -0.14522035 0.02458351 0.0011837032 0.38746837 0.245847 -0.11727007 0.45582467
0.04902556 -0.074617825 -0.018544754 0.28498664 0.384496 0.3304157 -0.0013024965 0.18165742
0.279894 -0.13337798 0.020605715 -0.014424181 -0.1850329 0.12027259 -0.07233017 -0.10225206
0.17130853 0.1325121 0.038824603 0.28791827 -0.07280672 -0.011627004 0.029381817 -0.09527739
0.13440868 0.07897176 -0.09291444 -0.019198563 0.14796157 -0.013925132 0.048842046 -0.147769
00000000: 340e 923e fbd4 c93d 361a f3bd 235f c7bd
00000010: d686 1cbe b7de 1ebd 72ba 75bd 4575 a33e
00000020: 6a1c 923e 121e 903e 7609 ee3c 62f3 dfbd
00000030: 61bc 6c3d 439f d83d d685 2f3e 804e a03a
00000040: 138e 0abe a1b8 f6bd 9d14 c83c 253a 02bd
00000050: acd9 553e 6e4d 5f3e 143f 47bc 4b1d 05be
00000060: 8871 12be b2ed 70bd 70c8 f1bd 8f61 853b
00000070: 1e69 06bc 6df0 5ebf 70b3 a23c 390b 61bd
00000080: b229 f5bd c29d 0cbe 70a1 e8bc 2f97 1d3e
00000090: 1c96 173d 1425 b33e 120c ef3d b066 e03d
000000a0: e3e5 4ebc 9875 da3d f3a2 b1bd ae40 75bd
000000b0: c1e9 5c3e a436 5cbd 0ab6 9dbc 9bd4 753e
000000c0: 769f b5bd bfa2 36bd bc4a a93c ada1 f63d
000000d0: b3a5 2cbd fd74 f23b 459a 753e 20bc 043e
000000e0: 6d3d 09be 95a7 be3d 5662 233e 6185 27be
000000f0: cb66 1f3e 76bb a9bd 37e7 eb3d cfcf 97bd
00000100: a743 8c3e 205c 163d 5605 963e a3c6 92be
00000110: 1c23 53bd 342e 093e c396 50bd 7ef7 f33d
00000120: 1310 773e a6a2 4a3e 4e4b 8b3d 4cf3 bcbd
00000130: dafc c43d b915 85bd d614 a9bd 63fa d03e
00000140: 8630 1a3e f0fc df3c a498 39bf a0f9 8f3e
00000150: c08b ccbd 0da8 163e 1973 d9bd 2af7 a9bd
00000160: 6a33 883c a5b4 14be 5b63 c93c 7d26 9b3a
00000170: 4162 c63e 51bf 7b3e 4a2b f0bd da61 e93e
00000180: 07cf 483d 3bd1 98bd 2beb 97bc c5e9 913e
00000190: a9dc c43e 3f2c a93e 88b8 aaba 6704 3a3e
000001a0: 444e 8f3e 3d94 08be 51cd a83c 6653 6cbc
000001b0: 4479 3dbe 7a51 f63d d721 94bd 8769 d1bd
000001c0: 816b 2f3e 40b1 073e 8c06 1f3d 066a 933e
000001d0: b11b 95bd 307f 3ebc 23b2 f03c cb20 c3bd
000001e0: 6ea2 093e f2bb a13d ed49 bebd 4e46 9dbc
000001f0: 3d83 173e 3d26 64bc 990e 483d c250 17be

classifier.0.weight f4 [64, 128]
0.25555 -0.018098531 0.096503444 1.8080907 0.03987435 -0.043509625 0.040325545 -1.8169895
0.19266587 0.23624347 0.6945614 0.023068203 0.34901106 0.078820206 -0.3103773 -0.0056600478
-0.054703217 0.018689075 0.85361195 0.13454694 -0.9246164 -0.86769754 0.86751825 -0.06270309
-0.0420132 -0.0030575853 0.010211717 -0.059715096 -0.018430619 2.844783 -0.045093607 0.057544187
0.03620479 -0.0030863064 0.02933524 -0.50290716 -0.016235422 0.33418643 0.28100166 -0.45245448
-0.031711437 -0.53880966 0.06510745 -0.01778006 0.142766 0.057740398 0.08697549 -0.09281844
-0.0656402 -0.042541437 -0.07420068 -0.88455546 -0.036008812 0.026318273 -0.790601 0.031264253
0.018826412 0.33339813 -0.0434517 0.030372962 -1.5384804 0.039795168 -0.5687864 -0.025740234
-0.86319846 -0.8398891 -0.92156017 1.666753 0.055031814 0.1686814 -0.010371298 0.8190806
0.3337653 -0.36515808 0.578617 0.05275701 -0.50225735 -0.04721614 -0.02480049 0.618319
-0.2564897 -0.03423251 -0.21887167 -0.045202624 -0.087158665 -0.5458834 0.08633951 -0.028827367
-0.047249425 -0.33206755 -0.956354 0.5144481 -0.34809506 -0.24121517 0.27516404 0.25155717
-0.7373752 0.10930075 -0.026458552 0.5727864 0.51611936 -0.1874191 0.057696972 -0.25374037
-1.2214438 -0.04442015 -0.060806837 0.06003587 0.30392364 -0.6213878 -0.09394803 0.054075476
1.4572015 -1.0343153 -0.35019994 -0.9207062 -0.67683685 0.022669872 0.054827232 -0.009072667
-0.4690175 0.58439445 -0.0804842 0.025192 -0.30923638 1.4095808 -1.5647781 0.13729607
-0.064570256 -0.041842453 0.044897374 0.0032347 -0.07831236 0.060821548 0.07070745 -0.07403404
-0.083978675 -0.070386305 0.05637805 0.04719209 -0.04775349 0.00986362 -0.03972439 0.07230864
0.07505411 -0.04201352 -0.039242953 0.07954383 -0.0724021 -0.08769037 0.07325523 -0.05650304
-0.083999075 0.059799105 -0.041469254 0.019357668 -0.030710138 -0.09154095 0.03261134 -0.08034384
0.0053499523 -0.07589897 0.07589613 -0.006462274 -0.06505111 -0.030566305 0.057840083 -0.0036895652
-0.059782848 -0.031890463 0.08326051 -0.06718799 -0.023676774 -0.077893525 -0.017296437 -0.02035878
-0.06803049 -0.048076592 0.042972848 0.0041588997 0.009065787 -0.044039126 0.038484927 -0.025386382
-0.06725274 0.06833842 0.03493964 0.031110188 -0.0118223075 0.026236307 -0.036003612 0.0641739
0.052622095 0.076212525 -0.0064552845 -0.08271885 -0.07640452 0.07506513 0.0021688873 0.064597994
-0.0085887285 -0.0016583349 0.041772526 0.022014784 0.06873876 -0.046490576 -0.011265736 -0.028257508
-0.04617351 -0.08322039 -0.0997258 -0.021699807 -0.028724331 -0.03447045 0.08143544 -0.06420517
-0.04365407 0.05329471 -0.09173295 -0.05828386 -0.005516842 -0.061644718 -0.05077739 -0.08576994
0.049138576 -0.072568834 0.087801464 -0.03323506 -0.05527205 -0.061932113 0.008362904 -0.061097197
0.069498785 0.07620833 -0.070220634 0.0049523073 0.0112166125 -0.0632316 0.071406156 -0.07796452
-0.07069358 0.008166414 -0.04421615 0.036392238 -0.036780443 -0.016746713 -0.0030237308 -0.031370595
0.06064653 0.040337402 0.02098616 0.06407702 0.024869556 0.07722548 -0.092179775 0.017746162
00000000: 73d7 823e 5f43 94bc 99a3 c53d 846f e73f
00000010: 4953 233d 2637 32bd 662c 253d 1d93 e8bf
00000020: 344a 453e cfe9 713e c7ce 313f 87f9 bc3c
00000030: 94b1 b23e 7d6c a13d c6e9 9ebe ec77 b9bb
00000040: 7b10 60bd d519 993c 5086 5a3f acc6 093e
00000050: a9b3 6cbf 6d21 5ebf ad15 5e3f 7a6a 80bd
00000060: 0916 2cbd c561 48bb 0c4f 273c d197 74bd
00000070: cffb 96bc ed10 3640 13b4 38bd 74b3 6b3d
00000080: 794b 143d a143 4abb 7550 f03c 86be 00bf
00000090: 2600 85bc 7c1a ab3e 73df 8f3e 1da8 e7be
000000a0: dae3 01bd 6eef 09bf 0e57 853d 7da7 91bc
000000b0: 4031 123e 3281 6c3d 3520 b23d 9817 bebd
000000c0: 5f6e 86bd ee3f 2ebd 87f6 97bd 3a72 62bf
000000d0: fa7d 13bd 6b99 d73c d464 4abf f20e 003d
000000e0: d939 9a3c 29b3 aa3e 69fa 31bd b8d0 f83c
000000f0: edec c4bf 4200 233d fc9b 11bf 2fdd d2bc
00000100: 93fa 5cbf f902 57bf 5eeb 6bbf 2a58 d53f
00000110: 0a69 613d d1ba 2c3e 60ec 29bc 44af 513f
00000120: 49e3 aa3e 00f6 babe 3e20 143f bc17 583d
00000130: f093 00bf b665 41bd 662a cbbc 274a 1e3f
00000140: 9e52 83be 6337 0cbd e51f 60be 6326 39bd
00000150: 3e80 b2bd 04bf 0bbf c5d2 b03d 5f27 ecbc
00000160: 9d88 41bd c204 aabe 9ed3 74bf dfb2 033f
00000170: 8439 b2be 1c01 77be 4de2 8c3e 1acc 803e
00000180: 9fc4 3cbf 12d9 df3d 9bbf d8bc 21a2 123f
00000190: 6620 043f cbea 3fbe a953 6c3d 42ea 81be
000001a0: 4558 9cbf e7f1 35bd 9710 79bd 2ce8 753d
000001b0: e19b 9b3e 4513 1fbf d367 c0bd 3f7e 5d3d
000001c0: 9485 ba3f 7264 84bf 684d b3be 67b3 6bbf
000001d0: 2e45 2dbf 2bb6 b93c 8592 603d 86a5 14bc
000001e0: 1023 f0be e09a 153f e6d4 a4bd 745f ce3c
000001f0: 3b54 9ebe 256d b43f a64a c8bf 5797 0c3e
00000200: 693d 84bd fe62 2bbd 4fe6 373d 43fd 533b
00000210: 3b62 a0bd 0420 793d 11cf 903d 299f 97bd
00000220: 03fd abbd b226 90bd acec 663d 7e4c 413d
00000230: 2a99 43bd 059b 213c 0bb6 22bd 8d16 943d
00000240: f8b5 993d 5e16 2cbd 38bd 20bd e0e7 a23d
00000250: 8d47 94bd 0297 b3bd d706 963d bb6f 67bd
00000260: b507 acbd e8ef 743d aadb 29bd f993 9e3c
00000270: d493 fbbc d279 bbbd 7893 053d 508b a4bd
00000280: a74e af3b eb70 9bbd 6e6f 9b3d 7cc1 d3bb
00000290: 8439 85bd 3066 fabc b9e9 6c3d a2cc 71bb
000002a0: dcde 74bd 939f 02bd 7c84 aa3d db99 89bd
000002b0: cbf5 c1bc a486 9fbd 42b1 8dbc 75c7 a6bc
000002c0: 9253 8bbd f6eb 44bd 4c04 303d 6147 883b
000002d0: ab88 143c 5f62 34bd 5fa2 1d3d 1af7 cfbc
000002e0: cebb 89bd 03f5 8b3d de1c 0f3d cbda fe3c
000002f0: 5ab2 41bc 86ed d63c 8678 13bd 9b6d 833d
00000300: 448a 573d 5015 9c3d da86 d3bb 8068 a9bd
00000310: f979 9cbd bfbb 993d e423 0e3b f44b 843d
00000320: bdb7 0cbc 7c5c d9ba ab19 2b3d 5958 b43c
00000330: e8c6 8c3d e76c 3ebd ec93 38bc 4a7c e7bc
00000340: 6f20 3dbd 746f aabd 0a3d ccbd cbc3 b1bc
00000350: 4a4f ebbc e330 0dbd a0c7 a63d 007e 83bd
00000360: 9cce 32bd 8e4b 5a3d 7cde bbbd 0fbb 6ebd
00000370: a0c6 b4bb 2c7f 7cbd f4fb 4fbd 26a8 afbd
00000380: 8845 493d f89e 94bd 41d1 b33d 7c21 08bd
00000390: f264 62bd 87ac 7dbd 9004 093c 0e41 7abd
000003a0: 6155 8e3d 1d13 9c3d d6cf 8fbd f746 a23b
000003b0: e2c5 373c 927f 81bd 643d 923d ddab 9fbd
000003c0: ccc7 90bd 6ccc 053c fe1b 35bd 0710 153d
000003d0: 17a7 16bd 6730 89bc c929 46bb 747e 00bd
000003e0: 7f68 783d d538 253d 2beb ab3c d03a 833d
000003f0: 3dbb cb3c 6428 9e3d c0c8 bcbd 6660 913c

classifier.0.bias f4 [64]
-0.23030357 -0.0121749 0.003185241 -0.025795765 -0.025164714 -0.024168957 -0.012938716 -0.079113856
-0.07425399 -0.06606899 0.052037213 -0.28876603 -0.084585816 0.01970305 -0.25405264 -0.07725542
0.04507194 0.00195649 0.11133814 0.40671113 -0.13436268 -0.019328436 -0.10600801 0.670904
0.012483591 -0.12035287 -0.09095698 -0.2916077 0.04137682 -0.089232706 -0.02158093 0.005883808
0.077956885 -0.08934772 0.007089981 -0.014282528 -0.06611411 -0.10871585 -0.11658612 -0.24438806
0.014699454 0.0016101884 0.049345806 -0.10602312 -0.02692998 0.43335736 -0.065325245 -0.16867298
-0.010429624 -0.014356637 -0.048525844 0.22340876 0.023365596 -0.07878336 -0.04056572 0.034339912
0.04207593 -0.10439344 0.03390228 0.0037744183 -0.08286999 0.029683871 -0.058867402 -0.16162562
00000000: b3d4 6bbe 3b79 47bc 7abf 503b a451 d3bc
00000010: 3b26 cebc fafd c5bc e9fc 53bc 7206 a2bd
00000020: 7a12 98bd 2e4f 87bd f924 553d 24d9 93be
00000030: 543b adbd 4a68 a13c 3013 82be 1738 9ebd
00000040: 5b9d 383d 7538 003b 4005 e43d 713c d03e
00000050: 5f96 09be ab56 9ebc ba1a d9bd 5dc0 2b3f
00000060: fa87 4c3c 917b f6bd a747 babd 9b4d 95be
00000070: be7a 293d a3bf b6bd 7eca b0bc f5cc c03b
00000080: dca7 9f3d f0fb b6bd 1253 e83b 4401 6abc
00000090: d666 87bd 6aa6 debd b4c4 eebd dd40 7abe
000000a0: fbd5 703c f50c d33a d41e 4a3d a622 d9bd
000000b0: 439c dcbc 04e1 dd3e 3ec9 85bd 9cb8 2cbe
000000c0: 03e1 2abc 1a38 6bbc 09c3 46bd 44c5 643e
000000d0: 3569 bf3c 2c59 a1bd 3e28 26bd 02a8 0c3d
000000e0: cf57 2c3d 3acc d5bd 1edd 0a3d 3b5c 773b
000000f0: beb7 a9bd 972b f33c f21e 71bd 3081 25be

classifier.3.weight f4 [5, 64]
-5.2364225 0.0007535888 0.046701945 -0.10425643 0.08644946 0.023326695 -0.07189961 0.07431462
0.11072435 -0.028069014 -0.016922574 -3.4260857 0.06861865 0.047942694 1.3182067 -0.00023596581
0.097710125 -0.37492958 0.2842171 -3.8991418 1.095665 -0.07742575 -0.010790339 -1.315588
-0.07858735 0.072778985 0.030518683 0.13897675 -0.067403845 0.34969592 -0.012293385 -0.12671916
0.1028253 0.021683808 -0.042775735 -0.054288033 0.0971853 -4.991983 0.019218823 -5.1104736
0.033563197 -0.019653615 0.09741739 -0.07795991 0.008752186 -3.9516149 0.053571057 -4.7032266
1.0076178 -0.044846665 -0.06542392 0.22380824 -0.0763904 -0.13157511 0.10011297 -0.11344327
-0.031212986 0.03861691 -0.02801506 -0.020324629 -0.053123694 0.11098395 0.025314352 -5.3476844
1.0416207 -0.08783026 0.043827906 -0.0849876 0.025076807 -0.06303326 -0.05762711 0.054414887
0.0018504371 -0.102155216 -0.004995465 0.98714596 -0.007923794 0.052789573 -4.160671 0.020485705
-0.080616266 0.3662417 -8.099195 -3.8712008 0.48772976 -0.029696364 0.0780677 1.1309212
-0.030331148 0.37827975 -0.016010834 0.62382394 -0.07231367 -5.504096 -0.030622672 -0.08094271
-4.0137334 -0.135106 -0.037016243 -0.07265526 0.023252025 0.28773093 0.052613325 0.59524626
0.11022065 -0.053494602 -0.027408062 -0.021856684 0.093096636 3.1235278 0.08828594 0.43764648
-3.3694737 0.07161461 0.046019252 -4.838908 -0.04602016 -0.013399944 -0.024976889 -0.115986556
0.08336645 -0.039093643 -0.06258775 -0.092091344 -0.065324016 0.031000003 -0.13142455 0.4784214
0.672429 -0.008765102 -0.14969623 0.10912722 0.11748372 0.039455853 -0.03264004 -0.027752822
-0.02784423 -0.09041445 0.042393092 -4.0115814 -0.02453609 0.05840506 1.1228657 0.00434566
0.030601181 -6.699907 0.79605657 -0.5355358 -3.6521363 0.00017827126 0.02165697 -3.08276
0.036531374 0.4264854 -0.076515526 0.84436893 0.007835082 1.7786971 -0.12387341 -0.04360168
0.35516265 -0.0664167 -0.058843076 0.08547944 0.08534172 -0.30846438 -0.027992941 -0.031765714
0.08903546 -0.11840369 -0.08728459 0.069018364 0.058100294 -2.9651296 -0.025197491 1.1857816
1.2759012 -0.059666708 -0.07765851 -5.8797216 -0.00745499 0.07201262 0.015669387 -0.100280575
-0.11743025 0.06166615 -0.067122504 -0.04202647 -0.032416902 -0.017271569 0.085923076 -1.0247397
-5.8032 0.026899552 -0.066381805 -0.08344809 -0.03670141 -0.090566106 0.09989147 0.03010396
0.0630935 -0.03496129 -0.08124197 -0.1854363 -0.06204261 0.061587997 1.0799006 -0.042124964
0.030665612 1.6916825 0.12752144 1.7021172 -0.23703896 0.012146155 -0.060183734 0.58237886
-0.081729196 0.563714 -0.09068134 -0.73781395 -0.09930187 -1.4578753 0.03847066 0.056814276
0.6438285 0.038333006 0.020181429 0.041365907 0.03186129 0.31615725 0.05427841 -0.106938586
0.07728672 0.051456347 0.04778825 0.03401367 0.012131988 2.4910095 0.117707685 -2.118665
0.6564452 0.025258893 0.021670358 0.60694647 -0.1047407 -0.032681912 0.094930336 0.013202939
-0.052254356 -0.08365197 -0.08441794 0.077103026 -0.0106854495 0.02117447 -0.1187757 -0.06473507
00000000: c690 a7c0 7d8c 453a 8a4a 3f3d 6584 d5bd
00000010: 6a0c b13d a017 bf3c 1a40 93bd 4332 983d
00000020: 73c3 e23d fdf0 e5bc 36a1 8abc fd44 5bc0
00000030: ef87 8c3d 8f5f 443d ffba a83f 976d 77b9
00000040: 3f1c c83d c5f6 bfbe e784 913e 8a8b 79c0
00000050: c03e 8c3f 6491 9ebd f6c9 30bc 3065 a8bf
00000060: 68f2 a0bd 260d 953d 5102 fa3c ec4f 0e3e
00000070: 070b 8abd 580b b33e 326a 49bc abc2 01be
00000080: 1296 d23d 3ea2 b13c 9c35 2fbd 215d 5ebd
00000090: 1609 c73d 53be 9fc0 cb70 9d3c 0089 a3c0
000000a0: 9079 093d 9e00 a1bc c582 c73d 72a9 9fbd
000000b0: 5465 0f3c 42e7 7cc0 536d 5b3d d580 96c0
000000c0: 9ff9 803f 23b1 37bd fafc 85bd fd2d 653e
000000d0: 9272 9cbd a0bb 06be 0708 cd3d f254 e8bd
000000e0: 60b2 ffbc c42c 1e3d d77f e5bc d67f a6bc
000000f0: 3b98 59bd 8e4b e33d 0b60 cf3c 3b20 abc0
00000100: d453 853f 5ae0 b3bd e484 333d fb0d aebd
00000110: e06d cd3c 9517 81bd 680a 6cbd 25e2 5e3d
00000120: 5e8a f23a c136 d1bd ffb0 a3bb 99b5 7c3f
00000130: cdd2 01bc e139 583d 3824 85c0 a3d1 a73c
00000140: 241a a5bd 0884 bb3e 4d96 01c1 c1c1 77c0
00000150: b7b7 f93e ca45 f3bc f5e1 9f3d 07c2 903f
00000160: 0779 f8bc e2ad c13e 2729 83bc edb2 1f3f
00000170: 3019 94bd 8e21 b0c0 66dc fabc 4bc5 a5bd
00000180: 8170 80c0 3a59 0abe 589e 17bd 48cc 94bd
00000190: 087b be3c 7851 933e 1281 573d 0f62 183f
000001a0: 5dbb e13d 281d 5bbd df86 e0bc ca0c b3bc
000001b0: 73a9 be3d e1e7 4740 42cf b43d 3313 e03e
000001c0: 75a5 57c0 aeaa 923d af7e 3c3d 56d8 9ac0
000001d0: a37f 3cbd 708b 5bbc 559c ccbc 5c8a edbd
000001e0: 08bc aa3d a820 20bd 022e 80bd 639a bcbd
000001f0: 99c8 85bd b8f3 fd3c 2894 06be a6f3 f43e
00000200: 4f24 2c3f 819b 0fbc f849 19be 187e df3d
00000210: 4e9b f03d 769c 213d 90b1 05bd e359 e3bc
00000220: 9519 e4bc 362b b9bd 61a4 2d3d e05e 80c0
00000230: e9ff c8bc 253a 6f3d 10ba 8f3f 0a66 8e3b
00000240: 54af fa3c a365 d6c0 5dca 4b3f e018 09bf
00000250: 9abc 69c0 54ee 3a39 f569 b13c f14b 45c0
00000260: eca1 153d 4b5c da3e 2cb4 9cbd 9028 583f
00000270: b75e 003c 59ac e33f 58b1 fdbd ad97 32bd
00000280: e1d7 b53e 7b05 88bd 7005 71bd d80f af3d
00000290: a4c7 ae3d 0bef 9dbe 7451 e5bc c41c 02bd
000002a0: 3958 b63d a27d f2bd 43c2 b2bd 8059 8d3d
000002b0: 93fa 6d3d afc4 3dc0 f86a cebc b1c7 973f
000002c0: bb50 a33f 1465 74bd 6d0b 9fbd ae26 bcc0
000002d0: fd48 f4bb 5a7b 933d 165d 803c e75f cdbd
000002e0: 457f f0bd a595 7c3d 8677 89bd f323 2cbd
000002f0: 96c7 04bd 1b7d 8dbc 70f8 af3d ac2a 83bf
00000300: d0b3 b9c0 735c dc3c 2ff3 87bd d5e6 aabd
00000310: 3854 16bd b97a b9bd e693 cc3d 949c f63c
00000320: 2a37 813d 9233 0fbd 3162 a6bd 03e3 3dbe
00000330: 6420 7ebd b243 7c3d 2f3a 8a3f 3a8b 2cbd
00000340: 7336 fb3c 0d89 d83f fb94 023e fade d93f
00000350: 57ba 72be ab00 473c 3883 76bd c816 153f
00000360: a361 a7bd 904f 103f 23b7 b9bd 60e1 3cbf
00000370: c75e cbbd a89b babf 6993 1d3d 16b6 683d
00000380: f2d1 243f 1203 1d3d 8653 a53c 4c6f 293d
00000390: fc80 023d 5ddf a13e 0a53 5e3d 9e02 dbbd
000003a0: 8048 9e3d e4c3 523d 9dbd 433d eb51 0b3d
000003b0: 3fc5 463c b36c 1f40 ba10 f13d 3598 07c0
000003c0: cb0c 283f bdeb ce3c 0986 b13c d860 1b3f
000003d0: 4b82 d6bd 78dd 05bd d66a c23d 2451 583c
000003e0: aa08 56bd b951 abbd 50e3 acbd 31e8 9d3d
000003f0: 0612 2fbc 1576 ad3c ad40 f3bd d293 84bd

classifier.3.bias f4 [5]
0.78217304 0.32389304 -0.14164661 -0.47133482 -0.3241784
00000000: 7e3c 483f 4fd5 a53e cf0b 11be cc52 f1be
00000010: b6fa a5be
