tcnn_hand_posture_best.pt (torch, 500105 bytes, 6 tensors)

temporal_conv.0.weight f4 [128, 63, 3]
000000 3e ea c9 3b 89 f9 c3 3b 28 f8 d3 3b 2d bd 85 38
       0.006161957 0.0059806746 0.0064687915 6.377171e-05
000010 6f 2a 6d bd 6e 12 26 bd 6e 4b 53 37 a6 a1 59 37
       -0.057901796 -0.04054492 1.2594142e-05 1.2971845e-05
000020 6a bc 46 37 a0 20 4b bd 1e a4 5c 3b 51 38 74 bc
       1.1845588e-05 -0.04959166 0.0033667157 -0.014906005
000030 32 1b c1 bb 16 20 59 bd b5 1e 57 bd 2a 55 0b bc
       -0.0058931345 -0.053009115 -0.05251952 -0.008504191
000040 88 d7 00 bc 48 74 d4 bb 4c ce ab bc d4 00 59 3b
       -0.007863887 -0.0064835884 -0.020972393 0.0033112066
000050 dc 2e 1e 3c 93 9d 8f 3d f1 d9 81 3d db 5b 82 3d
       0.009654727 0.07012477 0.06340397 0.06365176
000060 42 e6 94 bc aa 29 8b bc 6f cb 66 bc b8 82 61 bc
       -0.018176202 -0.01698764 -0.014086588 -0.013764076
000070 86 9d e8 3c b6 22 07 3d c2 54 8b bd f9 fb 76 bd
       0.028395426 0.032992087 -0.06803276 -0.060298894
000080 1a 2c 53 3d e1 9d 84 bc 66 66 83 bc 8d 00 4e bc
       0.05155573 -0.016188564 -0.016040038 -0.0125733735
000090 e8 2d 37 3d 3e 61 1b 3c 95 db 34 3d 34 f1 c7 bb
       0.044721514 0.009483634 0.044154722 -0.0061017517
0000a0 57 28 7c bd d0 4a 15 bd 26 45 4c bc c8 81 41 bc
       -0.06156191 -0.0364483 -0.012467658 -0.011810727
0000b0 3b 9f 04 bc 15 95 46 3d 32 de 26 bd 05 18 6f bd
       -0.008094604 0.04848202 -0.040739246 -0.058372516
0000c0 37 da bc 3d a4 31 b2 3d 28 dd e6 3d 91 f1 b6 bc
       0.09221309 0.087008744 0.11272651 -0.022331985
0000d0 a2 ad b3 bc b8 b8 91 bc 47 cf 8b 3b 6f 2b 8e 3d
       -0.02193338 -0.017788276 0.0042666527 0.06941878
0000e0 a8 de 9c bc ff 20 cf bd 9e 08 4f bd 50 b8 9b bd
       -0.01914914 -0.101137154 -0.050545327 -0.07603514
0000f0 c0 3f be bc 48 3e be bc 8e dd 8d bc e1 40 83 3d
       -0.023223758 -0.023223057 -0.01731756 0.06408859
000100 f9 75 42 bd f3 e2 ba 3c cd bf c2 bc e9 b5 b4 bb
       -0.04747579 0.022813296 -0.023773098 -0.0055148494
000110 a6 74 f3 3c 93 e7 68 bc 8d 05 86 bc c1 80 4a bc
       0.029718708 -0.014215368 -0.016360069 -0.012359799
000120 7c dd 3a bd 61 52 a2 bd ed f5 a9 bd 25 bf ab 3d
       -0.04562138 -0.07925869 -0.0829886 0.08386067
000130 07 f3 46 3d 18 3c b2 3b 01 7b b3 bb f3 62 8a bb
       0.048571613 0.0054392926 -0.0054773097 -0.0042232214
000140 79 c7 66 3b 9d a3 df 3c c1 5c 4c bd fe a0 ec 3c
       0.003521411 0.027299697 -0.049893145 0.02888536
000150 a3 5d d9 3d 7e 63 38 3e cc 4b e2 3d 22 4c 33 bc
       0.10613563 0.18006703 0.11049613 -0.010943444
000160 37 59 4d bc 1e 50 fe bb 47 e6 b2 bb 28 eb ba 3d
       -0.0125334775 -0.0077610156 -0.00545958 0.09126884
000170 68 97 7d 3d 0e c0 8a bd 40 a7 63 bd 7a f2 75 bd
       0.06191197 -0.06774913 -0.055579424 -0.060045697
000180 11 c6 13 bc c6 2b 7b bc 59 42 f2 bb 08 d5 80 3d
       -0.009019391 -0.015330261 -0.007393163 0.062906325
000190 f5 78 98 3d c9 f1 1a 3d f8 52 68 bd 0d 2c d6 3c
       0.07444946 0.03782824 -0.05671975 0.026144052
0001a0 0c e1 93 bc f3 cd d7 b9 27 59 90 ba 1a 09 93 ba
       -0.018051647 -0.0004116144 -0.0011012898 -0.0011217922
0001b0 60 45 fb bc 75 4d 03 bc 92 db 3a 3d c9 2a 0a bd
       -0.030672729 -0.008014073 0.045619555 -0.03373221
0001c0 51 5c e7 3b 81 6f 3f 3d b8 30 9e 3b c2 cf c6 3b
       0.0070605655 0.046737198 0.004827585 0.006067247
0001d0 ac ee 8f 3c 60 fc 9c bd 4c 9f 9b bc 17 be 8b bc
       0.017569862 -0.07665324 -0.018996857 -0.017058415
0001e0 34 54 77 3d 5d 7b 4b 3d e9 19 cb 3d c9 99 05 3c
       0.060383037 0.049678195 0.09917051 0.008154341
0001f0 30 95 21 3c 25 08 47 3c e8 4a 8f 3c 00 ca 64 3c
       0.009862229 0.012147938 0.017491773 0.013964176
000200 9c ca 6b 3d 6a c0 f6 bc 76 f8 b3 bc 10 16 55 3c
       0.05756627 -0.030121047 -0.021969061 0.013005748
000210 99 bd 68 3a 7c d4 b2 3a 5d 83 1a 3c f2 40 30 3c
       0.000887835 0.0013643648 0.0094307335 0.010757672
000220 9e dc 44 3d 5b 25 40 bc d1 df 32 3c e0 26 94 3d
       0.04806196 -0.011727656 0.01091762 0.07233977
000230 f5 db 1d 3d 95 95 4b 3c b5 aa 2a 3c c3 ed e3 3c
       0.038539845 0.0124258 0.010416676 0.027823335
000240 da ed 14 bd 9a 94 3d bd 57 33 d1 bc 0c 35 02 bd
       -0.036359645 -0.046284296 -0.025537176 -0.03178887
000250 66 e7 af 3d b8 ee 0c 3c 08 92 fa 3c 67 b9 ce 3c
       0.085890576 0.008601837 0.030587211 0.025234891
000260 11 d0 18 3d c0 a7 63 bd 90 56 09 bd 1d f5 e5 bc
       0.037307803 -0.0555799 -0.033529818 -0.02807098
000270 b8 c7 45 bd 33 7f 2c bc ba 9d d2 bd e8 89 1b 3d
       -0.04828617 -0.0105283735 -0.1028399 0.037973315
000280 de 3f 35 3d 23 b5 27 3d 24 94 c1 bb 06 a7 6b 3d
       0.04425036 0.04094423 -0.0059075523 0.057532333
000290 35 59 16 3d 23 43 8b bc b3 67 9e 3c f9 17 64 bd
       0.03670617 -0.016999787 0.019336557 -0.055686925
0002a0 ea dc 3d 3d 45 f4 09 3d 99 43 d3 3c 28 01 25 3d
       0.04635326 0.03368022 0.025789069 0.040284306
0002b0 17 63 53 bd c0 79 99 3b 41 d1 5b bd 41 f7 0a bd
       -0.05160817 0.004683703 -0.053666357 -0.033927206
0002c0 bc f6 9b bc 34 47 29 3d a3 cd 3c 3d 61 90 32 3d
       -0.01903855 0.04132767 0.046094548 0.04359472
0002d0 2d 89 8d 3c c4 92 a3 bc 13 2a 6c bd 65 88 78 3d
       0.017277325 -0.019967444 -0.057657313 0.06067695
0002e0 47 c6 a0 3d 23 37 a1 3c 30 3b 33 3d bf 0a 08 3d
       0.078503184 0.019679612 0.043757617 0.033213373
0002f0 fa 98 19 3d a2 f7 eb bb 9c a5 60 bc ea ce 85 bc
       0.037499405 -0.007201151 -0.013711359 -0.016334016
000300 b1 6f a0 bd 5a a6 bb bd f9 11 95 bd ae 5f 7b b8
       -0.078338034 -0.091625884 -0.07278819 -5.9932172e-05
000310 e6 6c 84 b8 5f 5f 73 b8 12 98 90 bd 00 f8 b2 bc
       -6.3145344e-05 -5.8024536e-05 -0.07060255 -0.021846771
000320 a1 1a a3 bc 80 f2 9c bc 04 dd 73 bc ea ef 13 3c
       -0.019910159 -0.019158602 -0.014884237 0.009029368
000330 32 08 2e bd 13 26 1c bd b5 44 19 bd 29 40 89 bc
       -0.042488284 -0.038122248 -0.03741904 -0.016754227
000340 be e1 48 3a fe 21 16 3d d3 df b5 3d 69 7e 0d bb
       0.0007663033 0.03665351 0.08880582 -0.002159024
000350 7e f9 68 bc 87 9d 89 bd bf 1b 85 bd 1e 87 7e bd
       -0.01421964 -0.06719499 -0.06499433 -0.062140577
000360 b5 31 b7 bc 67 db 51 bc 1f 3c 25 3d 79 05 96 3d
       -0.02236257 -0.012808657 0.04034054 0.073252626
000370 a7 20 24 bc cc 0b 5c bc ca 39 bc bd d6 75 bd bd
       -0.010017551 -0.013430547 -0.0919071 -0.09250991
000380 0f 6a b1 bd f2 2c 04 bd 00 00 20 3d e6 d5 c8 bc
       -0.08662807 -0.032269426 0.0390625 -0.024516057
000390 0e d8 ce 3c 22 06 45 bc d0 9d 0f bb e5 92 e7 bd
       0.025249507 -0.012025388 -0.0021914132 -0.11307315
0003a0 b5 29 ee bd 7c e2 dc bd 9e c5 32 bd bc 10 61 3c
       -0.11629049 -0.10785386 -0.043645494 0.0137369
0003b0 41 06 2e 3d 7b 5d 60 3d 25 3c 83 3d 16 62 d3 3d
       0.042486433 0.05477665 0.06407956 0.10321443
0003c0 44 0f 9e bd c2 df a4 bd d0 31 9c bd 1b 27 22 bd
       -0.077177554 -0.08050491 -0.076266885 -0.039588075
0003d0 68 7f 8f 3c e1 e5 78 bd 21 8b 7b 3d 47 85 af bc
       0.017516807 -0.060766105 0.06141198 -0.021425856
0003e0 28 90 e9 3c 82 d5 b0 bd 68 4c b9 bd f4 f8 b1 bd
       0.028511122 -0.086344734 -0.090477765 -0.08690062
0003f0 45 60 ef 3a 07 ac e7 bc aa f2 80 bd e8 4e 11 be
       0.0018262943 -0.028280271 -0.062962845 -0.14190257

temporal_conv.0.bias f4 [128]
000000 f4 b4 f5 3b c5 08 81 bd a5 d6 34 3d 09 9d 47 bc
       0.007498378 -0.06300501 0.044150013 -0.012183436
000010 92 db 35 3d 24 43 07 bc 1c 6b 85 bb f2 1a 58 ba
       0.04439885 -0.008255754 -0.0040716063 -0.0008243761
000020 9a 4e 93 bd ba b4 8a 3c 5a 18 5e 3d 25 92 4f 3c
       -0.071927264 0.01693188 0.054222442 0.012669121
000030 30 8d 42 80 c9 bc 20 80 c4 8c c8 bc 04 e2 cf bc
       -6.111791e-39 -3.006459e-39 -0.024481185 -0.025376327
000040 47 e9 93 bc 02 9d 1e 3d 24 8b 33 80 cb d0 43 3c
       -0.018055571 0.038723953 -4.733525e-39 0.011951636
000050 82 d1 2f 3d e3 72 8a 3a 75 26 e4 bc ef 72 0b 3d
       0.04292441 0.0010562803 -0.027850369 0.034045156
000060 28 6c a1 3d cb 50 38 bd a7 41 a9 3c 15 0f 3c 3d
       0.07881957 -0.044998925 0.020661188 0.04591282
000070 0b 21 07 bc 3c 2f 2d 3d 7d 42 7b bd 37 4f 6e 3d
       -0.008247624 0.042281374 -0.061342705 0.058181014
000080 f4 2e 92 3c 9b fc 06 bd f5 bc 88 bc b2 10 3c bd
       0.017844655 -0.032955747 -0.016691664 -0.04591436
000090 f1 b3 91 b7 e0 4d 1b 80 13 ad 79 bd bf a5 cb 3c
       -1.7369139e-05 -2.507495e-39 -0.060956072 0.024859307
0000a0 ea 5d 23 80 35 00 af 3d b4 d9 e6 bc bf 60 a8 bb
       -3.247932e-39 0.08544961 -0.02817998 -0.005138486
0000b0 e8 0e 64 b9 7f 78 fd 3c 4e d3 bf 3c 63 94 88 bd
       -0.00021749327 0.030941246 0.023416188 -0.066689275
0000c0 4e 7d fc 3c 8c 62 72 bd 75 d6 bc bc 3f 72 64 bd
       0.030821469 -0.059176013 -0.02305148 -0.055773016
0000d0 fb 34 20 80 3a 74 55 bd 8c 40 1a 3d 68 eb 9e bd
       -2.957742e-39 -0.052112795 0.037659213 -0.07759744
0000e0 f9 aa 50 bd 9a 66 c0 b1 48 7e 19 3a 63 43 14 90
       -0.050944302 -5.5996e-09 0.0005855304 -2.9239766e-29
0000f0 aa 59 83 a5 fe 1a 5e 3d 32 16 6a 3c a0 77 9d 3c
       -2.2785636e-16 0.05422496 0.014287518 0.01922208
000100 69 03 26 3d 22 26 13 80 e5 7d 80 bc 16 fa 00 80
       0.040530596 -1.758554e-39 -0.015685031 -8.9714e-41
000110 bd 7a 2d 80 9c 85 6c 3c ae 82 9d ba 05 53 0b 3d
       -4.176628e-39 0.014436152 -0.0012017095 0.03401472
000120 8a c9 35 bd 0e 3f 39 bb 1e db b6 3c bb 71 b7 3b
       -0.044381656 -0.0028266343 0.02232128 0.0055982745
000130 73 66 8f bd c6 55 d7 b4 4c de 68 3d 72 d5 b1 bd
       -0.070019625 -4.010928e-07 0.056852624 -0.086832896
000140 b3 d2 31 bd 54 c4 67 bc 2a b4 7b 3c f7 b6 37 3d
       -0.04341383 -0.014145929 0.015362779 0.044852223
000150 81 23 ce 3c 7b 6a 32 bd 98 c8 e6 3b 59 10 87 bd
       0.025163414 -0.04355858 0.0070429556 -0.06594915
000160 0a 9b 5c 3d ce 8f 30 80 1a 2f 1e bc 8d 34 0e 3a
       0.053858794 -4.459691e-39 -0.009654785 0.0005424701
000170 03 a6 64 bd f5 59 fb 3a d3 2b 90 3d 02 3d a2 bd
       -0.055822384 0.001917659 0.07039609 -0.079217926
000180 e5 dd d7 bd 4a 38 25 bd 30 f8 f9 bc fd 7d 38 3d
       -0.1054037 -0.040336885 -0.030513853 0.045042027
000190 7d 7e 94 bb 8c 69 59 bd 6e 62 16 80 e7 a6 e9 ba
       -0.00453168 -0.053079173 -2.055691e-39 -0.001782623
0001a0 67 e2 b9 3c f0 9a d8 bd a5 a3 4e 3d bf 8b 8f bd
       0.022690965 -0.10576427 0.050449032 -0.07009076
0001b0 d9 c1 87 bc 3b cd 8f bc ae fc aa 3c 83 dc 87 bd
       -0.016571926 -0.017553916 0.02087244 -0.06633856
0001c0 b6 b2 31 3c b3 49 39 3d 1d 00 31 3d ab 7c d9 b9
       0.010845831 0.0452363 0.043213 -0.0004148235
0001d0 f5 68 49 3d a9 8e a0 3c 56 68 76 3c cf dc 1f 3d
       0.04917236 0.019599276 0.015039524 0.03902894
0001e0 62 7d 22 bb d0 b9 c4 ba 70 4f 54 bc 04 ec 70 bc
       -0.0024793972 -0.001500899 -0.0129583925 -0.014704708
0001f0 ab 0c 9e 3c 6c e1 9f 3d 04 c1 8d 3c 06 bd a8 3c
       0.01929315 0.07806668 0.017303951 0.020597946

temporal_conv.2.weight f4 [256, 128, 3]
000000 66 76 ca 3c 43 93 dd 3c 40 f9 a2 3c c3 00 90 3d
       0.02471466 0.027047759 0.019894242 0.07031395
000010 07 e6 99 3d a9 0d 9f 3d 20 3f 16 3c c8 40 23 3c
       0.07514577 0.07766277 0.009170324 0.0099641755
000020 7c 33 44 3c bb be 78 ba 8b e5 2c 3b a6 8b 65 3b
       0.011975165 -0.000948887 0.0026381935 0.0035025864
000030 50 ec e0 3b 1f 97 40 3b 6b 16 a8 3b af 4b 51 3d
       0.006864108 0.002938695 0.0051296256 0.051097568
000040 8d 9b 4c 3d 3b aa 6d 3d 21 1c 25 38 53 71 82 37
       0.049953032 0.058023673 3.9365263e-05 1.5549978e-05
000050 57 77 b4 b6 9d 34 36 bb d4 ea 34 bb 2d ba 30 bb
       -5.378311e-06 -0.0027802356 -0.0027605789 -0.0026966438
000060 58 05 fb bb 1c 11 e2 bb 64 b3 87 3b 45 7e ae 3c
       -0.007660549 -0.0068990123 0.004141258 0.021300444
000070 7c 8b 6b 3b 73 4d 4c 3c c1 ee a9 bc fe a9 15 bd
       0.0035941293 0.012469637 -0.02074373 -0.03653907
000080 95 37 e5 bc b3 34 11 3e 89 14 11 3e d2 5d 11 3e
       -0.027980605 0.1418026 0.1416799 0.14195946
000090 e4 95 20 00 14 2a 03 80 2d 9d 24 00 51 75 07 80
       2.992507e-39 -2.90601e-40 3.362462e-39 -6.84934e-40
0000a0 f7 a3 09 80 ac 2d 0b 80 35 b9 f3 bb 0d 01 4d bc
       -8.85339e-40 -1.026574e-39 -0.00743785 -0.012512458
0000b0 0d c7 f1 bb e6 c8 13 3c 55 2e 4b 3c 82 9d ec ba
       -0.007378465 0.009020066 0.012401183 -0.0018052312
0000c0 4e e9 64 3d 35 2e 76 3d 99 c9 6e 3d 23 3a 56 3c
       0.05588656 0.06010266 0.058297727 0.013075384
0000d0 78 be ed 3b db c4 86 3c 2c 38 1b 80 8e af 14 80
       0.0072553717 0.01645129 -2.499709e-39 -1.899687e-39
0000e0 d4 cd 01 80 6d 87 aa 3b 87 90 20 3c 8e e5 98 3c
       -1.65673e-40 0.0052041323 0.009800083 0.018664148
0000f0 9f 47 05 be 7d 99 05 be df 0b fe bd 3b bb e2 ba
       -0.13015603 -0.13046832 -0.12404608 -0.0017298231
000100 f7 68 66 bc 3d 18 82 bb 7a 55 b9 bc c9 24 d4 bc
       -0.0140631115 -0.0039701746 -0.022623766 -0.025896447
000110 a8 27 ff bc 28 95 7a bc 9d 26 0e bc cf ff 78 3b
       -0.03114684 -0.015294351 -0.008676198 0.003799427
000120 78 11 e1 3b cd d6 13 3c 51 4e 1e 3c 6b 68 c9 3c
       0.0068685375 0.0090233805 0.009662227 0.024585923
000130 0e 2b ea 3c 0d c8 c1 3c 45 d7 15 3c f5 eb c6 3b
       0.028584983 0.023654962 0.009145563 0.0060706087
000140 73 27 38 3a f3 2f 7d 3c 14 01 f0 3b 8b 95 3b 3c
       0.00070249214 0.0154533265 0.0073243473 0.011449228
000150 75 8b eb 3c 1d 4e 0a 3d 76 96 f5 3c c2 f9 81 bb
       0.028753022 0.0337659 0.029978972 -0.003966541
000160 8d d5 21 3b af 06 67 bc 2f 57 14 bd 00 2b 1b bd
       0.0024693937 -0.014100715 -0.036215957 -0.037882805
000170 8a 63 0d bd ba 26 18 3d 22 03 2d 3d a3 7f 31 3d
       -0.034518756 0.037146308 0.042239316 0.043334614
000180 4f 30 2f 3c 39 6e d2 3c 2d 6b c6 3c a8 1b 52 bb
       0.01069267 0.025687324 0.024221027 -0.0032059941
000190 cf 9c b1 bb 65 a3 70 3a 05 9e a7 bc ef d6 a1 bc
       -0.0054203044 0.0009179621 -0.020461092 -0.019755809
0001a0 7c 13 9f bc 1d ca 4f 3d 55 0a 65 3d d5 40 63 3d
       -0.01941847 0.05072986 0.055918057 0.05548175
0001b0 32 7a 3b 97 6d c5 94 97 0a 21 75 97 b8 c3 2f 80
       -6.057719e-25 -9.614113e-25 -7.920547e-25 -4.386479e-39
0001c0 b5 56 0d 80 01 7f 32 80 3a a3 ab 3b 88 fd 81 3c
       -1.224966e-39 -4.637335e-39 0.005237964 0.015867963
0001d0 b4 c6 6e 3c 16 0e 05 3c fa ed fe 3b 4b a3 30 3c
       0.014573742 0.008121034 0.007779834 0.01078112
0001e0 aa 9d 0f 80 f4 82 3d 00 c1 e1 00 80 a6 d1 cc 3c
       -1.434092e-39 5.648942e-39 -8.0985e-41 0.025002312
0001f0 15 ce 02 3d 28 47 f2 3c e8 91 4c 3b 53 ed 08 bc
       0.031934816 0.029574946 0.0031214897 -0.008357364
000200 a6 fc 3c bb 0c 03 38 3d 9c d9 54 3d 35 60 48 3d
       -0.0028837114 0.04492478 0.05196534 0.048919875
000210 bc 55 2f 99 20 31 07 98 96 72 67 98 03 a5 0e bd
       -9.064602e-24 -1.7473143e-24 -2.9913901e-24 -0.034825336
000220 2b 22 30 bd 2e 1e e6 bc 0f 1f 56 3b 26 d6 da 3b
       -0.043001335 -0.028090563 0.003267232 0.0066783605
000230 11 f2 2b 3c 35 9f 79 3c 26 3f 7e 3c 41 04 ae 3c
       0.010494725 0.015235712 0.015517985 0.021242263
000240 79 f0 fe bd 2b de 00 be 67 32 ee bd e0 ba 9c 3c
       -0.1244821 -0.1258475 -0.11630707 0.019132078
000250 9e 3f bf 3c ed 4e b0 3c d7 ee 07 3d c4 2c 11 3d
       0.023345765 0.02152201 0.03318676 0.035443082
000260 a9 2b 0a 3d 28 13 5b 3c 71 9c b0 3c 6d 8a 03 3c
       0.033733044 0.013371266 0.021558972 0.008028609
000270 a3 7b 3a 02 63 5a 3a 02 c2 67 40 02 a3 7b a6 3c
       1.3700604e-37 1.3691062e-37 1.4135709e-37 0.020322626
000280 7b 04 ba 3c d3 5c aa 3c 3a 6a 76 3c b4 5f e3 3b
       0.022707215 0.020796215 0.015039975 0.006938899
000290 79 dd 22 3c 7d e5 c6 bd 42 02 c9 bd 8f 9f c2 bd
       0.0099404985 -0.0971174 -0.09814884 -0.0950309
0002a0 db 91 86 3d 22 c5 92 3d 13 b7 8c 3d 0a 3d bf 2f
       0.065707885 0.07166506 0.06870856 3.4786068e-10
0002b0 f4 6f c3 2f 48 cd be 2f 2c 18 95 bc 4a 98 a8 bc
       3.554984e-10 3.470666e-10 -0.018200003 -0.02058043
0002c0 46 a4 c8 bc c1 8e 0a 80 de a7 05 80 88 f7 09 80
       -0.024492394 -9.69565e-40 -5.19397e-40 -9.15317e-40
0002d0 29 97 ab 21 94 64 96 21 ed f6 af 21 b2 66 91 3c
       1.1627422e-18 1.0191018e-18 1.1923822e-18 0.017749164
0002e0 cd 57 4a 3c 93 bc ab 3c c7 8e ce 3c 72 c5 44 3c
       0.012350035 0.020963943 0.025214566 0.012009965
0002f0 b9 e3 08 3d d9 c3 d3 bc 58 85 02 bd 3b 29 d5 bc
       0.0334203 -0.025850223 -0.031865448 -0.026020637
000300 ac d6 4d bb 0d fa 0f bb df a0 f8 bb d0 13 2e 80
       -0.0031408472 -0.002196911 -0.0075875367 -4.23154e-39
000310 0a f6 2d 80 e1 af 2f 80 5d 5a 22 3d 98 ac 50 3d
       -4.22086e-39 -4.379362e-39 0.03963696 0.05094585
000320 44 53 42 3d b5 35 01 80 31 af 14 80 14 14 1c 00
       0.04744269 -1.11102e-40 -1.899557e-39 2.578597e-39
000330 d8 a1 1a 00 00 d4 1b 00 5f e0 21 00 9d 0a da 3c
       2.445781e-39 2.55561e-39 3.11106e-39 0.026616389
000340 ab f5 e2 3c 1d ca c4 3c 07 12 9c 3d 9c a4 9e 3d
       0.027705034 0.024022156 0.07620626 0.077462405
000350 ad 62 9c 3d fa c9 b2 bc b1 53 c9 bc 1e ab 46 bc
       0.076360084 -0.021824826 -0.02457604 -0.012125758
000360 3d 2c 36 bc a7 ab 38 3b 28 94 3c bc 80 0b 79 bc
       -0.011118946 0.0028178485 -0.011509933 -0.015200496
000370 92 a5 ad bc 7d 9a d4 bc 15 fd 96 3b 8e a1 43 bb
       -0.021197114 -0.025952572 0.0046078064 -0.0029850933
000380 70 a9 0f 3c 93 3c 5e 3b 07 f9 0d 3c 8a 5e 5f 3c
       0.008768424 0.0033910617 0.00866533 0.01363338
000390 16 45 49 bd a9 93 41 bd 17 92 34 bd e1 f3 12 a4
       -0.04913815 -0.04725996 -0.044084635 -3.1865277e-17
0003a0 d0 db c1 a4 da ab 3b a4 f2 1a 60 3c 10 29 80 3c
       -8.4072785e-17 -4.0694725e-17 0.013678299 0.01564458
0003b0 c0 de 92 3c 9a cb 8f 3c c2 07 86 3c 9b 8b 2e 3c
       0.017928481 0.01755314 0.016361121 0.010653402
0003c0 19 fe b6 bc 95 82 c1 bc d8 4d a2 bc b5 03 80 3c
       -0.02233796 -0.023621837 -0.01981251 0.015626768
0003d0 04 71 aa 3c a9 5c 97 3c de 10 30 bc af 1a 2f bc
       0.020805843 0.018476801 -0.010746209 -0.010687514
0003e0 d0 98 4c bb 98 dd 3b b9 f1 dd fd 3b 73 91 48 3c
       -0.0031219013 -0.0001791626 0.0077474047 0.012241709
0003f0 61 a4 0a 3d 15 f6 d9 3c 0c ef d6 3c 40 60 26 3d
       0.03384817 0.026606599 0.026237033 0.040619135

temporal_conv.2.bias f4 [256]
000000 ec 96 1a 3d 1c ed c9 a5 2f 79 0f ba b2 3d 32 bc
       0.037741587 -3.5028613e-16 -0.0005473075 -0.010878967
000010 f7 b8 41 3d 28 d4 1b 3b 11 b0 5b ac 92 d6 65 3d
       0.047295537 0.0023777578 -3.1219508e-12 0.056112833
000020 3a 43 25 ac 64 af 1c bc 26 0a 8c 3b 49 f8 4a 3d
       -2.3485229e-12 -0.009563301 0.0042736707 0.04955319
000030 53 3a cc 3b 56 21 11 3d 05 61 b7 ba 4c 47 04 3d
       0.0062325387 0.035432182 -0.0013990706 0.032294556
000040 9e 61 0b bd dc c7 44 bb 72 1f 66 3d 14 1d ab 3c
       -0.034028642 -0.0030026352 0.056182332 0.020887889
000050 0c 30 03 ba d9 b6 bb bc e6 f7 39 3d 4f 43 d5 3b
       -0.0005004413 -0.022914337 0.04540243 0.006508268
000060 6a 27 45 bc 54 59 0d 3d 1a 80 b9 bc 79 34 1b b4
       -0.012033323 0.034509018 -0.022644091 -1.445459e-07
000070 9c db d1 ae 27 f3 34 3d d3 6a c1 3b fc 8d 13 bd
       -9.54323e-11 0.0441772 0.005902627 -0.03602408
000080 9d 16 d2 bc ae dd 9d 3c d0 e6 a8 3c cb d0 d0 3c
       -0.025645548 0.019270744 0.020617872 0.025490185
000090 86 e8 e5 3c 07 df ac ae 07 a3 14 bd 65 d6 d2 3c
       0.028064977 -7.861272e-11 -0.036288287 0.025736997
0000a0 c1 7e 69 bc 97 98 3c 3d 30 84 24 3d 00 e5 45 3c
       -0.014251412 0.04604396 0.040165126 0.012078524
0000b0 97 e4 fe 3c 44 c9 81 bd a8 05 78 3c 13 c1 00 3d
       0.03111486 -0.063372165 0.015138067 0.03143413
0000c0 4d 36 fc b9 61 50 a3 3c d8 bc 1b 3c 39 42 96 bb
       -0.00048105643 0.019935789 0.009505473 -0.004585531
0000d0 d2 fb 47 3d 2e bb 0f 3d 9c 5a 1b bc fc a7 48 3d
       0.04882414 0.035090618 -0.009482052 0.048988327
0000e0 43 a4 a3 bc 03 82 0b 3d d8 35 84 bc e3 10 a8 3c
       -0.019975787 0.034059536 -0.016138956 0.020515865
0000f0 f5 61 00 bc ef 57 e9 bc 2a 0d 5f 3d a8 0d 0b 3b
       -0.007835855 -0.028484313 0.054455914 0.0021217857
000100 68 46 f4 bc 79 29 90 3c 9a 02 18 bd 7c d6 b6 9e
       -0.029818729 0.0175979 -0.037111856 -1.9358708e-20
000110 02 78 37 3d 19 71 fc 3c db 1b 11 bb 83 15 84 ba
       0.044792183 0.030815648 -0.0022141847 -0.0010077212
000120 89 21 6a 3d a1 61 90 3b 23 42 c2 b7 41 ee 2d 3d
       0.057160888 0.0044061695 -2.31574e-05 0.042463545
000130 98 0f 31 3d b2 39 8e 3c d9 11 5b 3d 36 f1 ac 3c
       0.043227762 0.017361496 0.053483818 0.021111112
000140 05 cc a4 3b 86 b1 78 93 a1 68 a8 3c 98 6f 06 3d
       0.005029204 -3.1389527e-27 0.020557703 0.032821268
000150 b3 0c 30 bb 61 af e7 3c d8 11 b3 3c 49 de 2c 3d
       -0.0026863038 0.02828187 0.021859095 0.042204175
000160 8f 45 8f b2 5b 14 40 3b 05 60 71 3d 8d 06 60 3d
       -1.6679023e-08 0.0029309008 0.058929462 0.054693747
000170 34 a9 ba 99 a3 8f 82 3d 02 11 19 3d 8a 87 99 8e
       -1.930029e-23 0.06375053 0.037369736 -3.784793e-30
000180 08 c1 ea bb d4 51 a6 bc 0a 39 87 3c b5 b1 c8 bb
       -0.0071641244 -0.02030269 0.01650669 -0.0061247
000190 ac cf 88 3c 2f 68 0c 3d e6 d2 be 3b 81 d9 60 3d
       0.016700588 0.034279045 0.005823481 0.054894928
0001a0 b8 59 fc 3a 8a a8 bb ab 20 e3 00 3d 39 35 98 bc
       0.0019252812 -1.3333928e-12 0.031466603 -0.018580066
0001b0 a5 af 56 bc 46 d7 01 3c 5f 5f 35 3d 20 8c 14 bc
       -0.0131034 0.00792486 0.044280406 -0.0090666115
0001c0 98 21 6c bd ee 83 7a bc 79 72 11 3d 07 09 dc 3c
       -0.057649225 -0.015290244 0.03550956 0.026859773
0001d0 2d fc 64 3c 86 8c 2d bc b4 c3 36 bc 1f 76 ad 3b
       0.013976139 -0.010592585 -0.011155058 0.005293622
0001e0 bd af 2c 3c 90 26 35 3d a3 0a 8a 3c bb c4 1d b8
       0.010539946 0.04422623 0.016850775 -3.7614936e-05
0001f0 04 05 7b 3c 18 74 ef 3c 38 b8 6a bb 09 e7 36 ba
       0.01532102 0.029230163 -0.003581537 -0.0006977176
000200 79 03 32 b9 6e 21 89 bb 3e 67 f0 3c 1b 01 a5 3a
       -0.00016976696 -0.0041848933 0.029346105 0.001258883
000210 82 9a 11 bd 7f 94 80 bc 52 ce 0e bd f6 b9 a2 39
       -0.03554774 -0.015695808 -0.03486473 0.000310376
000220 68 2b 42 3d e0 8b b1 3b 0e 42 18 bc 32 53 09 bd
       0.047404677 0.0054182857 -0.009293092 -0.033526607
000230 68 a0 81 ba b9 11 f6 3c d6 a5 09 3d 61 76 bf a6
       -0.0009889724 0.030037748 0.03360542 -1.3285374e-15
000240 f0 de 01 aa f2 b3 a7 3b e9 ef b3 3c ea 3d 89 3d
       -1.1534849e-13 0.0051178867 0.021964984 0.06701262
000250 1c aa 12 a9 04 dd 27 3c 2d fe 54 3d 29 d4 07 3c
       -3.256606e-14 0.010245565 0.052000213 0.008290329
000260 1a 5d 2a 3c b5 ab 9b b4 10 bb 07 3d dc 32 4d ba
       0.010398174 -2.8995933e-07 0.03313738 -0.0007827708
000270 46 18 8d 3c 5c 73 05 3d c6 9f 6f bc 4c 4b 28 b6
       0.017223489 0.03258072 -0.014625495 -2.507778e-06
000280 09 ec 9b 3c 95 02 f7 3c 33 4f 11 3d 97 2e 37 bc
       0.019033449 0.030152598 0.03547592 -0.0111805415
000290 59 55 22 b1 6e bd b2 3c 59 1b 07 3d 08 0c 7d 3d
       -2.3622617e-09 0.021818843 0.032985065 0.061779052
0002a0 6a ad 1f b1 53 f2 c6 bb 9a ee 94 a7 77 10 68 bc
       -2.323612e-09 -0.0060713678 -4.1336944e-15 -0.014164082
0002b0 00 4e 60 bc b2 a1 01 3d 08 a2 7e 97 c8 97 0d bc
       -0.013690472 0.031648345 -8.227634e-25 -0.0086421445
0002c0 d0 3f 12 b9 c5 f3 49 3c 05 58 d4 b6 e6 4e 0e b7
       -0.00013947417 0.012326186 -6.328339e-06 -8.4822295e-06
0002d0 da 5f 98 3c 94 2d 15 b2 ab 6b 67 3d 40 d2 64 bd
       0.018600393 -8.683305e-09 0.056499165 -0.055864573
0002e0 a0 f0 2e 3d 09 4c 87 3d b7 86 06 bd 00 c9 78 3c
       0.042709947 0.066062994 -0.032843318 0.015184641
0002f0 12 cc 46 3c 7c e0 e3 3c 39 ea f1 3b 3f aa 9e 3c
       0.012133615 0.027817003 0.007382658 0.019368289
000300 82 30 57 bd 05 44 ec bb f7 2f 8d bb e7 a5 98 3b
       -0.052536495 -0.007210257 -0.0043086964 0.004658449
000310 c4 c9 7b 3c c6 43 c2 3c d3 74 2a bd 84 8e 74 3d
       0.015367929 0.023713958 -0.04161532 0.059706226
000320 8c e8 b8 bb a9 94 d5 3c 30 7d c8 3c 0b 7a 8c bc
       -0.005642956 0.026071863 0.024473757 -0.017148038
000330 15 f7 e6 ba 8f 53 c1 bb d7 f2 d9 3c 8c b1 19 3d
       -0.0017621244 -0.0058998535 0.026605053 0.037522838
000340 8e 91 55 3d b5 be 24 bc e0 5b 96 3c 95 31 82 b2
       0.052140765 -0.010055234 0.018354356 -1.515654e-08
000350 d4 0e 31 3d eb 49 4d 3c 5d 42 d7 bc 23 39 06 bc
       0.04322703 0.01252983 -0.026276762 -0.008192333
000360 e7 8c 1e 3c f7 4b 28 3d 56 2a 57 3d 52 be 6f 3d
       0.009677148 0.04108807 0.05253061 0.058531113
000370 6d 72 21 bc b4 94 e0 ba fd bc fb 3c e4 31 a9 3c
       -0.009853941 -0.0017134161 0.030729765 0.020653673
000380 cf fc db 39 f1 04 11 bb 96 36 89 3b a9 6e 4f 3c
       0.00041959292 -0.002212819 0.0041874154 0.012660661
000390 8f f3 25 3d 98 81 b8 bc a1 e3 12 3c 3f 36 3b 3d
       0.04051548 -0.022522733 0.008965404 0.04570603
0003a0 84 7d 4a 3c c0 36 dc 3c f4 7b 34 3d db 4f 15 bd
       0.012359027 0.026881576 0.044063523 -0.03645311
0003b0 2c 2e d3 bc 5c 90 e3 bc 77 dd 08 bc af ce f1 bc
       -0.025778852 -0.027778797 -0.008353583 -0.0295175
0003c0 ac 95 67 bc bd 83 28 3d 4f 9d 44 3d ed 37 c5 ba
       -0.014134806 0.04114126 0.048001584 -0.0015046574
0003d0 b5 77 58 3d cf 77 47 3d 41 71 88 3c f4 fa a3 3c
       0.052848537 0.048698243 0.016655566 0.020017125
0003e0 84 5d 8e 3d f4 70 63 bc 17 94 58 bc 96 4b a5 a0
       0.069514304 -0.013881911 -0.013218901 -2.8002106e-19
0003f0 94 06 75 3c 05 ad 2b bb 2b a3 48 3d 18 d6 a0 bc
       0.014955182 -0.0026195657 0.048983734 -0.019633338

fc.weight f4 [5, 256]
000000 9c c5 d1 3c 01 e5 c7 b5 49 45 46 3b aa c9 9a bb
       0.025606923 -1.4893304e-06 0.00302537 -0.0047237473
000010 c3 5c 6d 3c f7 9a 10 be d0 20 22 b4 64 4a 84 3c
       0.014487448 -0.14121614 -1.5099363e-07 0.016148753
000020 b0 70 23 ba b1 7d 40 bd de 2f 59 3e 6a ca 95 3d
       -0.0006234748 -0.04699487 0.21209666 0.07313998
000030 76 6c 20 3e 2d 0e ce bd 8a 82 d7 b9 a2 dc e2 bc
       0.15666375 -0.100612976 -0.00041105255 -0.027693097
000040 6c 12 61 bd 91 71 9c 3d 08 e3 2e 3d 95 5f cb bc
       -0.05494921 0.076388486 0.042696983 -0.02482585
000050 32 39 83 ba 6c 6c 0e bf 7d c1 cd 3d 0d 3e 11 be
       -0.0010011552 -0.5563419 0.100466706 -0.14183827
000060 de a2 94 3d 68 0c 47 3e 39 f6 3d bc 2d e5 79 38
       0.07257627 0.19438326 -0.011594349 5.9579663e-05
000070 96 ff 7a 3a cf 46 09 3d 7a d3 fd 3d d9 2c 85 bd
       0.00095748284 0.033514794 0.123938516 -0.06502695
000080 af 3a d5 bd 9e 07 f4 bd 03 1d f2 3d 54 91 e5 bc
       -0.10411584 -0.11915515 0.1182194 -0.0280234
000090 2a 68 24 3e b4 18 49 ba e7 81 96 bd 69 52 e6 bb
       0.1605536 -0.00076712226 -0.07348996 -0.007028867
0000a0 f1 3f 5c bf 92 78 04 3e e4 d5 8a 3c 8a 80 f4 be
       -0.86035067 0.12936619 0.016947694 -0.47754318
0000b0 37 05 53 3d f2 98 2d bf d6 ab 0b be 27 bc e1 3d
       0.051518645 -0.678115 -0.13639769 0.11022215
0000c0 7e b9 5e 3a ee 00 5b be 8e fa c0 be 00 71 51 bd
       0.00084962684 -0.21387073 -0.37691158 -0.051133156
0000d0 b0 b8 0d 3e 01 6e 98 3c ef 1e 1a be 2c e9 d5 bd
       0.13839984 0.018607141 -0.15050863 -0.10444865
0000e0 f5 32 e3 be 00 7f c8 bd 75 00 4c bd 8f e1 87 3d
       -0.44374815 -0.09789848 -0.049805123 0.06634819
0000f0 fd fb 61 3d ef 44 13 bf d2 c6 1d 3e 6d 26 47 bd
       0.055171955 -0.5752706 0.15407875 -0.04862063
000100 e1 f2 86 be bf 6d 30 3e ea 5f dc be 86 31 b4 37
       -0.26357177 0.17229365 -0.43041927 2.1480733e-05
000110 69 76 a3 3d a6 b0 89 3d b5 93 16 bf 6d c6 51 bb
       0.07981569 0.06723146 -0.58819133 -0.003200914
000120 a2 0f ff 3d 95 a2 1c 3e e8 5d 0b bf ce 4a d4 3c
       0.124541536 0.15296395 -0.54440165 0.025914576
000130 0a 16 74 3d 0f b2 79 be 1a 1b 37 3e 84 26 6b be
       0.05959133 -0.2438433 0.17881432 -0.22963911
000140 5a 18 c2 3d a9 b5 63 36 a6 e4 c2 bc e2 68 8a bd
       0.09477301 3.3931376e-06 -0.023790669 -0.06758286
000150 0b 8a cd be 39 34 b1 be a8 69 c6 bd 5e 71 c5 3d
       -0.4014438 -0.34610155 -0.09688121 0.09640764
000160 9d b1 ba b8 be a2 b5 3d de 42 f7 3d 3b 81 d0 3d
       -8.902254e-05 0.08868931 0.12073301 0.10180899
000170 6a cd e2 b8 40 10 50 3e 14 d2 2e 3d e4 b6 ae b7
       -0.00010814781 0.20318699 0.042680815 -2.0827581e-05
000180 c3 01 83 be ae 91 11 be fe 8d 58 3e 1d 41 74 bd
       -0.25587282 -0.14215729 0.21147916 -0.05963241
000190 1f ef 64 be c0 fe 02 3d c7 20 fe 3d 71 66 df 3d
       -0.22356842 0.03198123 0.124085955 0.10908211
0001a0 fa ef 8e 3d 1f 83 b1 39 6f 6f a4 3d 2f bf f0 bd
       0.06979366 0.00033857764 0.08029067 -0.117552154
0001b0 b1 80 63 3d ce a9 d5 be b4 2f e9 3d e4 0b 0e 3d
       0.05554265 -0.41731113 0.11386052 0.03467931
0001c0 1a fd 21 bf ea 8a c5 3c c9 2a 0d be 87 fb 24 3d
       -0.6327683 0.024114091 -0.13785852 0.040278938
0001d0 4a 01 39 3d 7e 09 27 3d 7a 99 71 bd ce 3e 5c 3d
       0.045167245 0.040780537 -0.058984257 0.053770833
0001e0 e2 10 0d 3e 87 98 f9 3d 49 17 2e 3d 9b 48 c1 ba
       0.13775972 0.121872954 0.042502675 -0.001474637
0001f0 e2 5f a1 bd de b1 90 be 08 33 e4 bc 74 7e 6a bb
       -0.07879616 -0.28260702 -0.027856365 -0.0035780938
000200 79 c6 2b 37 1e 64 4d 3c 47 f6 cc 3d 03 21 9e 3d
       1.0238605e-05 0.012536077 0.10007911 0.0772114
000210 65 d4 16 bf fa 88 fd be ae 1c 2f bf ab 48 2d be
       -0.5891784 -0.49518567 -0.68403137 -0.16922252
000220 b9 6b b5 3d 36 9e a1 be 41 b6 79 3c e1 22 e8 bd
       0.08858437 -0.31566018 0.015241207 -0.113347776
000230 ac bc 9f be 53 4e 11 3d 07 70 c8 3d 92 6b c8 b8
       -0.31198633 0.035475086 0.097869925 -9.55678e-05
000240 76 02 b3 36 45 de 39 3e 84 ec bf be 46 b9 53 3d
       5.334902e-06 0.18151195 -0.37485135 0.051690362
000250 c3 f9 53 3a 8b 70 c9 3d 75 31 6f 3d 9b c1 60 be
       0.00080862286 0.09835919 0.058396775 -0.21948855
000260 c7 77 ed 3c 7e 2b 2e 39 39 aa fc 3d 87 4e a3 bd
       0.028987778 0.00016610135 0.12337155 -0.07973962
000270 02 ea 07 3e 10 75 1f 3d e8 48 85 3b ef 48 09 36
       0.1327286 0.03893 0.004067529 2.0457044e-06
000280 c6 ba c1 3d da 49 a2 be 8a 73 91 bc e3 16 0a be
       0.09459452 -0.3169697 -0.017755289 -0.13485293
000290 51 84 2d 39 e3 71 91 3d 98 e1 d6 3d 5e 9c 31 3e
       0.00016547857 0.071018 0.10492247 0.17344806
0002a0 7e d4 aa ba 3e 6d d8 bd 67 8b 83 b8 2e 47 89 be
       -0.0013033298 -0.10567711 -6.2725325e-05 -0.26812118
0002b0 b6 5c 14 be 3d 63 cb 3c 09 69 58 b9 4b 33 d5 be
       -0.14488491 0.024827594 -0.00020638494 -0.41640696
0002c0 a2 8a ec 3a 05 57 af be 3e 41 ab 3a c5 b7 0f 3b
       0.0018046687 -0.34246078 0.0013065708 0.0021929604
0002d0 8d cb 5e be 3e 9f e1 b9 63 40 25 3e e8 c0 28 bf
       -0.21757336 -0.0004303399 0.16137843 -0.6591935
0002e0 28 ee aa 3d 7b 00 1f 3e 97 76 f1 be 42 24 98 be
       0.08346206 0.15527527 -0.4716079 -0.29715163
0002f0 9f 56 8a bc ae 88 7e bc 09 40 b6 bd 97 a6 4f bd
       -0.016887007 -0.015535517 -0.088989325 -0.05069598
000300 f4 1f 96 be 7c 7f 14 be bb 65 06 3e 46 e3 ed be
       -0.29321253 -0.14501756 0.13124745 -0.46462458
000310 aa b2 29 bc ca e4 14 be 1b d9 bd 3b 59 ec dd 3d
       -0.010357538 -0.14540401 0.0057937033 0.10836095
000320 8b 2f 3a bd 0c 4b 53 3d b4 6b 7d 3c 19 33 a8 bd
       -0.045455497 0.051585242 0.015467573 -0.08212871
000330 dc 34 0c be 71 3b 18 3e e7 fa c1 3d 0f b0 11 3e
       -0.13692039 0.14866425 0.09471684 0.14227317
000340 76 1e aa 3d b9 ea 1e be 91 f6 f8 3d 12 55 cc ba
       0.08306591 -0.15519227 0.12156404 -0.0015589318
000350 fa f1 16 3d 4c 16 ec bd 77 6b 90 be e1 74 c1 be
       0.03685186 -0.1152769 -0.2820699 -0.37784484
000360 77 51 09 bd bd 68 e0 3d 86 ee 5b 3e 7a d5 23 3e
       -0.033524957 0.10957477 0.21477708 0.15999404
000370 97 2e 99 bd 6d 7c 12 bb 39 e2 fe 3d 69 4e 86 bc
       -0.074795894 -0.0022351996 0.12445492 -0.01639481
000380 5a ea d7 3d 85 53 54 bf 32 36 db 3d e5 5c 74 bc
       0.10542746 -0.8293994 0.10703696 -0.014914726
000390 6d 03 85 3d 81 59 0c bd ab 55 08 bf dd 53 71 3d
       0.06494794 -0.034265045 -0.5325572 0.05891787
0003a0 2f 28 04 bf 2c fc 03 3d 8f f5 9e bd 1e e4 de be
       -0.51623815 0.03222291 -0.0776168 -0.43533415
0003b0 8e dc a1 bc 81 63 0a bf ef a9 ce bd 4a 81 b8 be
       -0.019758489 -0.5405808 -0.10091006 -0.3603614
0003c0 a5 fd 92 bd f6 78 e8 bd a4 95 2f bc 1c f1 0e bb
       -0.07177285 -0.113511965 -0.010716829 -0.0021811193
0003d0 43 d2 d5 bc de 19 3a 3e e1 f6 ef bb 5b af 59 3e
       -0.026101237 0.1817393 -0.0073231314 0.21258299
0003e0 c8 59 19 3e 74 bb 98 3d 5b 8b 2a be 4d 44 95 37
       0.14975655 0.07457629 -0.16654722 1.779399e-05
0003f0 29 e9 0a 3e 4c d9 90 bd e4 a1 70 3e 2d 18 68 be
       0.13565506 -0.07072696 0.23499256 -0.22665472

fc.bias f4 [5]
000000 71 47 f1 3c 53 b5 7c bd da de 82 bb 44 93 74 3c
       0.029453011 -0.06169636 -0.003993851 0.014927689
000010 b9 bc f7 3c
       0.030241357
