tcnn_hand_posture.pt (torch, 499981 bytes, 6 tensors)

temporal_conv.0.weight f4 [128, 63, 3]
0	0x3d5a719e	0.05333101
1	0xbc2b9ee6	-0.010474896
2	0xbd3006fa	-0.042975403
3	0x3c8ccba1	0.017186942
4	0xbd325f70	-0.043548048
5	0x3ce9d399	0.02854328
6	0xbceb6530	-0.028734773
7	0xbb85acee	-0.0040794527
8	0xbd871128	-0.06595069
9	0xbd8548b3	-0.06508007
10	0x3d7567bd	0.059913386
11	0xbd012876	-0.031532727
12	0x3d0363a4	0.032077447
13	0xbd9dab7e	-0.07698725
14	0xbd43faad	-0.047846485
15	0x3cf14123	0.029450005
16	0xbce479c2	-0.02789009
17	0x3d1f1942	0.038842447
18	0x3d2c998a	0.042138614
19	0xbcaa976e	-0.02082416
20	0xbd0f60cf	-0.035004433
21	0xbc480102	-0.0122072715
22	0xbcd36e5a	-0.025809456
23	0xbcab5718	-0.020915553
24	0xbcd9b31f	-0.02657467
25	0xb97f1685	-0.00024327084
26	0xbc899606	-0.01679517
27	0x3d0a674f	0.03378993
28	0xbd6271e3	-0.055284392
29	0x3d6c89ba	0.057748534
30	0xbd88105f	-0.066437475
31	0xbd4ed926	-0.050500058
32	0x3d549aa7	0.0519053
33	0xbc9b310e	-0.01894429
34	0x3d172d7e	0.03690862
35	0x3d85d87c	0.06535432
36	0xbd80d1fe	-0.06290053
37	0xbd492be8	-0.049114138
38	0xbd131b86	-0.03591492
39	0x3d123379	0.03569362
40	0xbd10fc17	-0.03539666
41	0xbc2d441c	-0.010575321
42	0xbc08987e	-0.008337138
43	0x3d063db6	0.032773696
44	0x3d1df045	0.038559217
45	0x3d81014d	0.06299076
46	0x3d2e169d	0.042502034
47	0xbd6f62d4	-0.05844386
48	0xbd614853	-0.055000614
49	0xbbef2c59	-0.007298988
50	0xbd9d7e0d	-0.07690058
51	0xbd3d0f7b	-0.04615734
52	0x3b81da40	0.003962785
53	0xbca68377	-0.02032636
54	0x3c737505	0.014859443
55	0xbd1c318f	-0.0381332
56	0x3ceb25d6	0.028704565
57	0xbd98768f	-0.07444488
58	0xbccf470a	-0.025302429
59	0xbd56f8e3	-0.05248345
60	0xbd8eb697	-0.0696842
61	0xbc7bb9da	-0.015364135
62	0x3cd1798c	0.025570653
63	0x3d312707	0.04325011
64	0xbcccf6ce	-0.02502003
65	0xbd566b49	-0.05234841
66	0xbc006e1b	-0.007838751
67	0x3c08749c	0.008328583
68	0x3c871bbe	0.01649272
69	0x3d41998e	0.04726558
70	0x3cf4ddd8	0.02989094
71	0x3d7b4f3c	0.06135486
72	0xbcb4390b	-0.021999856
73	0x3c774add	0.015093532
74	0x3d593cc5	0.05303647
75	0x3d06e4e3	0.032933127
76	0xbd901c0f	-0.07036602
77	0x3d511f8a	0.05105547
78	0x3d4664d4	0.048436
79	0xbc84b578	-0.016199812
80	0xbd9e78f3	-0.07737913
81	0x3d644255	0.05572732
82	0xbcef9618	-0.029246375
83	0xbbecb57d	-0.0072237835
84	0xbd873b7a	-0.06603141
85	0xbd979c0f	-0.07402813
86	0x3d8287c4	0.063735515
87	0xbd856c48	-0.06514794
88	0x3d7db795	0.061942656
89	0x3cacfd87	0.021116985
90	0xbc1960e5	-0.00936148
91	0x3d5f5430	0.054523647
92	0xbce8c27d	-0.028413052
93	0xbd79b5fd	-0.060964573
94	0x3cfc608c	0.030807756
95	0x3ccfbd22	0.02535874
96	0x3c919254	0.01776997
97	0xbcfb371b	-0.030665925
98	0x3d7d24c3	0.061802637
99	0xbd043bfe	-0.032283776
100	0x3c13655a	0.008996332
101	0x3cf669f6	0.030079823
102	0x3d199164	0.03749217
103	0x3d88cdca	0.06679876
104	0xbd929917	-0.07158106
105	0x3c96c518	0.018404528
106	0x3cee4012	0.029083285
107	0x3d941dda	0.07232256
108	0xbc9d24ed	-0.019182647
109	0xbcbf055d	-0.023317987
110	0xbd93c069	-0.07214434
111	0x3c3ffd86	0.01171816
112	0xbd66001a	-0.05615244
113	0xbcbdd29f	-0.023171721
114	0x3cb18408	0.021669403
115	0x3d14f4e8	0.036366373
116	0xbd1b4ea2	-0.037916787
117	0x3ba9d637	0.005183007
118	0xbd35418b	-0.04425196
119	0xbcbc978f	-0.023021488
120	0xbc9cb829	-0.019130783
121	0x3d63ad92	0.05558545
122	0x3d5d3f16	0.05401524
123	0xbc580110	-0.013183847
124	0xbd8336d3	-0.06406941
125	0x3d93fb7e	0.07225703
126	0x3d86c12e	0.06579815
127	0xbd94e092	-0.07269396
128	0xbceb93b4	-0.028756954
129	0xbd9e63c5	-0.07733873
130	0xbd17cec5	-0.037062425
131	0x3d5f836e	0.0545687
132	0x3d7eccc6	0.062207006
133	0xbd56d163	-0.05244578
134	0x3d2e0359	0.04248366
135	0xbd2a4b04	-0.041575447
136	0x3c926309	0.01786949
137	0xbd810122	-0.06299044
138	0xbd69915d	-0.057023395
139	0x3d4d7666	0.05016174
140	0xbd1287e5	-0.03577413
141	0xbba494a6	-0.005022603
142	0x3caa41c3	0.02078331
143	0x3d9ed7ca	0.07756002
144	0xbc76c6a0	-0.015062004
145	0xbd4fc948	-0.050729066
146	0xbcdf808d	-0.027282977
147	0xbd73b342	-0.059497125
148	0xbd9d34e6	-0.07676105
149	0xbc356abb	-0.01107281
150	0xbbc8268b	-0.0061081103
151	0x3d5a72e0	0.05333221
152	0xbd76e088	-0.060272723
153	0xbd77f346	-0.060534738
154	0xbcb10e43	-0.021613246
155	0xbd0f384a	-0.03496579
156	0x3cf68c87	0.030096306
157	0x3d851c02	0.06499483
158	0x3d67f6c2	0.05663181
159	0xbc9f5351	-0.019448908
160	0xbd60ff55	-0.054931004
161	0xbaa3fb21	-0.0012510755
162	0x3c80c5d1	0.015719326
163	0xbc2f27bf	-0.010690629
164	0x3be930ed	0.007116428
165	0x3c40d482	0.011769416
166	0xbd3870f5	-0.0450296
167	0x3d54957c	0.051900372
168	0xbd87bcc8	-0.06627804
169	0xbc6b65f1	-0.014367566
170	0xbd1bcea2	-0.038038857
171	0xba2657fa	-0.0006345507
172	0x3b498247	0.0030747817
173	0x3d7278cc	0.059197232
174	0x3beb086d	0.0071726353
175	0x3ca07d83	0.019591099
176	0xbd736ae2	-0.059428103
177	0x3d98ef80	0.07467556
178	0xbd493036	-0.049118243
179	0x3d477dd8	0.048704
180	0x3d23fd01	0.040036205
181	0x3bf8a552	0.007588067
182	0xbc512ee8	-0.012767531
183	0xbd55a75f	-0.05216157
184	0xbd803973	-0.062609576
185	0x3d558452	0.052128144
186	0xbd513f5a	-0.051085807
187	0x3cd6aed6	0.026206415
188	0xbd49e610	-0.04929167
189	0xbf1539b4	-0.58291173
190	0xbef0ac2f	-0.47006366
191	0xc00e0c86	-2.2195144
192	0xbe4d2780	-0.200346
193	0x3f37c316	0.7178205
194	0x3f1d962d	0.61557275
195	0xbe6ef7d0	-0.2333672
196	0xbeafab0f	-0.34310195
197	0xbe661d4e	-0.22472116
198	0xbe93712f	-0.2879729
199	0x3ea19453	0.31558475
200	0x3e84cbb1	0.25936654
201	0xbf0be504	-0.54646325
202	0x3f46a544	0.77595925
203	0xbf367c50	-0.71283436
204	0x3d6c0120	0.05761826
205	0x4045640f	3.084232
206	0x404d3f38	3.2069836
207	0xbe9fa1ab	-0.3117803
208	0x3d53f6ee	0.051749162
209	0x3da5eb77	0.08101552
210	0xbefde0a8	-0.49585462
211	0x3f317de4	0.6933272
212	0xbfc3357c	-1.5250697
213	0x3deb0295	0.11475102
214	0x405ccaef	3.449886
215	0x406a0027	3.6562593
216	0xbebf9806	-0.37420672
217	0x3e013c46	0.12620649
218	0x3e74cfa0	0.23907328
219	0xbf1c432c	-0.61039996
220	0x3f30a380	0.6899948
221	0xbf87b66f	-1.0602549
222	0x3dbc363a	0.091900304
223	0x407d7e47	3.9608324
224	0x408425b6	4.1296034
225	0xbee05942	-0.43818098
226	0x3dcad2cc	0.099034876
227	0x3e19dd7c	0.15025896
228	0xbf1e0350	-0.61723804
229	0x3f94891e	1.1604345
230	0x3d2cbb51	0.042170826
231	0x3e2a6701	0.16640855
232	0x40824fa4	4.0722218
233	0x4089ad42	4.3023996
234	0xbf166cae	-0.5875958
235	0xbc0b3649	-0.008496829
236	0x3d567b0e	0.052363448
237	0x400eb3af	2.229717
238	0xbf53dff8	-0.82763624
239	0xbfa0fa2e	-1.2576349
240	0xbe91c9fe	-0.2847442
241	0x40138191	2.304783
242	0x40084261	2.1290514
243	0xbeec83cb	-0.461943
244	0x3df00df2	0.1172141
245	0x3e3c45a6	0.18385944
246	0xbc57586c	-0.01314364
247	0x3fb21714	1.3913293
248	0x3fd11924	1.6335797
249	0xbd860957	-0.0654475
250	0x3fec44da	1.8458512
251	0x3feb590e	1.8386552
252	0xbef60789	-0.48052624
253	0x3cbd22af	0.023087827
254	0x3d9b441c	0.0758135
255	0xbf253a33	-0.6454193

temporal_conv.0.bias f4 [128]
0	0x3d45936b	0.04823629
1	0x3e78ffe3	0.24316363
2	0xbd018e0e	-0.031629615
3	0xbe483465	-0.19551237
4	0xbd8df9f6	-0.06932442
5	0xbe8c959b	-0.2745789
6	0x3e5ff3a7	0.2187029
7	0x3d2cd6a5	0.04219689
8	0xbd06d631	-0.032919113
9	0x3d8c5cc1	0.06853629
10	0x3cca2164	0.024674125
11	0xbcf3d198	-0.029763028
12	0xbd2092e5	-0.03920259
13	0xbc69b49a	-0.01426425
14	0xbb06df74	-0.0020579966
15	0x3b50a88a	0.0031838738
16	0xbd2e4f9b	-0.042556386
17	0xbcffaeb5	-0.031211236
18	0xbd951c54	-0.07280794
19	0x3e25371c	0.16134304
20	0x3e2ddbde	0.16978404
21	0x3c318381	0.010834576
22	0x3cf3253c	0.02968084
23	0xbcb5020a	-0.022095699
24	0xbd738033	-0.059448432
25	0x3cb6c871	0.022312375
26	0x3cbb50ac	0.022865616
27	0xbd847984	-0.0646849
28	0x3cc5abf2	0.024129841
29	0xbd703344	-0.05864264
30	0x3d61a9dc	0.05509363
31	0xbda11e29	-0.07867081
32	0x3e888dfd	0.26670828
33	0xbe6ff9a1	-0.2343507
34	0xbd7ec8ea	-0.062203325
35	0xbd143115	-0.03617962
36	0xbdc60b1a	-0.09670086
37	0xbbc9608a	-0.0061455416
38	0xbd68637a	-0.056735493
39	0xbcfbab04	-0.030721195
40	0xbb96e7df	-0.004605278
41	0x3cca75ec	0.024714433
42	0xbd4e8a4d	-0.050424863
43	0x3d13f97c	0.0361266
44	0x3d88bc81	0.06676579
45	0xbdb31a45	-0.08745245
46	0x3deb535b	0.11490508
47	0xbdcf7465	-0.10129622
48	0x3d119f12	0.035552092
49	0x3cfba715	0.03071932
50	0x3de6bd83	0.11266615
51	0x3eac3501	0.3363419
52	0xbbd70e8e	-0.0065630144
53	0x3d6cba6b	0.05779497
54	0xbd47bab8	-0.048762053
55	0xbd79a84a	-0.06095151
56	0xbd158813	-0.036506724
57	0x3ba759b0	0.005107127
58	0x3dd1ca91	0.102437146
59	0xbd76fe8b	-0.060301345
60	0x3cbcf0df	0.023064075
61	0x3c0a3348	0.008435078
62	0x3e811488	0.25210977
63	0x3d3935ed	0.045217443
64	0xbd960f98	-0.07327193
65	0xbbca3031	-0.0061702956
66	0xbd316fd3	-0.043319535
67	0x3d952a46	0.07283454
68	0xbd17c4a9	-0.037052784
69	0xbdb15a81	-0.086598404
70	0xbe09cfa1	-0.1345811
71	0xbc54f280	-0.01299727
72	0x3cd119d9	0.02552502
73	0x3a74f4d6	0.0009344345
74	0x3acebbd8	0.0015772535
75	0xbb70e1bd	-0.0036755644
76	0xbd863fde	-0.065551504
77	0x3d8e3537	0.06943744
78	0x3cc90c4f	0.024542002
79	0xbcd6ef72	-0.026237223
80	0xbd93ccce	-0.07216798
81	0xbd1d3969	-0.03838483
82	0x3d151487	0.03639653
83	0x3d4cc541	0.049992803
84	0x3cc0a6c0	0.023517013
85	0xbd9bd981	-0.07609845
86	0x3bb6120b	0.00555635
87	0x3e0c19d9	0.13681735
88	0xbb30bde1	-0.0026968645
89	0xbd0fd4cf	-0.03511506
90	0xbd845a8a	-0.064625815
91	0xbe0316c2	-0.1280165
92	0xbda5f02d	-0.081024505
93	0xbc179e4d	-0.00925405
94	0x3d08ece5	0.033429045
95	0xbe700106	-0.2343789
96	0x3d05c6c9	0.03266028
97	0xbd610ce8	-0.05494395
98	0x3e5a53b9	0.21321
99	0x3b9af1af	0.004728518
100	0xbcb52ad1	-0.022115143
101	0x3d2a2c56	0.04154619
102	0xbd2b1b98	-0.041774362
103	0xbd6e4ea8	-0.05818048
104	0x3d18ad26	0.037274502
105	0x3c1e4342	0.00965959
106	0xbb71ee9a	-0.00369159
107	0x3d4bfed2	0.049803562
108	0x3addda00	0.0016925931
109	0xbd899bca	-0.067191675
110	0xbd1464b2	-0.036228843
111	0xbd5a7088	-0.053329974
112	0x3d9237a1	0.071395166
113	0xbcef2f22	-0.02919728
114	0xbd261a2d	-0.040552307
115	0xbd14bfe0	-0.0363158
116	0x3db7cbdc	0.0897443
117	0xbce6716e	-0.02813026
118	0xbd3e0543	-0.046391737
119	0x3d3ef7e9	0.046623144
120	0x3d58e11d	0.05294906
121	0xbd1e56fb	-0.03865717
122	0xbc82b851	-0.01595703
123	0x3cb9bf1b	0.022674134
124	0x3d3421ac	0.043977425
125	0xbcb41914	-0.021984614
126	0xbd0ebb3c	-0.03484653
127	0xbde4c6df	-0.11170744

temporal_conv.2.weight f4 [256, 128, 3]
0	0x3cd3a8c0	0.025837302
1	0x3ce910c5	0.02845038
2	0xbd4d4ed6	-0.050124012
3	0x3fd5198f	1.6648425
4	0x3f2e6aec	0.681319
5	0x3fb2d648	1.3971643
6	0xbf3dde6f	-0.7416753
7	0x3e888135	0.26661077
8	0x3f1f0323	0.6211416
9	0x3ef57041	0.47937205
10	0x3f1d8444	0.61529946
11	0x3f3a394d	0.72743684
12	0x3b0f01f9	0.0021821244
13	0xbd0eb5f3	-0.03484149
14	0xbbe7f9ca	-0.0070793377
15	0x3ee7a7a2	0.4524508
16	0x3ef78a1b	0.48347554
17	0x3f1d67fe	0.61486804
18	0x3f49bf91	0.7880793
19	0x3ee39bd2	0.4445482
20	0x3e121111	0.14264323
21	0x3c923bed	0.01785084
22	0x3d3da5e6	0.04630079
23	0xbc5dd434	-0.013539363
24	0xbcb339fb	-0.021878233
25	0x3b4f1df3	0.0031603544
26	0x3d4c0eae	0.049818687
27	0x3f52d734	0.82359624
28	0x3eb266a2	0.34843928
29	0x3ec77e3e	0.38963503
30	0xbbd0a09c	-0.0063668024
31	0xbd11f1d8	-0.03563103
32	0x3b7f14b5	0.0038922254
33	0xbcc00f9c	-0.023444943
34	0xbb79f69a	-0.003814137
35	0x3c36b751	0.0111521045
36	0x3d3fd79c	0.04683648
37	0x3cb01a2b	0.021496853
38	0x3d5761a3	0.052583348
39	0xbd53e03b	-0.051727515
40	0x3c22bc0f	0.009932532
41	0x3ce40d9b	0.027838519
42	0x3d5446b2	0.051825233
43	0x3cf4c022	0.029876772
44	0xbbef581f	-0.007304206
45	0x3cd482e3	0.025941318
46	0x3cee7f80	0.029113531
47	0x3ca1b8be	0.019741412
48	0xbcdc2d13	-0.026876962
49	0x3d35e0fa	0.044404007
50	0xbd10f1a4	-0.035386696
51	0xbd04d422	-0.032428868
52	0x3c645136	0.013935378
53	0xbc0cf223	-0.008602652
54	0x3d09e10a	0.03366188
55	0x3ce67827	0.028133465
56	0xbc1cfc90	-0.0095817
57	0xbfb700d9	-1.4297134
58	0x3e987355	0.2977549
59	0x3eddd341	0.43325236
60	0xbddded7e	-0.10836314
61	0xbd954b18	-0.072897136
62	0xbe9fb7aa	-0.31194812
63	0xbcd4885b	-0.025943926
64	0xbdaf33c6	-0.08554797
65	0xbd64eda3	-0.05589069
66	0xbc6c5802	-0.01442528
67	0xbcf607bf	-0.03003299
68	0xbd498d39	-0.049206946
69	0xbb08ac83	-0.0020854778
70	0x3cddff9f	0.027099429
71	0xbd4bd8f2	-0.049767442
72	0xbc9d51f3	-0.019204115
73	0x3c98db39	0.018659221
74	0x3d2535f5	0.04033466
75	0xbd6dc2fa	-0.058047272
76	0xbae0d2ad	-0.001715263
77	0x3cfca9cd	0.030842686
78	0x3d0f23f7	0.034946408
79	0xbc7f597c	-0.0155853
80	0x3d39889a	0.04529629
81	0xbcbd13ec	-0.023080789
82	0xbcd2f75f	-0.025752721
83	0x3b60350f	0.0034211313
84	0x38e74911	0.00011028548
85	0xbc50562c	-0.0127158575
86	0xbc971773	-0.018443799
87	0x3cec8caf	0.028875677
88	0xbce27e93	-0.027648246
89	0x3d36188a	0.044456996
90	0xbcb8128b	-0.02246978
91	0xbc95f7ef	-0.0183067
92	0x3b250589	0.00251803
93	0x3ce6feb7	0.02819763
94	0x3d06016c	0.0327162
95	0xbd241d05	-0.040066738
96	0x3f3c92a1	0.7366124
97	0x3ed6e090	0.41968203
98	0x3f0a7d74	0.54097676
99	0x3e72b03e	0.23700044
100	0x3f1c16f2	0.6097251
101	0x3f4f94aa	0.8108622
102	0xbc0501ec	-0.008118134
103	0xbd4925e8	-0.049108416
104	0xbd20abb6	-0.039226256
105	0x3d1c585e	0.03817021
106	0x3bbe1fb6	0.00580212
107	0x3d136e82	0.03599406
108	0x3f65a504	0.8970492
109	0xbede9c72	-0.43478733
110	0xbf18e5c0	-0.5972557
111	0x3b24b78f	0.0025133824
112	0xbd58ff37	-0.052977767
113	0xbcfdc320	-0.030976832
114	0xbbb62b72	-0.0055593783
115	0xbd1c3bd5	-0.038142998
116	0x3d16be0e	0.036802344
117	0x3cd61c2f	0.026136486
118	0xbb16ba4b	-0.0022999223
119	0xbd7997c6	-0.060935758
120	0xbd8e9835	-0.06962625
121	0xbd923a2b	-0.07140001
122	0xbd7ce83a	-0.061744906
123	0xbd50b32a	-0.050952114
124	0x3ccd5c1f	0.02506834
125	0x3d25dbb7	0.04049274
126	0xbc920685	-0.017825374
127	0xbc8ae8ae	-0.016956653
128	0xbcc2fa4d	-0.023800993
129	0xbf7384eb	-0.9512469
130	0x3d42027f	0.04736566
131	0x3ea5d306	0.3238756
132	0x3cab93aa	0.020944435
133	0x3d10e3b1	0.035373393
134	0xbd364000	-0.04449463
135	0xbfe216a9	-1.7663165
136	0xbfc231ea	-1.5171483
137	0xbf92b616	-1.1461818
138	0xbf1d99f6	-0.6156305
139	0xc021c294	-2.527501
140	0xc0361cbf	-2.8455045
141	0x3efc1c6b	0.4924043
142	0x3ea08e09	0.31358364
143	0x3ee59c73	0.44845924
144	0x3cb4211c	0.021988444
145	0x3df7f23c	0.121067494
146	0x3dbf1305	0.093297996
147	0x3e060870	0.13089156
148	0x3eb75f61	0.35814956
149	0x3e767615	0.24068482
150	0xbe083749	-0.1330234
151	0xbf0d003f	-0.550785
152	0xbdcb7f82	-0.099364296
153	0xbe4acef7	-0.19805513
154	0xbe8a8cfc	-0.27060688
155	0x3c8ff6c7	0.017573727
156	0x3d05fcd7	0.03271183
157	0x3ca7a94a	0.020466466
158	0x3d2da0e8	0.04238978
159	0xbbcd9c76	-0.006274755
160	0xbc865fd7	-0.016403122
161	0x3d35d157	0.044389095
162	0xbd017145	-0.031602163
163	0xbcfd970e	-0.030955818
164	0xbc3c9fc9	-0.011512705
165	0xbb8485d2	-0.004044273
166	0xbbf16428	-0.007366676
167	0xbd89499f	-0.06703495
168	0xbc8b166b	-0.016978463
169	0xbd0c1f8a	-0.034209765
170	0xbc63f42d	-0.0139131965
171	0x3d57c2db	0.052676063
172	0x3d51f56e	0.05125945
173	0x3cc3e18f	0.023911266
174	0xbfb7f768	-1.4372377
175	0xbfbf5b88	-1.4949808
176	0xbf81d31d	-1.0142552
177	0x3c0ea679	0.008706682
178	0x3d39fb1b	0.04540549
179	0xbc7172a3	-0.014736804
180	0xbd331d26	-0.04372897
181	0xbcdb0a91	-0.026738437
182	0xbd10100d	-0.035171557
183	0xbdd732d5	-0.10507742
184	0xbea00a1e	-0.3125772
185	0xbe95dfac	-0.2927221
186	0xbe7425dd	-0.23842569
187	0x3c6dbca6	0.014510309
188	0x3ea3a984	0.31965268
189	0xbd35c126	-0.044373654
190	0x39d2e94a	0.00040228135
191	0xbd470ac2	-0.048594244
192	0xbe9a203b	-0.30102715
193	0xbe95acbf	-0.29233357
194	0xbf124733	-0.5713989
195	0xbcc54d6d	-0.024084771
196	0xbca8180d	-0.02051928
197	0xbce8b6cf	-0.028407482
198	0x3b4f6c17	0.003165012
199	0xbd27cfa8	-0.04096952
200	0x3d2bdfd7	0.041961517
201	0xbf953bba	-1.1658852
202	0xbf1cc8fe	-0.6124419
203	0xbd836a76	-0.0641679
204	0x3e6de00b	0.23229997
205	0x3e763654	0.24044162
206	0xbcd2ba87	-0.025723709
207	0x3d8ee33f	0.069769375
208	0x3d5a7fa7	0.053344395
209	0x3cf40cf8	0.02979134
210	0x3f220488	0.63288164
211	0x3ec51318	0.3849113
212	0x3ef84fe8	0.48498464
213	0xbcf37457	-0.029718561
214	0xbb8c9cdf	-0.0042911614
215	0xbd21a113	-0.039460253
216	0x3d1559b6	0.03646251
217	0x3c1aa384	0.009438399
218	0x3ba6302b	0.00507166
219	0xbc444d46	-0.011981314
220	0xbd2a2531	-0.041539375
221	0xbd316ef7	-0.043318715
222	0xbcd0be53	-0.025481379
223	0xbc80be7a	-0.015715826
224	0x3c2b186e	0.010442836
225	0xbc959484	-0.018259294
226	0xbb333726	-0.0027346103
227	0xbcbfce76	-0.023413878
228	0xbcdb1078	-0.026741251
229	0xbd1693e5	-0.036762137
230	0xbc91b3d3	-0.017785942
231	0x3d6d5c7e	0.057949536
232	0x3e48826a	0.19580999
233	0xbca6f718	-0.020381495
234	0xbcb79e7c	-0.022414438
235	0x3c8ebb08	0.017423168
236	0x3d0b78e4	0.034050837
237	0x3c5c6f10	0.013454214
238	0x3c8df970	0.017330855
239	0xbd203c08	-0.03911975
240	0x3d2db587	0.042409446
241	0x3d226c4d	0.039654065
242	0x3cf95289	0.030434864
243	0x3c5fb7e0	0.013654679
244	0xbd13eeed	-0.03611653
245	0x3c01a529	0.007912912
246	0x3e68e4c6	0.2274352
247	0x3c99ce76	0.018775206
248	0x3e8a9d98	0.2707336
249	0x3c5abee1	0.013351173
250	0x3d085a53	0.033289265
251	0x3cb0ce8f	0.02158287
252	0xbc3c434f	-0.011490657
253	0xbd31073a	-0.043219782
254	0x3b58b5b3	0.0033067286
255	0xbc8f22f3	-0.01747272

temporal_conv.2.bias f4 [256]
0	0x3d262ce3	0.04057015
1	0x3e5945a4	0.21217972
2	0xbbc4b6bb	-0.0060032285
3	0xbf2cc501	-0.67488104
4	0x3e74e431	0.23915173
5	0xbebd0771	-0.3691974
6	0x3eb5ae6d	0.3548464
7	0xbe436771	-0.19082429
8	0x3d82edca	0.06393011
9	0xbb632f63	-0.0034665696
10	0xbc9e7d9e	-0.019347008
11	0xbd9c4e85	-0.07632164
12	0xbb71c2eb	-0.0036889862
13	0xbdaf82c1	-0.08569861
14	0xbdcf68fc	-0.10127446
15	0xbeddc7fa	-0.43316633
16	0xbf0c4e32	-0.54806817
17	0xbdb40771	-0.08790482
18	0xbc7d23c7	-0.0154504245
19	0xbdfede4b	-0.12444743
20	0x3e38bd41	0.18040945
21	0xbef0b165	-0.4701034
22	0xbee1e3fe	-0.44119257
23	0xbe9e3c09	-0.30905178
24	0x3e4b9b89	0.1988355
25	0xbe767a0a	-0.24069992
26	0xbe37be6c	-0.17943734
27	0xbe6152dd	-0.22004266
28	0x3c2ea173	0.01065861
29	0x3f0e8775	0.5567544
30	0xbe1661fa	-0.14685813
31	0xbec338e2	-0.38129336
32	0xbd5145c2	-0.051091917
33	0xbd507356	-0.050891243
34	0x3dfba97f	0.12288188
35	0xbda564eb	-0.08075889
36	0xbe8f1830	-0.2794814
37	0xbf15c510	-0.5850382
38	0xbda03726	-0.07823019
39	0xbe258e43	-0.1616755
40	0xbc0ea7f6	-0.008707037
41	0xbd5627e7	-0.052284148
42	0xbeee3728	-0.46526456
43	0xbc31bc84	-0.010848168
44	0x3debce71	0.11513985
45	0x3da6dc1f	0.081474535
46	0x3c7b4908	0.015337236
47	0xbdbf10e8	-0.093293965
48	0x3e3de8a2	0.18545774
49	0xbe9c2d27	-0.30503199
50	0xbce4c075	-0.027923802
51	0xbe88f19c	-0.26746833
52	0xbda974bd	-0.08274219
53	0xbd45e123	-0.04831041
54	0xbea38ec0	-0.31944847
55	0xbd3bd1fc	-0.045854554
56	0xbea51d23	-0.32248792
57	0x3bb349b5	0.005471433
58	0xbd8d4a4e	-0.06898938
59	0xbd483d59	-0.04888663
60	0xbddfc3fd	-0.10926054
61	0xbeae95e7	-0.3409874
62	0xbdf713bf	-0.12064313
63	0xbdd38581	-0.10328198
64	0xbddf8c75	-0.10915462
65	0xbdff2a5c	-0.12459251
66	0xbd899a73	-0.06718912
67	0xbd7532ca	-0.05986289
68	0xbf0296ba	-0.5101124
69	0x3db22d30	0.08700025
70	0x3ce131b2	0.027489517
71	0xbe2c8ac1	-0.16849805
72	0xbd926e67	-0.07149964
73	0xbd673115	-0.056443293
74	0x3e199a61	0.15000297
75	0xbe46a394	-0.19398338
76	0xbd2d5b7e	-0.042323582
77	0xbeb91f85	-0.3615686
78	0x3e0c78c0	0.13717937
79	0x3eac496c	0.33649766
80	0xbe463a2f	-0.19358133
81	0x3e81c5de	0.25346273
82	0xbee78b8d	-0.45223656
83	0xbf0ad69f	-0.54233736
84	0xbc04a869	-0.008096793
85	0xbb10685e	-0.0022034864
86	0xbdad5da8	-0.08465129
87	0xbe594fa6	-0.2122179
88	0xbebd4dad	-0.36973324
89	0xbd0846a9	-0.03327051
90	0x3e61f016	0.22064242
91	0xbec547fe	-0.38531488
92	0xbd1f1898	-0.038841814
93	0xbed50f2a	-0.41613132
94	0xbd82b627	-0.06382399
95	0x3eac933c	0.3370608
96	0x3d8c6f6d	0.0685719
97	0x3ea83fbb	0.32861122
98	0xbe31944a	-0.17341724
99	0xbcf38053	-0.029724276
100	0x3edbf2de	0.4295873
101	0x3e15b2de	0.14619014
102	0xbd3efeef	-0.046629842
103	0x3d7a292c	0.06107442
104	0xbf368472	-0.71295846
105	0xbeede828	-0.46466184
106	0x3e04d3c6	0.1297141
107	0x3da66413	0.081245564
108	0x3de8a299	0.11359138
109	0x3e97dd7e	0.29661173
110	0xbcfed985	-0.03110958
111	0xbd2d14c0	-0.042256117
112	0xbede7383	-0.43447503
113	0xbe333231	-0.17499615
114	0xbd6ddff0	-0.05807489
115	0x3c3c1349	0.011479207
116	0xbce4ebd0	-0.027944475
117	0xbdd78bcf	-0.10524713
118	0xbed38de9	-0.41319206
119	0xbe2ef035	-0.17083819
120	0xbd853214	-0.06503692
121	0xbd362461	-0.044468287
122	0x3e0a0e42	0.13482001
123	0x3ec599de	0.38593954
124	0xbe4fbebe	-0.20287606
125	0xbe90242a	-0.2815259
126	0x3f3d49be	0.73940647
127	0xbe068a25	-0.13138635
128	0xbe347a9d	-0.17624898
129	0xbe0478a3	-0.12936644
130	0xbefcfad1	-0.49410108
131	0x3df11553	0.117716454
132	0x3e255b1c	0.16148037
133	0x3c81a1d1	0.01582423
134	0xbd2107e3	-0.039314162
135	0x3bce1701	0.0062893634
136	0x3e054344	0.13013941
137	0xbdb2ad4f	-0.08724462
138	0x3e8bed49	0.27329472
139	0xbd991b9a	-0.07475968
140	0x3d2db03f	0.04240441
141	0x3e476bd0	0.19474721
142	0xbef73bca	-0.48287803
143	0x3ed4f09b	0.41589817
144	0xbe04277c	-0.12905687
145	0xbc925dd4	-0.017867006
146	0xbea3460e	-0.31889385
147	0xbdba6f92	-0.091033116
148	0x3dfc9f6c	0.12335095
149	0xbed9e386	-0.425564
150	0xbe530105	-0.20605858
151	0xbc1b4e1a	-0.00947907
152	0xbdd9e77f	-0.106398575
153	0xbe0a717f	-0.13519858
154	0xbc80b8f6	-0.015713196
155	0xbe222628	-0.15834868
156	0xbca72f19	-0.0204082
157	0xbeb59c1f	-0.35470673
158	0x3e98ceb9	0.29845217
159	0x3d8c6053	0.0685431
160	0xbc951b77	-0.018201573
161	0xbda17b29	-0.07884819
162	0xbe33cb34	-0.17557985
163	0x3dad1ab4	0.08452359
164	0xbea9129e	-0.33022016
165	0xbe174451	-0.14772154
166	0xbd39fd1d	-0.045407403
167	0xbe24625c	-0.16053146
168	0xbd11f0e7	-0.035630133
169	0xbea66e12	-0.32505852
170	0xbd84b848	-0.06480461
171	0x3e311d67	0.17296372
172	0x3e19d18b	0.1502134
173	0xbd3c01be	-0.0459001
174	0xbe86f604	-0.2635957
175	0x3d9457cf	0.07243311
176	0xbc28ab0a	-0.010294685
177	0x3dac18d5	0.08403174
178	0x3c553774	0.013013709
179	0xbf041bad	-0.5160473
180	0x3c422ab1	0.011850999
181	0xbd2420bf	-0.04007029
182	0xbd879103	-0.06619456
183	0x3a6f5a40	0.0009130575
184	0xbdaa98e2	-0.08329941
185	0xbd7c9d6a	-0.06167356
186	0x3e3c61c7	0.18396674
187	0xbeac03c2	-0.33596617
188	0xbdb0e6f2	-0.08637799
189	0x3dc68f89	0.09695346
190	0xbef4ce6f	-0.47813746
191	0x3d772f63	0.060347926
192	0xbd3bb60e	-0.045827918
193	0xbeea3513	-0.45743617
194	0x3cc5f7fb	0.024166098
195	0x3ea09d9a	0.3137024
196	0x3ba2962f	0.004961751
197	0xbb0e865b	-0.0021747563
198	0xbee383db	-0.44436535
199	0xbda20238	-0.079105794
200	0xbf015fd8	-0.5053687
201	0x3eb51925	0.35370746
202	0xbe84b516	-0.25919408
203	0xbdba377c	-0.09092614
204	0x3d7e2372	0.062045522
205	0xbe6bcd85	-0.23027618
206	0x3f2ebd27	0.68257374
207	0xbdd8f407	-0.105934195
208	0xbe2b21cd	-0.16712113
209	0xbd04e3ce	-0.032443814
210	0xbe659578	-0.22420299
211	0xbdf7d12b	-0.121004425
212	0xbc9f62c7	-0.01945628
213	0xbe896574	-0.26835215
214	0xbeeda578	-0.46415305
215	0xbe6af08f	-0.22943328
216	0xbcb9ab99	-0.022664832
217	0xbe7ed921	-0.24887516
218	0xbead6a3d	-0.33870116
219	0x3e110415	0.14161713
220	0x3e09fb58	0.13474786
221	0x3e84b053	0.25915775
222	0x3e55ef56	0.2089208
223	0xbd9d538e	-0.076819524
224	0xbec0c1f8	-0.37647986
225	0x3eb88b4e	0.3604378
226	0xbc55d7cd	-0.013051939
227	0xbd13b9d0	-0.036065876
228	0xbe32a416	-0.17445406
229	0xbcfd18e9	-0.030895667
230	0xbe13ec9c	-0.14445728
231	0xbe970258	-0.29493976
232	0x3d854312	0.06506933
233	0x3db2ca4b	0.087299906
234	0xbdec5970	-0.11540496
235	0xbe817267	-0.25282595
236	0xbd06dc81	-0.032925133
237	0x3cfc68b3	0.030811643
238	0xbec6c5d9	-0.3882282
239	0xbec005e5	-0.37504497
240	0xbcad54b3	-0.021158552
241	0x3d48034d	0.048831273
242	0xbda45749	-0.08024461
243	0x3ee3a00b	0.4445804
244	0xbc214bd9	-0.009844744
245	0xbee68244	-0.4502126
246	0xbe68906a	-0.2271134
247	0x3d416262	0.047212966
248	0xbd04b8c0	-0.032402754
249	0xbcb3153b	-0.02186071
250	0x3e95635f	0.29177377
251	0xbf04ff67	-0.51952213
252	0x3a687aaf	0.0008868379
253	0xbd1bf4b2	-0.038075157
254	0xbf250783	-0.64464587
255	0xbe597c01	-0.2123871

fc.weight f4 [5, 256]
0	0xbf863297	-1.0484189
1	0x3f112698	0.56699514
2	0xbc34eb9d	-0.011042503
3	0xc02d0d11	-2.7039225
4	0x3f98c2ad	1.193441
5	0x3eccac39	0.39975145
6	0x3f0e0574	0.5547707
7	0x3ec64dd4	0.38731253
8	0xbd73c21c	-0.05951129
9	0x3edbe108	0.42945123
10	0xbc35f2e5	-0.011105274
11	0xbcbefaf2	-0.02331302
12	0xbe886c28	-0.26645017
13	0x3f6e5836	0.9310335
14	0x3c9286f5	0.017886618
15	0x3ef464a6	0.4773304
16	0xc022bfce	-2.5429568
17	0xbd551148	-0.052018434
18	0xbe8c1f81	-0.27367786
19	0x3b54acd5	0.0032451649
20	0x3f94497c	1.1584926
21	0xbf615d54	-0.8803303
22	0x3e2e435d	0.17017885
23	0xbdd98e25	-0.10622815
24	0x3e94a529	0.29032257
25	0x3f86734a	1.0503933
26	0x3dad63da	0.08466311
27	0xbfa6c451	-1.3028661
28	0xbf70b058	-0.9401908
29	0x3eb19539	0.3468416
30	0x3f5d4b64	0.8644316
31	0xbf37c83e	-0.7178992
32	0x3e6d9521	0.2320142
33	0xbd952628	-0.07282668
34	0x3e39b8ea	0.18136945
35	0xc013f325	-2.3117154
36	0xc09af364	-4.842211
37	0x3e53fd3a	0.20702067
38	0x3cb78202	0.02240086
39	0xbf9f2e3f	-1.2435988
40	0xbff073c8	-1.8785334
41	0xbe4f1caa	-0.20225778
42	0xc03be759	-2.9359953
43	0x3cef917e	0.02924418
44	0x3e6d32dc	0.23163933
45	0x3f5460ec	0.8296039
46	0x3b493608	0.003070237
47	0xbd16ed6d	-0.03684752
48	0x3f131980	0.57460785
49	0x3f04ebc2	0.5192224
50	0x3d547f0f	0.051878985
51	0x3f863f41	1.0488054
52	0xc017332b	-2.362498
53	0xbc4b5056	-0.01240929
54	0x3ee6ddd3	0.45091113
55	0xbd742e74	-0.059614614
56	0xc036ebac	-2.8581343
57	0xbc3cc972	-0.011522638
58	0x3c842368	0.016130164
59	0xbe40f0c8	-0.18841851
60	0xbf182c9b	-0.5944306
61	0x3e8069ce	0.25080723
62	0xbe656418	-0.22401464
63	0x3c40d4b8	0.011769466
64	0xbf2592be	-0.64677036
65	0xbfbab481	-1.4586335
66	0xbc62c05c	-0.013839807
67	0xbe9c3ffc	-0.30517566
68	0xbeaa41e6	-0.33253402
69	0x3eb767ab	0.3582128
70	0xbd6c8957	-0.057748165
71	0xc030fb2f	-2.765331
72	0xbca45ab3	-0.02006278
73	0x3adc5887	0.0016811051
74	0x3df42f78	0.119231164
75	0x3f21f264	0.63260484
76	0xbf039e42	-0.5141336
77	0xbdce88e9	-0.10084707
78	0x3e2831d8	0.16425264
79	0x3ecff62e	0.40617508
80	0xbdf2cdd2	-0.11855663
81	0x3f73be45	0.95212203
82	0x3e3b078e	0.182646
83	0xbed4da3c	-0.4157275
84	0x3f51bdd3	0.81930274
85	0x3a022aae	0.0004965466
86	0xbc89b114	-0.01680807
87	0x3f4baa84	0.7955706
88	0xbf879637	-1.0592717
89	0x3dd50d8e	0.10402976
90	0xbde2a842	-0.11067249
91	0x3e44f312	0.19233349
92	0xbc904cc3	-0.017614728
93	0xbf232eca	-0.6374327
94	0x3cf69a8a	0.030102987
95	0x3f4565df	0.7710857
96	0x3f5a0e7f	0.8517837
97	0xbe61f72a	-0.22066942
98	0xbfd472d6	-1.6597545
99	0xbf10e060	-0.5659237
100	0x3e79be55	0.24389012
101	0xbc840790	-0.016116887
102	0x3c7eb60e	0.015546335
103	0xbfc5e2bf	-1.5459822
104	0xbfeaac79	-1.8333884
105	0xbef20e10	-0.47276354
106	0xbd4eabe0	-0.05045688
107	0x3f23c144	0.63966775
108	0x3f576995	0.8414548
109	0x3e28b773	0.1647623
110	0x3f29f534	0.66389775
111	0x3d19a05e	0.037506454
112	0x3d5b7e4d	0.053587247
113	0xc08a05bd	-4.3132005
114	0xbc1ed27a	-0.009693736
115	0x3d2f55c8	0.042806417
116	0xbc8f47ba	-0.017490257
117	0xc0082d36	-2.1277595
118	0x3f3cba57	0.7372183
119	0x3eaa5a37	0.33271953
120	0xbfa3992b	-1.2781118
121	0xb65179d0	-3.121433e-06
122	0x3f6a2825	0.91467506
123	0x3f79dcae	0.97602355
124	0xc014f94b	-2.3277156
125	0xbfa9e32a	-1.327245
126	0x3b19b310	0.0023452677
127	0xbf92caf5	-1.1468188
128	0xbf171bd8	-0.5902686
129	0x3ef768e8	0.48322225
130	0x3ef4757c	0.47745883
131	0xbe0943c7	-0.13404761
132	0xbfcacb22	-1.5843241
133	0xbea344c1	-0.31888393
134	0x3d19a47e	0.037510388
135	0x3c6a13b0	0.01428692
136	0xc024cc34	-2.5749636
137	0x3c9b850c	0.01898434
138	0xbf30c163	-0.69045085
139	0x3c4de4a0	0.0125667155
140	0x3dbc2b43	0.09187939
141	0xbf9c8fa5	-1.2231337
142	0xbf36201c	-0.71142745
143	0x3f2e4b8d	0.6808403
144	0xbfef4c9f	-1.8695258
145	0xbd11c9ad	-0.035592724
146	0xbeb7b1d3	-0.35877857
147	0xbd941d88	-0.07232195
148	0x3f1ef332	0.62089837
149	0xc024cf9d	-2.5751717
150	0x3e17c404	0.14820868
151	0xbd164a80	-0.036692142
152	0xbc8ee267	-0.017441941
153	0xbeda75f7	-0.42668125
154	0xbec80184	-0.39063656
155	0x3ecfcef3	0.40587577
156	0xbc914aac	-0.017735802
157	0x3e545460	0.20735312
158	0xbf4055d8	-0.7513099
159	0x3e8a2410	0.26980639
160	0x3f9dc6cb	1.2326292
161	0x3eb47b05	0.35250106
162	0xbe4e2db2	-0.20134619
163	0x3f13981f	0.57653993
164	0x3d57a678	0.05264899
165	0xbfc0d2fb	-1.5064386
166	0xbd6c3107	-0.057663944
167	0xbfd27ce7	-1.6444367
168	0xbb5394b9	-0.003228469
169	0xbdd49342	-0.1037965
170	0xbfc6c373	-1.5528396
171	0xbfd01200	-1.6255493
172	0x3da1f3a7	0.07907801
173	0x3d3f474b	0.04669885
174	0xbddbe2d3	-0.10736623
175	0xbeb2b5e5	-0.349044
176	0x3d8da9f8	0.069171846
177	0x3f303018	0.68823385
178	0x3f32b446	0.69806325
179	0xbf1ad9b0	-0.60488415
180	0xbcf19a89	-0.029492633
181	0xbd282646	-0.041052125
182	0x3d53cd91	0.051709715
183	0xbfa2a50e	-1.2706621
184	0xbd0eafa1	-0.03483546
185	0xbd35b32b	-0.04436032
186	0x3f6d54e1	0.9270764
187	0x3f198303	0.59965533
188	0xbde5f2b6	-0.11227934
189	0xbe017c67	-0.12645112
190	0xbf5373d9	-0.82598644
191	0xbecd24a8	-0.4006703
192	0x3dcff3cf	0.10153925
193	0xc00f59c1	-2.2398531
194	0x3f8a1f85	1.0790869
195	0x3df68a7b	0.12038132
196	0x3dc41981	0.09575177
197	0x3c979531	0.018503757
198	0x3ebfcd5a	0.37461358
199	0xbec90f48	-0.3926947
200	0x3e968fa2	0.29406458
201	0xbd8758b9	-0.066087194
202	0x4016b451	2.3547556
203	0xbba1235e	-0.004917546
204	0x3e15ddcb	0.14635389
205	0x3ed1888a	0.40924484
206	0x3e53a1e2	0.20667222
207	0xbf3206aa	-0.6954142
208	0xbd9fd394	-0.07804027
209	0xbd7b3191	-0.061326567
210	0xbfc6be7c	-1.5526881
211	0xbcee2f14	-0.029075183
212	0x3a5ca67f	0.0008417144
213	0x3f62b58e	0.8855828
214	0xbe8fa21d	-0.2805337
215	0xbf0f5bef	-0.55999655
216	0x3d7434fc	0.059620842
217	0x3e93933b	0.28823265
218	0xbfb463f2	-1.4093001
219	0x3ef09fd5	0.46996942
220	0x3ea1f0f2	0.3162914
221	0x3e3e1a86	0.18564805
222	0xbe8930c6	-0.26795024
223	0xbf3dff98	-0.7421813
224	0xbfba7b6f	-1.4568919
225	0x3f56b84e	0.83874977
226	0x3e90ad09	0.28257015
227	0xbc6d720f	-0.014492526
228	0x3e822520	0.2541895
229	0x3f04b6e7	0.51841587
230	0xbfed88c5	-1.8557364
231	0x3e89ebd0	0.26937723
232	0xbfda954e	-1.7076814
233	0x3ded3654	0.11582628
234	0x3febec9a	1.843158
235	0xbe908c2a	-0.28231937
236	0xc00969ab	-2.1470745
237	0x3d246f47	0.040145185
238	0x3dab1f1f	0.08355545
239	0xbf278cff	-0.6544952
240	0xbf5b2c75	-0.8561471
241	0x3ed53f7e	0.41650003
242	0x3d666bdd	0.05625521
243	0x3e47caee	0.19511005
244	0x3c5a94ba	0.013341123
245	0x3dc8e974	0.09810153
246	0xbfd3cb53	-1.6546425
247	0xbfac4d0a	-1.346101
248	0xbbfac0fe	-0.007652401
249	0xbb8fab33	-0.004384422
250	0x3e3b1974	0.18271428
251	0x3d8f9879	0.07011504
252	0x3f92a5c7	1.1456841
253	0x3c71d208	0.014759548
254	0xc036937d	-2.852752
255	0x3da6e9cc	0.08150062

fc.bias f4 [5]
0	0x3e8b9b68	0.27267003
1	0x3eda9e51	0.4269891
2	0x3e57ab69	0.21061482
3	0xbf2efe99	-0.68357235
4	0x3e113042	0.14178565
