models/MLP/best_model/mlp_hand_posture_best.pt (torch, 402032 bytes, 10 tensors)

net.0.weight f4 [256, 252]
000000 c5 ed e9 3d 27 43 e7 3d 22 b9 68 39 87 e1 35 3e
       0.11422304 0.11292105 0.00022194211 0.17761813
000010 99 5e c0 3c cc 96 28 38 0e 33 37 81 1d f8 00 3d
       0.023482608 4.0194762e-05 -3.3648422e-38 0.03148662
000020 30 73 23 39 62 02 ec 3d 69 db 47 3e b9 9a bb 39
       0.00015587802 0.11523892 0.19517292 0.00035782697
000030 6b 35 a4 3e 5f 7d b7 3d 7b c1 d7 3e 52 07 d3 3e
       0.32072005 0.089594595 0.421398 0.41216522
000040 fa f8 80 3e 5e 21 3e 3e f9 af ac 3c f2 a3 3e bd
       0.25189954 0.18567416 0.021080004 -0.04654307
000050 6e aa 66 3e db cf d4 3d c9 ec e5 bd 9d 28 31 3e
       0.22525951 0.10391208 -0.11226804 0.17300649
000060 64 3a c5 3d 56 b5 4a 3d b4 9b bc 3e 61 1c f2 3d
       0.09630278 0.04948934 0.36837542 0.11821819
000070 1d 11 17 3e 52 14 2e 3e ca 32 2a 3d db ca 11 bc
       0.14752622 0.16999939 0.041552342 -0.008898462
000080 ee 2f 68 3e d4 10 1e 3d 7f f3 d5 3c 39 cc 19 3e
       0.22674534 0.038590267 0.026117085 0.15019311
000090 55 49 8f 3d 79 8f a8 3d 2c b7 b3 3e 02 ac 26 3c
       0.06996409 0.0823049 0.35100687 0.010172846
0000a0 47 2b bf 3d 56 3a 75 3e 19 ab 6e bd 08 f5 8a 3d
       0.093344264 0.23948035 -0.05826864 0.06785017
0000b0 4f 14 c2 3d cc 1e 8c bd 41 1c 8d 3d 8c 9a 06 3e
       0.0947653 -0.068418115 0.06890155 0.13144892
0000c0 b1 78 d2 3c 79 4b 8e bc 70 a1 82 3e 5e 7e bf bc
       0.025692316 -0.017369973 0.25513792 -0.023375686
0000d0 ff f1 0d bd 1f 1d 9c 3e 6c 8e f6 bd 26 a6 9c 3c
       -0.034654614 0.30490968 -0.120388836 0.019122194
0000e0 0b 52 59 3c c9 f3 92 bd 50 8a e3 3d d4 bc a5 3d
       0.0132641895 -0.071754046 0.111103654 0.08092657
0000f0 11 cc 49 bd 7d af 9c 3d 35 f5 6c 3e 33 b6 28 be
       -0.04926688 0.07650659 0.23140414 -0.16475753
000100 f5 c5 06 3e c8 51 d4 bd f5 24 fe 3d de 9d e9 b9
       0.13161452 -0.10367161 0.12409393 -0.00044558843
000110 79 9c df 3d 16 85 45 3c 1d 82 80 3e 74 7b 88 bd
       0.10918517 0.012055656 0.2509927 -0.06664172
000120 2e 95 c4 3d ed e4 33 be 95 31 f4 3d 31 50 4c be
       0.09598766 -0.17567797 0.119235195 -0.19952466
000130 b2 c5 85 be 57 8f 54 bc 0a 71 12 3e 30 d3 40 3e
       -0.26127392 -0.012973628 0.14300933 0.18830562
000140 49 64 25 3d 22 92 80 3d 2f 85 17 3d 35 bc ec bd
       0.040378843 0.062778726 0.03699225 -0.11559335
000150 06 d9 ee 3d 51 cf 05 bd 3f 2f 59 3e cf b2 69 be
       0.11662488 -0.032668415 0.21209429 -0.22822116
000160 56 07 a3 be 8d e2 86 3d b9 e2 47 3e 85 c4 96 3d
       -0.31841534 0.0658618 0.19520082 0.07361702
000170 81 f5 65 3d 69 55 04 3e 67 3f 05 bd 08 b6 a3 bd
       0.056142334 0.12923206 -0.03253117 -0.07993704
000180 b2 a4 cf 3d c7 fe c7 3c e1 0c 29 3e 3e a1 15 be
       0.10138835 0.02441348 0.16508819 -0.1461229
000190 03 83 84 be 15 d9 0c 3e 7e 40 4d bc e2 fb a8 bc
       -0.25881204 0.13754685 -0.012527583 -0.02062792
0001a0 4a 1a 14 bb b7 b7 ba bd b2 21 03 bd 9d f4 c6 bc
       -0.0022598677 -0.09117072 -0.032014556 -0.024286563
0001b0 94 da 22 be 1f 2c f4 3c 24 19 3b 3e 21 3b 36 be
       -0.15903693 0.029806195 0.18271309 -0.17795993
0001c0 4d 0c f3 3d 48 4f e7 bd e6 a5 91 3d c3 df 80 bd
       0.118675806 -0.112944186 0.07111721 -0.06292679
0001d0 73 11 d1 3d f7 c6 a0 bd 66 80 62 3d 64 0c f3 bd
       0.10208406 -0.078504495 0.05529823 -0.11867598
0001e0 5a 9e b6 3c 3c 06 d0 bd 32 8d d1 3d 10 e8 6e be
       0.022292305 -0.10157439 0.10232009 -0.23330712
0001f0 da e6 d7 bb 05 27 f2 3c a1 54 44 bd 77 7f aa 3d
       -0.006588799 0.029559622 -0.04793227 0.08325093
000200 79 8d 7e 3d 74 91 06 3d 5f e9 f1 3d 4d 27 27 bd
       0.062146638 0.03285356 0.1181209 -0.040808965
000210 78 1a 0e bc b4 3a 6c 3b 4b bf e8 3d 1d 45 4f bc
       -0.008673303 0.0036045732 0.11364611 -0.012650755
000220 6e ad 2d be f5 a9 17 3e 0d 8c c7 bc f8 ea 2d 3b
       -0.1696069 0.14810927 -0.024358774 0.0026537757
000230 72 74 af 3b 38 e6 b9 3d e4 93 50 bb 4a 67 cd bc
       0.0053544575 0.09077114 -0.003182643 -0.025073666
000240 c1 2d b0 bc 41 7d a8 bb dd ee 3b 3e f4 c0 a2 3e
       -0.021506192 -0.0051418846 0.18352838 0.31787837
000250 b6 95 07 bd bd 8c 7a 3e a3 10 ce bc b1 dd 08 be
       -0.03310176 0.2446775 -0.025154417 -0.13365819
000260 d5 87 83 3b ce 08 26 be 5d 49 c2 3d d3 e7 2a 3d
       0.004013995 -0.16214296 0.09486649 0.04172499
000270 60 69 c8 bd 9b 71 58 3d 3c f0 9b 3d f2 4f ba bd
       -0.09785724 0.052842718 0.076141804 -0.090972796
000280 a8 87 c3 bc f4 a1 ee bc bd a9 4f bc a3 18 92 bb
       -0.023868397 -0.02912996 -0.012674746 -0.0044585033
000290 eb 5f b7 3d 9a 7d d3 bd cf 42 6c bc e6 72 64 bd
       0.08953842 -0.10326691 -0.014420225 -0.05577364
0002a0 f5 98 89 bc 98 0c 0e 3c 13 08 55 3d 5a c8 4a be
       -0.016796568 0.008669995 0.052009653 -0.1980299
0002b0 15 3f 62 bd 29 b9 32 3d fd 5a 7e 3c 09 09 42 bd
       -0.05523594 0.043633614 0.015524623 -0.047371898
0002c0 67 43 32 bd a4 c0 1e 3d 37 c6 24 3e 42 d3 0f be
       -0.04352131 0.038757935 0.16091238 -0.14045432
0002d0 f2 b7 2c 3d 59 05 94 3d d7 3b 05 3e e0 5b 7b be
       0.04216761 0.072275825 0.13011108 -0.24546766
0002e0 12 bb ae bd 1c 97 62 3e e2 88 25 3e cf 87 24 bc
       -0.085317746 0.22127956 0.16165498 -0.010042145
0002f0 52 ed e2 bc 3d cf a0 3d 5c 0a ae bb b1 6d 9e bb
       -0.027701054 0.078520276 -0.0053112935 -0.0048348536
000300 46 9f fa 3d 58 d3 08 3e 1c 68 0b 3e 55 f0 d6 bd
       0.1223741 0.13361871 0.13613933 -0.104950584
000310 ad e1 86 3c ca b8 95 3e 47 0d fd 3c d6 9c 94 3c
       0.016465032 0.29242545 0.03089012 0.018141191
000320 63 a5 06 bd 04 c7 ed bd c1 d7 aa 3d 5d ec 1b 3e
       -0.03287257 -0.11610225 0.08341933 0.15226884
000330 b5 4d 0e be 0a b6 85 bc 37 57 e8 bc 2b 92 32 bd
       -0.1389683 -0.016322155 -0.0283619 -0.043596428
000340 a2 7e 97 bd 07 81 80 3c a8 e9 a0 bb d4 1b 15 3d
       -0.073972 0.015686525 -0.0049106665 0.036403492
000350 2a 35 1e bd a2 fe 05 be 5b b1 08 3d 3c 04 c8 bd
       -0.03862492 -0.13085416 0.033372264 -0.09766433
000360 c9 ee b3 bd a5 c9 c1 bc 63 59 87 3d 31 fd 53 bd
       -0.08785779 -0.023655722 0.06608846 -0.051755134
000370 91 dd 85 bd d4 9a 0f 3e c4 92 c6 bc e8 30 9c bd
       -0.06536401 0.14023906 -0.024239905 -0.076265156
000380 11 25 ac bd 18 ca b6 bb 8d fc a9 3b 67 e6 6b bd
       -0.08405507 -0.0055782907 0.005187577 -0.057592776
000390 a5 9c 8b bd c4 5e e3 bb 66 aa 73 3c 06 c6 cc bc
       -0.06816987 -0.006938787 0.014872169 -0.024996769
0003a0 03 bb 6a 3c 50 3a 78 3e 25 2a dd 3d fa 38 0f bd
       0.014326814 0.24240994 0.10799054 -0.034966446
0003b0 05 b0 82 bc 9f 61 92 bc 3f 9f b7 bd 07 56 25 bd
       -0.015953073 -0.017868815 -0.08965921 -0.040365245
0003c0 8d 9e a7 3d b0 5b 87 3d 40 eb 85 3d 51 c1 59 be
       0.08184538 0.06609285 0.06539011 -0.2126515
0003d0 0e 9c ab bc 26 22 62 3e 84 29 34 3d 0e c2 13 bc
       -0.020948436 0.22083339 0.043984905 -0.009018434
0003e0 b7 00 ee bb aa ca d3 3d 60 64 90 bd 7f 5e 42 3d
       -0.007263269 0.103413895 -0.07050395 0.0474534
0003f0 51 83 a3 3d 02 d1 c1 bc e9 55 65 b9 66 f1 73 3d
       0.07984031 -0.023659233 -0.00021871146 0.059556387

net.0.bias f4 [256]
000000 32 71 22 b9 2a 49 9f ba 34 0a f3 39 32 f9 4b 39
       -0.00015491692 -0.0012152542 0.00046356174 0.00019452421
000010 2a 39 7e 39 42 3d e8 b9 e4 6e 9f 38 83 91 ba b8
       0.00024244623 -0.0004429613 7.602366e-05 -8.896275e-05
000020 dd a0 a6 3a b8 18 d7 b8 73 45 97 39 42 72 a1 37
       0.0012712736 -0.00010256603 0.00028852708 1.9245901e-05
000030 6e bd 49 b9 4a 99 23 39 79 b0 32 b9 9c 0f 45 b9
       -0.00019239422 0.00015601996 -0.00017041144 -0.00018793199
000040 df 5a 0e 3a c8 73 73 3a ec cd 1e 3a b0 2e 05 38
       0.0005430411 0.0009286967 0.00060579064 3.1753152e-05
000050 30 20 b1 38 cf cc 45 39 e2 96 2a 38 7a 7a 17 b9
       8.446013e-05 0.00018863681 4.067168e-05 -0.00014446108
000060 56 18 15 b8 7c da 2e b9 ef 54 0b b9 74 49 00 37
       -3.5547033e-05 -0.00016675325 -0.00013287713 7.646497e-06
000070 4b 17 da 38 d3 3e 56 b8 71 c3 4a b9 46 16 14 b9
       0.00010399389 -5.1080086e-05 -0.00019337029 -0.00014122677
000080 75 14 43 39 7a 96 e3 b9 16 e0 08 39 d6 0e f5 37
       0.0001860427 -0.00043408928 0.00013053449 2.9213184e-05
000090 e4 bf 60 39 b4 82 51 ba 83 40 3f b9 55 4c a3 b9
       0.0002143379 -0.00079921936 -0.00018239212 -0.00031146655
0000a0 f0 a1 00 ba 74 c3 ba 39 78 c6 2c b7 06 e9 2c b8
       -0.0004906943 0.00035622308 -1.02982085e-05 -4.1225016e-05
0000b0 72 66 f0 b8 08 dc 0e b6 1c 61 a0 38 98 1c 1d 39
       -0.00011463174 -2.1287724e-06 7.6474826e-05 0.00014983339
0000c0 c3 a1 f7 b9 eb d8 17 b9 06 0f 86 b8 f1 4e d9 ba
       -0.00047232033 -0.0001448129 -6.392416e-05 -0.0016579313
0000d0 34 f2 13 b8 bf f8 93 b9 c8 ae 80 b9 7d d2 c6 39
       -3.52731e-05 -0.00028223355 -0.00024544285 0.0003792233
0000e0 02 85 84 b9 65 ee 97 b8 4c e4 ac b8 d5 64 1b ba
       -0.000252761 -7.2446455e-05 -8.244123e-05 -0.0005927806
0000f0 d0 94 31 36 c4 0f 8e 38 cc c8 df 38 e6 26 90 b8
       2.6461676e-06 6.774024e-05 0.0001067087 -6.8737005e-05
000100 36 d7 80 b9 8a f0 5e 39 9a 65 e8 b8 38 7e 0b 3a
       -0.00024574407 0.00021261178 -0.00011081547 0.0005321237
000110 7c 1f 0b ba 12 59 ff b9 89 44 3e 39 c9 2a 55 b9
       -0.0005307121 -0.00048703753 0.00018145343 -0.00020329202
000120 b9 6f 92 39 62 63 16 b9 9c 7c 78 3a 27 81 b6 37
       0.0002793053 -0.00014342138 0.00094790175 2.1756232e-05
000130 1c bf 8e b9 94 3b 60 b7 40 e5 42 b7 76 1b a4 b9
       -0.00027226738 -1.3365312e-05 -1.16166775e-05 -0.00031300978
000140 b8 c9 4d b9 e2 6b 70 ba 5d 7d e4 b8 9a 76 2e 39
       -0.0001962547 -0.0009171349 -0.00010895238 0.00016638116
000150 9c 61 d4 b8 3c 1c 2e ba a5 35 16 3a 44 b5 25 39
       -0.00010127129 -0.00066417805 0.00057300396 0.00015803153
000160 92 5b a4 39 27 36 b3 39 14 a5 fb 37 8b 1c 6e b9
       0.00031348743 0.00034181887 2.9998402e-05 -0.00022708082
000170 96 78 fe b8 1a f7 40 3a f6 a2 8e 38 0c 12 6d 39
       -0.00012134125 0.000736104 6.8014415e-05 0.00022608804
000180 32 ab cb 38 2c 93 b4 b9 46 3f f0 38 e8 2a 02 39
       9.711682e-05 -0.00034441927 0.000114558774 0.0001241375
000190 21 95 40 38 86 10 78 b9 27 9e ab 39 47 69 6c 39
       4.5915254e-05 -0.00023657279 0.00032733494 0.00022545933
0001a0 c2 f6 fa 37 b6 1b 3e b9 5c c5 e9 b7 32 49 22 ba
       2.9917228e-05 -0.00018130135 -2.7867667e-05 -0.00061907165
0001b0 90 e9 a9 ba 51 87 80 39 7c 1b 8a b9 70 8c f2 36
       -0.0012963284 0.0002451488 -0.0002634189 7.228511e-06
0001c0 6c 35 2b 38 1f c9 b0 b8 be 89 40 b9 8a 81 ac 38
       4.081933e-05 -8.429796e-05 -0.0001836186 8.225728e-05
0001d0 d7 4a a7 39 b2 b3 da 36 86 31 93 38 0a 56 84 b9
       0.00031908482 6.5178256e-06 7.018731e-05 -0.00025241106
0001e0 d8 f9 96 39 78 07 88 3a 96 6f 89 39 ca 2b 78 39
       0.00028796378 0.0010378202 0.00026213814 0.00023667436
0001f0 e2 8e fa 37 9f 96 d2 ba 41 52 90 3a b9 02 41 3a
       2.9868857e-05 -0.0016066617 0.0011010842 0.00073627714
000200 e5 9d 3f b8 0e 8a 63 ba bc ca df 39 2a b2 f1 b8
       -4.5685e-05 -0.00086799345 0.00042684923 -0.00011524961
000210 47 ad 00 3a 7f 32 48 3a 7e f4 93 b8 17 97 3b b9
       0.0004908633 0.0007636919 -7.0550464e-05 -0.00017889995
000220 ac 58 80 ba 1e 8d 9f 3a 54 56 82 b9 37 5c 09 39
       -0.0009792051 0.0012172794 -0.00024859852 0.00013099691
000230 40 3e 9e 36 9e 80 a1 39 41 21 96 b9 12 ff ad 38
       4.716014e-06 0.0003080414 -0.00028635006 8.2967934e-05
000240 0a 45 da 39 c6 af cb 39 81 88 a2 38 c1 31 43 39
       0.00041631638 0.0003885014 7.750188e-05 0.00018615184
000250 88 2f 18 b9 c3 c1 84 38 e0 20 a8 39 fd a4 06 b8
       -0.00014513556 6.3303414e-05 0.0003206795 -3.2101747e-05
000260 e5 2e b2 38 da 03 22 ba 21 4c 6e 3a e4 27 3d b9
       8.496436e-05 -0.00061803835 0.00090903236 -0.00018039305
000270 d5 59 c1 39 e6 92 85 39 6c 39 99 b9 20 c7 4b 39
       0.0003687876 0.00025477185 -0.00029225217 0.00019433768
000280 63 89 5d 39 f5 32 d3 37 4a 1d 47 ba 57 e9 de ba
       0.00021127383 2.5176889e-05 -0.0007595612 -0.0017006797
000290 64 d0 75 b9 f8 16 2d b8 42 7a 68 ba b8 e5 64 b7
       -0.00023442652 -4.1267805e-05 -0.00088683155 -1.3643345e-05
0002a0 59 85 b8 39 0c 84 2a 39 65 37 bd 39 8e be 0d ba
       0.00035194567 0.00016261655 0.0003609016 -0.0005407118
0002b0 de dd fd b8 54 8f 65 ba e0 61 3d 39 3b 18 4c 39
       -0.00012105306 -0.00087570143 0.00018060906 0.00019463983
0002c0 4f 90 66 b9 56 3c 13 38 38 23 4d 39 0b 29 92 b8
       -0.00021988268 3.5103723e-05 0.00019563443 -6.969467e-05
0002d0 f5 11 dc 38 61 fd e9 37 de 7f 81 38 92 4f e8 b8
       0.00010493762 2.7893753e-05 6.1750165e-05 -0.00011077443
0002e0 e9 0d 80 b9 16 ae 2f ba 77 bb 14 38 e5 4f f7 39
       -0.00024424426 -0.0006701661 3.546054e-05 0.00047171037
0002f0 f9 04 96 39 22 4d f9 b8 e7 2c 31 b8 1f 15 fc 39
       0.00028613934 -0.00011887612 -4.2241907e-05 0.00048080922
000300 18 c7 cb b9 ae 43 5a 38 65 fd 2d 39 98 7b 1d b9
       -0.00038867514 5.2038282e-05 0.00016592962 -0.00015018729
000310 53 93 02 b9 8b da fc b9 46 73 00 38 a0 69 43 b9
       -0.00012452649 -0.00048228013 3.0624935e-05 -0.00018635998
000320 a9 b2 9a 39 26 e7 94 39 56 b6 11 39 88 a4 f0 ba
       0.0002950628 0.0002840098 0.00013896203 -0.0018359581
000330 b6 76 10 ba 20 89 4f 39 db 2c b4 b7 89 ca 14 b8
       -0.00055108534 0.00019792141 -2.147856e-05 -3.5474575e-05
000340 36 03 3a b9 14 cc 45 ba 6e b5 ae b9 6b 3b d5 37
       -0.00017739538 -0.00075453636 -0.00033323042 2.5419247e-05
000350 fc 07 9d b9 5e 0f 23 b9 36 33 96 b8 56 f9 88 b9
       -0.00029951322 -0.00015550616 -7.162096e-05 -0.0002612571
000360 00 5a 01 3a 18 9a d6 b7 00 bd 89 39 2a 3b 76 39
       0.00049343705 -2.5582543e-05 0.00026271492 0.00023482429
000370 49 95 ac 38 a5 bf 80 ba f7 71 c7 b9 ad a3 ef 3a
       8.229406e-05 -0.000982274 -0.00038041148 0.0018283032
000380 20 f6 9b b9 21 4a 31 38 3c a0 7e b7 4a 2b e2 b8
       -0.0002974728 4.2269126e-05 -1.5176887e-05 -0.00010784583
000390 1a 09 d1 38 33 5d ba 39 11 98 fe 38 e1 a6 e0 b8
       9.967592e-05 0.00035546123 0.000121399884 -0.00010712236
0003a0 1c b0 3d 38 9a 6a 20 b8 54 32 00 ba 21 65 30 38
       4.5225126e-05 -3.8246253e-05 -0.0004890312 4.2055854e-05
0003b0 31 3f 8b 39 48 c2 15 b9 86 ed 80 3a 50 53 ea 38
       0.00026559227 -0.00014282123 0.0009836413 0.00011173508
0003c0 16 74 fe b8 30 0b f1 39 9d a9 c7 39 87 3d da b8
       -0.000121332865 0.00045975437 0.0003808261 -0.000104065104
0003d0 2c 7f 17 b8 40 9b 58 b8 18 7a 12 b8 d6 7e e8 38
       -3.6119643e-05 -5.1643e-05 -3.492282e-05 0.00011086247
0003e0 10 fb 4f 39 8c 63 bb b9 95 0e fc 39 da d5 c9 37
       0.00019834586 -0.00035741588 0.0004807605 2.406065e-05
0003f0 0b 7f 89 b8 4b 3c ab 39 3a 69 0c 38 a5 9c 93 b9
       -6.556333e-05 0.00032660583 3.34766e-05 -0.00028154734

net.1.weight f4 [256]
000000 21 8f 8e 3f 54 f7 8a 3f d6 73 80 3f 4d 6b 7c 3f
       1.113743 1.0856729 1.003535 0.9860123
000010 b2 30 7d 3f a5 fe 90 3f 6c 40 72 3f 82 67 67 3f
       0.9890243 1.1327711 0.9462955 0.90392315
000020 cb b5 72 3f 20 81 6b 3f 9f 4e 77 3f 2f d1 7d 3f
       0.94808644 0.91993904 0.9660434 0.99147314
000030 32 d4 52 3f 0f 15 71 3f 84 a4 87 3f b1 2d 75 3f
       0.82355034 0.9417276 1.0597081 0.95772845
000040 a7 9f 80 3f f7 eb 71 3f ec 19 87 3f 3e da 67 3f
       1.0048722 0.9450068 1.0554786 0.90567386
000050 1b 0a 75 3f 32 d7 73 3f dd e8 49 3f c4 16 6f 3f
       0.95718545 0.95250237 0.78870946 0.9339411
000060 80 03 81 3f 42 e4 84 3f 31 2d 8a 3f be 76 9e 3f
       1.0079193 1.0382159 1.0795041 1.2379987
000070 fd e2 8c 3f ad 28 5c 3f eb 2b 64 3f f2 c1 85 3f
       1.1006771 0.85999566 0.89129514 1.0449812
000080 d0 40 77 3f 07 62 66 3f 03 08 7e 3f 07 98 75 3f
       0.9658327 0.8999333 0.99230975 0.959351
000090 3f 56 81 3f ec 02 74 3f 77 1b 8b 3f cf 54 80 3f
       1.0104445 0.9531696 1.0867757 1.0025882
0000a0 96 41 86 3f 99 c9 71 3f e1 9c 72 3f c9 9a 65 3f
       1.0488765 0.9444824 0.9477063 0.8968931
0000b0 64 12 71 3f 3c 23 6d 3f 15 f3 85 3f 2c 8e 7f 3f
       0.94168687 0.9263189 1.0464808 0.9982631
0000c0 b3 67 7b 3f 52 41 64 3f a3 fc 7c 3f 8e c4 84 3f
       0.9820511 0.8916217 0.98822993 1.0372484
0000d0 3e 8d 6a 3f 03 9d 6c 3f 9e f4 8e 3f d8 d2 6c 3f
       0.9162177 0.9242708 1.1168401 0.9250922
0000e0 cf 42 83 3f 27 88 78 3f cf 28 86 3f 55 d0 83 3f
       1.0254763 0.9708275 1.0481204 1.0297953
0000f0 6b 36 6e 3f a7 1d 65 3f 90 a2 84 3f 44 49 5c 3f
       0.93051785 0.8949837 1.036211 0.86049294
000100 9d 48 83 3f 02 11 81 3f a1 2c 84 3f bf c8 74 3f
       1.0256535 1.0083315 1.032612 0.95618814
000110 60 e2 80 3f 56 f8 72 3f d6 6c 88 3f 23 86 84 3f
       1.0069084 0.9491018 1.0658214 1.0353435
000120 ec 93 7c 3f bf cd 64 3f 3f ea 7e 3f b6 9a 78 3f
       0.9866321 0.89376444 0.9957618 0.9711107
000130 ea 73 6a 3f ad 81 66 3f 3d 9a 65 3f 54 f9 7a 3f
       0.9158312 0.9004162 0.89688474 0.98036695
000140 72 52 63 3f 8f ee 85 3f 67 ae 57 3f df 64 90 3f
       0.88797677 1.0463427 0.8425049 1.1280783
000150 b9 52 6c 3f 00 5a 8b 3f 7e dc 84 3f 96 46 69 3f
       0.92313725 1.0886841 1.0379789 0.9112333
000160 76 5a 7d 3f e2 fa 72 3f 4b 30 82 3f 1d 66 65 3f
       0.9896616 0.94914067 1.0170988 0.8960894
000170 fd ac 6a 3f fc 92 6f 3f 26 ee 65 3f 47 d7 67 3f
       0.9167021 0.93583655 0.8981651 0.9056286
000180 38 44 81 3f ab 97 76 3f ff a6 8a 3f 1e 0e 61 3f
       1.0098944 0.96325177 1.0832213 0.87912166
000190 97 99 7b 3f bb 89 57 3f a3 50 77 3f 65 69 76 3f
       0.98281235 0.84194535 0.96607417 0.9625457
0001a0 48 06 6f 3f 08 78 86 3f e4 82 4d 3f f1 08 72 3f
       0.9336896 1.0505381 0.8027785 0.94544894
0001b0 63 7a 7c 3f 15 85 7a 3f 00 8b 86 3f 31 21 82 3f
       0.9862425 0.9785932 1.051117 1.0166379
0001c0 ee 77 7c 3f b1 f8 54 3f 64 d0 61 3f 9a 76 6e 3f
       0.986205 0.8319197 0.88208604 0.9314972
0001d0 ea 25 58 3f 7e be 6f 3f 85 6c 62 3f 07 58 81 3f
       0.8443285 0.93650043 0.8844684 1.0104989
0001e0 78 9b 6a 3f 49 c8 60 3f 7d d3 7f 3f da e1 7d 3f
       0.91643476 0.8780561 0.9993208 0.9917275
0001f0 64 f6 5f 3f f0 e2 89 3f 23 03 89 3f fc ed 79 3f
       0.8748534 1.0772381 1.0704082 0.9762876
000200 be 2e 6b 3f 97 df 67 3f 62 bb 85 3f 5c 69 63 3f
       0.918682 0.90575546 1.044781 0.8883264
000210 1f 2e 84 3f 3a 35 70 3f ac ef 6d 3f 97 38 6c 3f
       1.0326575 0.9383122 0.92943835 0.9227385
000220 34 1d 7d 3f 2b 74 85 3f 1a 92 6b 3f 55 10 6a 3f
       0.98872685 1.0426077 0.9201981 0.9143117
000230 0b c9 78 3f cb 3e 89 3f 02 e6 88 3f c6 b0 76 3f
       0.9718177 1.0722288 1.0695193 0.96363485
000240 0a 4f 77 3f 9a 4a 66 3f c0 ab 6a 3f e0 22 7d 3f
       0.9660498 0.8995758 0.9166832 0.9888134
000250 7c 58 76 3f f8 62 87 3f 2c 68 88 3f 0f 42 6c 3f
       0.96228766 1.0577078 1.0656791 0.922883
000260 25 0e 6e 3f 35 43 76 3f f7 6c 71 3f ea 73 5d 3f
       0.9299033 0.961963 0.9430689 0.86504996
000270 d5 4f 74 3f 67 0c 87 3f 03 14 82 3f d1 37 6b 3f
       0.95434314 1.055066 1.0162357 0.91882044
000280 7f 03 82 3f 0e 7e 6b 3f b7 70 84 3f e7 ed 7c 3f
       1.0157317 0.9198922 1.0346898 0.9880051
000290 3f 40 7a 3f 36 36 7a 3f 35 48 70 3f c6 23 77 3f
       0.9775428 0.9773897 0.9386018 0.9653896
0002a0 a5 e2 81 3f 6f fb 7a 3f 38 7c 82 3f 07 24 59 3f
       1.0147291 0.9803991 1.0194159 0.848206
0002b0 42 69 57 3f 1b 7d 83 3f f5 70 72 3f 97 a4 8c 3f
       0.84144986 1.0272554 0.9470361 1.0987729
0002c0 44 39 5b 3f ee 02 81 3f e5 9c 62 3f 05 4d 7e 3f
       0.85634255 1.0079019 0.8852065 0.9933627
0002d0 85 03 79 3f 4c 3a 6a 3f 73 9e 72 3f cb b4 84 3f
       0.97270995 0.91495204 0.94773024 1.0367674
0002e0 92 51 74 3f 66 96 87 3f 13 1d 6f 3f 5e 9c 83 3f
       0.95436966 1.0592773 0.9340374 1.0282094
0002f0 a5 d5 7d 3f ee c5 78 3f 2c 38 6f 3f b4 84 68 3f
       0.9915412 0.97177017 0.93445086 0.9082749
000300 4f ab 6c 3f e9 59 60 3f f2 b9 84 3f 8c a2 6a 3f
       0.92448896 0.8763719 1.0369246 0.91654277
000310 cf f4 7c 3f dc 50 71 3f 8c 42 80 3f dd 2c 86 3f
       0.9881105 0.94264007 1.0020308 1.0482441
000320 9b 7f 73 3f 04 b9 80 3f 22 93 70 3f d4 bc 80 3f
       0.95116585 1.0056462 0.93974507 1.0057626
000330 71 7c 85 3f 6e 2d 72 3f 62 47 74 3f b8 67 8c 3f
       1.0428602 0.9460057 0.9542142 1.0969152
000340 76 66 7e 3f 40 63 7f 3f d0 f9 87 3f 50 b0 7b 3f
       0.99375093 0.9976082 1.0623112 0.98315907
000350 61 bb 75 3f 8d 0d 83 3f 40 3f 81 3f c4 89 82 3f
       0.9598904 1.023851 1.0097427 1.0198293
000360 6a 7b 79 3f 95 2e 81 3f 9d 81 80 3f c7 2b 77 3f
       0.9745394 1.0092341 1.0039555 0.96551174
000370 eb 0b 62 3f 00 92 71 3f b6 7e 68 3f 34 56 85 3f
       0.88299435 0.94363403 0.90818346 1.0416932
000380 a8 0d 7d 3f 34 b4 6c 3f a3 b9 53 3f 7b 86 83 3f
       0.9884896 0.9246247 0.82705134 1.0275415
000390 c0 5b 6a 3f 69 60 76 3f b1 1b 5d 3f 8a 78 6f 3f
       0.9154625 0.9624086 0.8637038 0.93543303
0003a0 d5 b9 86 3f 53 40 76 3f 44 71 71 3f e4 77 78 3f
       1.0525461 0.961919 0.94313455 0.9705794
0003b0 7f 23 7b 3f 46 46 69 3f db b2 88 3f 67 b4 6d 3f
       0.9810104 0.91122854 1.0679582 0.928534
0003c0 a3 13 7f 3f 8f a6 82 3f f2 58 79 3f 08 a8 7a 3f
       0.9963934 1.020708 0.97401345 0.97912645
0003d0 6f 8e 80 3f 0a 71 8c 3f d9 a9 83 3f cd 12 83 3f
       1.0043467 1.0971997 1.0286208 1.0240113
0003e0 b3 51 6f 3f a4 40 8a 3f ba d7 81 3f b3 3c 72 3f
       0.9348404 1.0800977 1.014396 0.9462387
0003f0 d1 2b 79 3f e0 ce 71 3f a8 7e 6e 3f ba d2 81 3f
       0.97332484 0.9445629 0.9316201 1.0142434

net.1.bias f4 [256]
000000 54 41 f8 bd 30 75 40 be 35 9c 73 be bc b4 4f be
       -0.12121835 -0.18794703 -0.23790057 -0.20283788
000010 64 39 7d bd 6e b2 68 be 1d 07 3e be da 59 e7 bd
       -0.06182231 -0.22724316 -0.18557401 -0.11296435
000020 af 07 36 be ee 27 34 be 93 7c 0c be 35 b3 20 be
       -0.17776369 -0.17593357 -0.13719396 -0.15693362
000030 f3 4a 3e be 76 4d 1b be 9b 4d 19 be d9 53 cc bd
       -0.18583278 -0.15166268 -0.1497101 -0.0997693
000040 64 de ca bd 27 aa 55 bd 9a ba dd bd 50 6a 65 3d
       -0.09905699 -0.052164223 -0.10826607 0.05600959
000050 e7 45 9c bd 0f d6 42 be bc d7 7d be c1 dc 8f bd
       -0.0763052 -0.1902697 -0.24789327 -0.07024527
000060 84 b8 4b be 7b 12 74 be a1 77 79 bd 81 4a af bd
       -0.19894606 -0.23835175 -0.060905103 -0.08559132
000070 90 e6 91 be 10 3e 98 be c0 1c 16 be 86 92 30 be
       -0.28496218 -0.2973485 -0.14659405 -0.17243394
000080 01 b7 e0 bc ad fa 77 be 34 26 1c be 32 36 bf bc
       -0.027431013 -0.24216719 -0.15248948 -0.023341272
000090 8a a0 07 be 47 08 42 be 80 7b e6 bd 72 23 5d be
       -0.13244835 -0.1894847 -0.112540245 -0.21595553
0000a0 57 c4 0e be ca b5 2f be 19 4a af bc 3a 86 1e be
       -0.13942085 -0.17159191 -0.021397637 -0.15480891
0000b0 22 be f7 bd b0 be e2 bd c4 8d 0c be 85 bd 0d be
       -0.12096812 -0.11071527 -0.13725954 -0.13841827
0000c0 04 54 10 be a2 b3 37 be 21 5e 0d be c1 fa 43 bd
       -0.1409455 -0.17939618 -0.13805439 -0.04784656
0000d0 c9 41 36 be e9 9c 34 be 2d b4 af bd 63 9d 4a be
       -0.17798533 -0.17637981 -0.08579288 -0.19786601
0000e0 df db 7a be c7 5e f6 3c 94 42 89 bd 91 6b b0 bd
       -0.24497937 0.03007449 -0.06702152 -0.08614267
0000f0 cd ad 1e be a5 33 4f be 4c 66 8c bd 99 55 1b be
       -0.15495987 -0.20234545 -0.06855449 -0.15169372
000100 7b ab 2c be ec 97 64 be 62 53 4a be 28 b9 e5 bd
       -0.1686229 -0.22323579 -0.1975837 -0.112169564
000110 ed b5 3b be f8 0b 0a be 56 bb 40 bd 10 46 c9 bd
       -0.18331118 -0.13481128 -0.047053657 -0.098278165
000120 22 38 fd bd 17 c4 b2 bd d8 bb 2d be ac 48 80 be
       -0.12364222 -0.087288074 -0.16966188 -0.25055444
000130 0f 4f 4b be 44 c1 3a be f0 5a 5b be 9d ec b6 bd
       -0.19854377 -0.18237787 -0.21421409 -0.08931849
000140 63 2d 01 be c9 9c a0 be a0 02 69 be e1 3c 25 3d
       -0.1261497 -0.31369618 -0.22754908 0.04034126
000150 eb 8d 5c bd e7 04 9b bd 0f f1 17 be 77 99 30 be
       -0.05384628 -0.075692944 -0.1483805 -0.17246042
000160 6b c6 0f be 8d d5 22 be 53 ff 3f be f5 cc 15 be
       -0.14040534 -0.15901776 -0.18749742 -0.14628966
000170 19 43 3f be 82 4a 08 be 2b db 22 be 72 9c 2c be
       -0.1867794 -0.13309672 -0.15903918 -0.16856554
000180 5c 10 13 be 58 6c f0 bd dc 55 77 bd c0 cb 36 be
       -0.1436171 -0.11739415 -0.060384616 -0.17851162
000190 f6 69 01 be e3 f6 10 be 03 96 d7 bd 24 15 85 bd
       -0.12638077 -0.1415668 -0.10526659 -0.06498173
0001a0 3e 87 ac bd d7 b6 6f be 80 bf 53 be 8b 73 18 be
       -0.08424233 -0.23409592 -0.2067852 -0.14887826
0001b0 9b 4d 43 be f6 9d 8c be 22 31 24 be 56 4d 51 be
       -0.19072573 -0.27464265 -0.16034368 -0.20439658
0001c0 c9 e6 49 be 84 05 9f be cd c9 16 be 53 56 fe bc
       -0.19716944 -0.31058896 -0.14725418 -0.031047022
0001d0 81 ae 5d be 30 14 0f be 49 92 19 be e7 1b 43 be
       -0.21648599 -0.13972545 -0.1499721 -0.19053613
0001e0 4f ef 75 be 39 18 8e be 71 cd 22 be cc 51 50 be
       -0.2401707 -0.27752855 -0.15898682 -0.20343703
0001f0 e1 2a 3e be 5c 8c 32 bd b6 aa 83 be 9f 32 c9 bd
       -0.18571045 -0.04359089 -0.2571618 -0.09824108
000200 26 b0 5a be 1e 09 34 be b1 e8 e5 bd 6f f1 5c be
       -0.21356258 -0.17581603 -0.11226023 -0.21576475
000210 37 e5 c0 be f4 60 35 be 00 20 dd bd 98 34 c8 bd
       -0.37674877 -0.17712766 -0.10797119 -0.097756565
000220 eb 56 15 bd 2e 5e 01 be 3d 1d 5c be 30 06 fc bd
       -0.036459845 -0.12633583 -0.21495529 -0.12305868
000230 e2 0d ac be e2 54 fa bc 25 e5 5e be 9c cc 0f be
       -0.33604342 -0.030558053 -0.21767099 -0.14042896
000240 ab a6 0c be 8f 1b 68 be 4a 42 a2 bb 29 17 85 be
       -0.13735454 -0.22666763 -0.00495175 -0.25994232
000250 6b a8 57 be 35 ea c2 bd fd 98 a5 bd 00 fd da bd
       -0.2106034 -0.09517328 -0.08085821 -0.10692787
000260 aa e3 fb bd be 44 5b be fe 55 36 be 3e 29 3d be
       -0.12299283 -0.21412942 -0.17806241 -0.18472764
000270 8c cb 63 be 1b 9b 4d be 1a 18 12 be fd 31 52 be
       -0.22245616 -0.200787 -0.14267007 -0.20526882
000280 c5 b0 27 bd 1d 1d 2f be f9 47 61 bd 0d 37 3c be
       -0.040940065 -0.1710095 -0.05500028 -0.18380375
000290 b2 42 87 bc 5e 1b 3b be 98 2e 01 be 1d 19 73 be
       -0.016511295 -0.18272159 -0.1261543 -0.23740049
0002a0 72 66 55 be ce 82 12 be ee c4 ed bd f5 c5 42 be
       -0.20839861 -0.1430771 -0.11609827 -0.19020827
0002b0 2e c9 2a be 8b 31 52 be 17 a9 08 be 0e 09 22 be
       -0.16678306 -0.20526712 -0.13345753 -0.15823767
0002c0 ee 42 24 be b6 ea 96 bd e4 66 45 be 76 18 99 bd
       -0.16041157 -0.07368986 -0.19277531 -0.07475369
0002d0 11 7f ad bd 74 2a 10 be f7 cd 24 be ff 94 2d be
       -0.084715016 -0.14078695 -0.16094194 -0.16951369
0002e0 3f e1 49 be 78 65 94 be 18 0f 17 be fd cf 28 be
       -0.19714831 -0.28983665 -0.14751852 -0.16485591
0002f0 b9 07 f6 bd d0 1b 0e be 24 04 25 bc b9 5b 29 be
       -0.12013192 -0.13877797 -0.010071788 -0.16538896
000300 f8 fd c1 3b 91 f0 4f bd da 39 47 be 61 13 63 be
       0.005920168 -0.05076653 -0.19455662 -0.22175361
000310 a8 a2 b2 3c cb 8c ea bd 3b 30 f3 bd ea 0a 86 be
       0.021806076 -0.114526354 -0.118744336 -0.26180202
000320 8c d4 c1 bd 42 6b 2c be b0 60 f7 bd 0d 3e 0b be
       -0.09464368 -0.1683779 -0.120789886 -0.13597889
000330 9e 74 f4 bd 35 4b 52 be f5 a3 4a be 2c 0f 0b be
       -0.119363055 -0.20536502 -0.19789107 -0.13580006
000340 a2 4f 5e be 95 7f d8 bd 95 dd 38 bd 51 8b 50 be
       -0.21710065 -0.10571209 -0.045133192 -0.20365645
000350 b6 42 5e bd 73 e8 81 be 54 20 49 be b1 a8 42 be
       -0.05426284 -0.25372657 -0.19641238 -0.19009663
000360 c6 2b 27 be 21 e4 e3 bd 51 6b 2b be 22 6a 41 be
       -0.16325292 -0.111274965 -0.16740157 -0.18888143
000370 5b 40 07 bd 44 83 6b be c3 2c e3 bd 7a 4b 14 be
       -0.03302036 -0.22999293 -0.11092522 -0.14481917
000380 2f 52 b6 bd 15 73 2c bd 00 87 82 be 7b f6 7e be
       -0.08902394 -0.04210194 -0.25493622 -0.24898712
000390 3f 5f d2 bd df eb 3c be 78 bf 05 be 63 2f 62 be
       -0.10272073 -0.18449353 -0.13061321 -0.22088389
0003a0 e2 f7 8b be 3d 49 d9 bd ba a3 41 be 52 dc e9 bd
       -0.27337557 -0.10609672 -0.18910113 -0.11418976
0003b0 7d c9 7b be b2 50 f3 bd 7e 9a 40 be d4 3d 4b be
       -0.2458858 -0.11880626 -0.18808934 -0.19847804
0003c0 85 23 f9 bd 45 2c fd bd 41 9e 24 be 66 fd 7d be
       -0.12164978 -0.12361959 -0.16075994 -0.24803695
0003d0 2e 96 04 bc f8 e8 d0 bc f4 7e 2a be 3a 49 00 be
       -0.008092446 -0.025501713 -0.16649991 -0.12527934
0003e0 8e f6 8d bd 82 c6 9e bd 6e 1a 17 be cb e1 89 be
       -0.06931792 -0.07752706 -0.14756176 -0.2693008
0003f0 00 32 8a bd 1e a6 6f be 13 66 6d bd 11 bf e7 bd
       -0.06747818 -0.23403212 -0.057958674 -0.1131574

net.1.running_mean f4 [256]
000000 bc 84 a6 3f bd ae b7 3f ed 81 38 3f 12 7f f7 3e
       1.3009257 1.4350201 0.7207325 0.48339134
000010 c6 60 2b 3f b6 52 3b 3f ac d1 6b bd ab 2b 14 bf
       0.6694454 0.7317308 -0.057573006 -0.5787913
000020 cb 7d ba 3f b8 5c b8 3d 5e ec 5f bf 26 b6 cb 3d
       1.4569639 0.0900206 -0.8747004 0.099468514
000030 bb 34 12 bf 99 94 a1 3c c0 16 8d 3e 8a 36 14 3f
       -0.5711171 0.019724177 0.2755642 0.5789572
000040 fa 3c 91 3f 2e 95 90 3f ba e7 77 bf 56 58 0f bf
       1.1346734 1.1295526 -0.9683796 -0.55994165
000050 ef c1 0e 3f 0f 44 52 3f b3 b9 2c 3d 7e ce 6e 3f
       0.5576467 0.821351 0.042169284 0.9328383
000060 48 9c e4 3f 45 33 76 bd ad 27 43 3f 07 53 03 bf
       1.7860193 -0.06010749 0.76232415 -0.51298565
000070 92 91 9c 3e 01 4c f6 be 51 d0 d6 3e 33 a1 a3 3e
       0.3057981 -0.4810486 0.41955808 0.31958923
000080 2b cf 04 3f 90 28 21 40 05 5c 18 3e 03 28 81 bf
       0.51878613 2.5181007 0.14878853 -1.0090336
000090 b1 55 b5 bf 5d 83 cc bf c7 85 e7 3f fc 2d 1c bf
       -1.4166776 -1.5977589 1.8087701 -0.61007667
0000a0 49 82 52 bf 85 bc 89 3f 10 bd 11 bd a1 b2 13 3e
       -0.8223005 1.0760657 -0.035580695 0.1442361
0000b0 33 29 9a be 8b 1c 4c 3e c1 e0 0f bf ae 4d a0 3f
       -0.30109558 0.19932763 -0.5620232 1.2523706
0000c0 07 03 09 c0 d2 e1 fe bf 23 6b 7c 3e e6 a0 1d bf
       -2.1408098 -1.9912665 0.24650244 -0.61573637
0000d0 50 2e e5 3d de fe 5f 3f 74 fa 87 3d d8 23 50 3f
       0.11190474 0.8749827 0.06639567 0.81304693
0000e0 94 27 1d 3f 05 de ac bf ea ba 46 bf 7e e6 c2 bf
       0.61388516 -1.3505255 -0.7762896 -1.5226591
0000f0 58 22 1f bd 03 4a 92 3f 23 56 52 3f e9 b5 0b 3f
       -0.038851112 1.1428837 0.82162684 0.5457445
000100 eb 82 2c 40 16 55 98 bf 3f 0b 81 bd 7c 89 59 3f
       2.6954906 -1.1900966 -0.06300973 0.8497541
000110 25 90 26 40 5d 1b d3 bf 6b e4 3d bf 3b 61 cb 3f
       2.602548 -1.6492726 -0.74176663 1.5889047
000120 0d 82 f1 3f f9 9d 89 bc de 73 35 3f 7b a5 44 be
       1.8867813 -0.01679896 0.70879924 -0.19203751
000130 e3 a5 38 3f f5 50 b5 bb e3 94 47 3e ae 58 c7 be
       0.72128123 -0.0055333325 0.1949039 -0.38934845
000140 39 93 17 c0 22 a7 da 3f d6 cf ed be 34 16 87 be
       -2.3683608 1.7082255 -0.4644763 -0.26384127
000150 24 4c bb bc a5 55 6b bf 37 cc f3 3e a1 f0 2f bf
       -0.022863455 -0.9192756 0.4761674 -0.68726546
000160 43 a5 15 bf 82 e4 85 bf ec 5b 0e 3f 17 54 d5 3f
       -0.58455294 -1.046036 0.5560901 1.6666287
000170 51 a7 ac bf 85 86 8e bf c2 7a c7 bf 04 bc 34 3f
       -1.3488561 -1.1134802 -1.5584338 0.7059939
000180 7d 1b 7e 3d 22 cf a8 3e ab bf e0 bc 38 8d ca 3d
       0.062037934 0.3297053 -0.027435144 0.098902166
000190 c0 b0 45 be 5e 66 98 bf 8e 55 27 3f d8 6e 1c bf
       -0.19305706 -1.190624 0.6536492 -0.61106634
0001a0 a9 bf c1 3f 5a e3 b5 3f 7d 74 d0 bf 67 77 13 c0
       1.5136615 1.4210007 -1.6285549 -2.3041627
0001b0 20 13 8a bf 34 23 a6 be 42 3c 32 bd f0 d3 c0 3e
       -1.0787086 -0.32448733 -0.043514498 0.37661695
0001c0 d3 77 19 3d f9 dc 67 3d af 47 0c bf 07 6b 1a bf
       0.03746779 0.05660722 -0.5479688 -0.6031956
0001d0 57 d2 cb bf 4e f9 23 be 74 1c 40 3e 54 21 90 3f
       -1.5923566 -0.16013071 0.18760854 1.1260171
0001e0 c0 c2 52 3f b9 7a c7 3f 1e bb 12 3f 5c 66 9e 3e
       0.82328415 1.5584327 0.5731677 0.3093747
0001f0 ba c7 46 3d 1d 0c 2c bf ca b4 cb 3e 1e af 0a 40
       0.048530318 -0.67205983 0.3978637 2.1669383
000200 08 e7 35 be 23 62 c8 bf f8 88 3b 3f 6a 20 0d be
       -0.17763913 -1.5654949 0.7325587 -0.13781896
000210 37 73 5a bf 3a a1 a0 3f 66 8e 02 3f 98 06 f4 bd
       -0.85332054 1.2549202 0.5099853 -0.1191532
000220 aa 09 77 bf b6 92 22 40 72 35 6e bf 3d 5d 70 3f
       -0.9649912 2.5402045 -0.930503 0.9389227
000230 b9 6e 8b 3e 53 ee a3 3f 05 2d c2 3d f3 e2 f6 be
       0.27232912 1.2807106 0.09481243 -0.48220024
000240 f1 44 47 3f 06 73 33 3f c2 ff 27 bf 9a de 37 bf
       0.7783957 0.70097387 -0.6562463 -0.7182404
000250 af 10 dd bf 12 bc cd 3f db b5 8a 3f df cf e7 be
       -1.7270716 1.607302 1.0836748 -0.4527578
000260 8a cf c2 3f 1d 50 98 3f 5e d0 15 40 3f e4 b5 be
       1.5219586 1.1899449 2.3408427 -0.355257
000270 74 2c 87 be 1f 7f 45 3f 15 c6 d9 3f 6e c5 6f 3e
       -0.26401103 0.77147096 1.7013575 0.23415157
000280 33 8a f4 3f ed 94 ff bd 0e d0 dc 3f 83 36 85 3f
       1.9104675 -0.12479577 1.7250993 1.0407261
000290 5e ee f8 3e fb b5 de 3e a0 63 04 40 35 09 25 bf
       0.4861936 0.43498215 2.0685806 -0.64467174
0002a0 5a 5f 7a bf b2 70 3f be c2 45 73 3f 97 88 a1 3f
       -0.97801745 -0.18695334 0.95028317 1.2619809
0002b0 81 13 12 bf fe 9b 22 3f d7 54 ac 3f 4a 29 ac 3d
       -0.5706101 0.63519275 1.3463391 0.08406313
0002c0 f6 5f 33 c0 e2 d4 14 bf 0e 47 99 3d fd d3 a5 be
       -2.802732 -0.58137333 0.07484256 -0.32388297
0002d0 db 54 9f 3e 77 33 ca be 21 a9 bc bf 73 95 00 bf
       0.31119427 -0.3949239 -1.4739114 -0.5022804
0002e0 7c 01 a2 3f ab 68 66 3f 79 38 eb 3e 5b f0 b0 bf
       1.2656703 0.9000346 0.45941523 -1.3823351
0002f0 6c 77 47 bf 74 59 a6 3f 9b 9c a6 3d 2e 87 d0 bf
       -0.779166 1.2996049 0.08135339 -1.6291254
000300 c4 c3 9f 3f 0e e9 ba 3d 80 e3 24 3e 53 cc 3a 3f
       1.2481618 0.09126483 0.1610241 0.72968024
000310 0b 03 9a 3b 64 2d 8c bf 76 af 37 bf 94 f3 13 3e
       0.00470007 -1.0951352 -0.7175211 0.14448386
000320 65 e7 a8 bf a0 b5 5d bf 4a 9e 30 3f c7 df 83 3f
       -1.3195616 -0.8660526 0.6899153 1.0302666
000330 f5 81 d8 3e 8b 0f 6a 3f 69 40 7e 3f 7b 5b 7e 3f
       0.4228665 0.91429967 0.9931703 0.9935834
000340 1f a6 0c 3f 81 7b 8a 3f 91 4a 2c bf 1c db 91 be
       0.5494098 1.081894 -0.6730128 -0.2848748
000350 41 5a 05 40 bd 21 c0 be 79 f6 10 3f 47 75 5e 3f
       2.0836337 -0.3752574 0.5662609 0.868977
000360 9a 84 85 3f 32 67 5f 3f a7 25 b1 3e 99 14 d3 3f
       1.0431092 0.8726684 0.3459904 1.6490661
000370 26 b3 7e 3f bc 32 8b 3f 81 ca e9 be 84 d8 1c 3f
       0.9949211 1.0874858 -0.4566231 0.61267877
000380 cc 94 94 bf f4 7e 58 3e 2f c1 14 3f b6 4f 1f 3f
       -1.1607909 0.21142179 0.58107275 0.62231004
000390 87 2a f2 3f f8 11 fb bf 22 78 87 bf 95 6b c7 3f
       1.8919228 -1.9614859 -1.0583537 1.5579706
0003a0 52 31 9f 3e 07 c9 b6 3d 35 c6 4f c0 4c 80 f9 bd
       0.31092316 0.08925062 -3.2464726 -0.12182674
0003b0 b3 9e 3a 3f b1 6b af 3f 1a d0 cb 3f 84 99 0e bf
       0.72898406 1.370474 1.5922883 -0.55702996
0003c0 1b 69 fb bf b0 cc a3 bf e5 a1 f8 3e 61 82 49 3d
       -1.9641451 -1.2796841 0.48561016 0.049196605
0003d0 c2 b8 22 3e 10 dc a2 3d 32 e0 9e be f1 c0 b2 3e
       0.15890792 0.0795213 -0.31030422 0.34912828
0003e0 12 52 1c c0 e3 b8 00 3f 4e 47 36 3f ca df 43 bf
       -2.4425092 0.50282115 0.7120255 -0.7651335
0003f0 4a ea 36 bf 6c c1 0b 3f e2 ee 10 3d 58 dc 8b 3f
       -0.71451247 0.54592013 0.035384066 1.0926619

net.1.running_var f4 [256]
000000 57 e0 71 3c 57 55 56 3c 3b 11 60 3c cd 63 67 3c
       0.014762959 0.01308187 0.013675983 0.014122915
000010 85 0a 9c 3c f3 6a 1c 3c df 91 e6 3c 12 6e 95 3c
       0.019047985 0.009546983 0.028145729 0.018240962
000020 10 a3 1b 3c d4 3c d9 3c 8d fd b8 3c 0f a1 14 3c
       0.009499326 0.026518263 0.02258184 0.0090716025
000030 8b f9 e0 3c 7d 70 84 3c 56 1e 38 3c ce 7e 7c 3c
       0.027462741 0.01616692 0.011237701 0.015411092
000040 94 20 f2 3c 44 74 86 3c 8f 00 57 3c ef 95 5d 3d
       0.02955655 0.016412862 0.013122692 0.054098066
000050 35 28 d7 3c 6f bf 98 3c 2f 8f 05 3d 23 34 96 3c
       0.02626429 0.01864597 0.032607254 0.018335408
000060 d7 01 9f 3c d8 0d 04 3c c6 2d f2 3c 6f 2f 95 3c
       0.019410057 0.008059941 0.029562842 0.018211095
000070 2f 8d 51 3c 04 69 3c 3c 5a fb 5d 3c c7 f9 7a 3c
       0.012790008 0.011499647 0.013548696 0.015318341
000080 b5 ab 2f 3d e6 46 e7 3c c0 0f 57 3c 58 32 0f 3d
       0.042888362 0.02823205 0.013126314 0.03496012
000090 ce 34 96 3c d4 41 81 3c 46 fb c9 3c be 16 6d 3c
       0.018335726 0.01577846 0.02465595 0.014470754
0000a0 e6 15 e8 3c f1 7e 95 3c a5 de 66 3c 33 f2 54 3d
       0.028330754 0.018249007 0.0140911685 0.05198879
0000b0 f0 94 b3 3c 8f 1e 07 3d c2 11 15 3c c9 f4 29 3c
       0.021921605 0.032988127 0.009098472 0.010373303
0000c0 cf a6 9e 3c ff 5d 44 3d a6 d4 7c 3c 1b ef e1 3c
       0.01936665 0.047941204 0.015431559 0.027579835
0000d0 f3 1a 6c 3c 43 3a 57 3c 61 87 ed 3c 8d ae 34 3c
       0.014410722 0.013136449 0.028995218 0.011027944
0000e0 21 8f 4f 3c 52 98 6d 3c 9f 81 3c 3c ea ac 92 3c
       0.012668402 0.014501648 0.011505513 0.017904717
0000f0 9b b4 ae 3c 40 c9 11 3d 8a 28 2c 3d 60 5a 24 3d
       0.021326354 0.035592318 0.04203085 0.04012525
000100 2c d5 b9 3c 3f d0 6e 3c bd f4 52 3c 54 c1 1a 3c
       0.022684656 0.014576017 0.012875733 0.009445507
000110 3f c0 af 3c 38 a2 17 3d 60 91 94 3c 23 08 3c 3c
       0.021453975 0.03701994 0.018135726 0.011476549
000120 74 bd 77 3c c9 8a b4 3c 6e 16 0a 3c 59 67 c1 3c
       0.015120853 0.022038834 0.008428199 0.02360885
000130 1c fa 78 3c ae f0 81 3c 66 3c 87 3c 66 82 12 3d
       0.0151963495 0.015861835 0.016508292 0.03576889
000140 da 03 16 3d ca 5f b6 3c 01 4b b2 3c 30 fe 99 3c
       0.036624767 0.022262473 0.02176428 0.018797964
000150 3d a5 04 3d 13 e2 4e 3c 85 a2 89 3c 0e ff b7 3c
       0.032384146 0.0126271425 0.016801128 0.022460487
000160 82 39 c5 3c 3e 6e b6 3c da 3f fb 3c 80 67 24 3d
       0.024075273 0.022269364 0.030670095 0.040137768
000170 8f 37 c2 3c e9 df eb 3c 64 dc bf 3c a8 2b 3e 3c
       0.023708133 0.028793292 0.02342052 0.011607088
000180 6f 1c 3b 3d e7 02 6f 3c ff 67 7d 3c 15 8b fc 3c
       0.045681413 0.014588094 0.015466689 0.030828038
000190 09 3e a9 3c e1 d4 f0 3c 5b 01 9d 3c a6 ff 72 3c
       0.020659463 0.029398384 0.019165685 0.014831459
0001a0 60 31 22 3d ed ce 5a 3c 48 7c 34 3d 0a af ee 3c
       0.03959787 0.013354999 0.044063836 0.0291362
0001b0 fa 2b a2 3c 54 d3 ae 3c 3f 8a dc 3b 44 e0 52 3c
       0.01979636 0.021341003 0.0067303474 0.012870852
0001c0 3d c9 bf 3c 46 63 bf 3c 74 ee 68 3c 96 be 1b 3d
       0.023411388 0.023362767 0.014217008 0.038023554
0001d0 94 5b 89 3c 71 a6 2d 3d 96 1c bf 3c b9 49 f7 3c
       0.0167673 0.04239506 0.02332906 0.03018652
0001e0 3a 59 8a 3c 99 a6 35 3c 44 b0 96 3c 2d 1e af 3c
       0.01688825 0.011087083 0.018394597 0.021376694
0001f0 8c 47 ea 3c 8e ff 4b 3c 51 46 cf 3b 46 b6 95 3c
       0.02859857 0.012451066 0.006325521 0.018275391
000200 91 c0 e0 3c ea 3c 7b 3c b9 9b 9b 3c 51 ca 8d 3c
       0.027435573 0.015334347 0.018995153 0.017308386
000210 92 12 4f 3c 0b 44 f5 3c 2d 59 a7 3c 72 95 bf 3c
       0.012638705 0.029939672 0.020428265 0.02338669
000220 ec f9 a8 3c 9d a7 7a 3c a7 5b 9b 3c 49 f7 00 3d
       0.020626985 0.015298751 0.018964602 0.03148583
000230 69 83 83 3c 72 5f 91 3c 4b e8 8a 3c f2 6e 77 3c
       0.016053872 0.017745707 0.016956469 0.015102135
000240 48 fe 54 3c c5 0c b5 3c d4 ef 02 3d 96 ea 95 3c
       0.0130000785 0.022100816 0.031967 0.018300336
000250 5b 91 df 3c 40 f2 9a 3c d8 ce e2 3c f4 64 48 3c
       0.02729099 0.018914342 0.027686521 0.0122311
000260 11 c3 5b 3c f5 38 b6 3c 7a a7 ec 3c 94 ee 0d 3d
       0.013413207 0.022243956 0.028888453 0.034651354
000270 f0 91 98 3c 0d 34 85 3c c3 d0 77 3c 4e 94 77 3c
       0.018624276 0.016260171 0.015125456 0.015111042
000280 97 23 a3 3c 78 7f ba 3c 34 13 96 3c aa c4 bb 3c
       0.019914431 0.02276586 0.018319704 0.022920925
000290 5a d0 d0 3c 9f 4e 0c 3c 4f 95 00 3d f3 77 87 3c
       0.025489975 0.008563667 0.03139239 0.016536688
0002a0 4c fe 83 3c 4d 51 29 3c 98 38 4e 3d d5 72 97 3c
       0.01611247 0.010334325 0.05034694 0.018487373
0002b0 04 bf f3 3c 0f 70 24 3c 0c 86 75 3c b6 05 54 3c
       0.02975417 0.0100364825 0.014985573 0.012940815
0002c0 3e 4f df 3c 61 5b 8c 3c e2 2a 7b 3c dc 4c 72 3c
       0.027259465 0.017133417 0.015330048 0.0147888325
0002d0 55 10 f4 3c bf 35 18 3d 1f 40 1f 3d 90 e2 30 3c
       0.029792944 0.03716063 0.03887951 0.010796204
0002e0 b6 42 82 3c b7 68 2f 3c 20 1c 63 3d 5a ab 4b 3c
       0.01590095 0.010706118 0.055446744 0.01243099
0002f0 bd d4 3a 3c cb 68 a6 3c bd 41 02 3d 20 5c a6 3c
       0.01140326 0.020313641 0.031800974 0.0203076
000300 98 da 75 3c 67 4d c3 3c b4 1c ff 3c 9a 04 6a 3c
       0.01500573 0.02384062 0.031141616 0.014283324
000310 a4 53 2f 3c 0b 3c bc 3c 1f 00 52 3c 65 5a e0 3c
       0.010701094 0.02297785 0.012817412 0.027386853
000320 df 0b 74 3c 31 62 14 3c cd de 74 3c bf 2f f6 3b
       0.014895408 0.009056614 0.014945698 0.007513016
000330 86 cc 85 3c 6e 08 79 3c de ff 5c 3d 44 0b 09 3d
       0.016332876 0.015199764 0.05395495 0.03345801
000340 3b 18 94 3c 23 52 4e 3c 0b ea 31 3c f3 61 c1 3c
       0.01807796 0.012592825 0.010859023 0.023606276
000350 f3 c3 3d 3d f5 23 7a 3c d7 6c 29 3c 61 70 ac 3c
       0.04632945 0.015267362 0.010340891 0.02104968
000360 5e a7 99 3c b2 ca 96 3c fb e3 3b 3c fd 0b b4 3c
       0.018756565 0.0184072 0.011467929 0.021978373
000370 cc e5 1f 3d 6e b2 62 3c b1 61 86 3c e6 2e 9e 3c
       0.03903751 0.013836486 0.016404005 0.019309472
000380 54 43 c9 3c f6 b4 d7 3c 80 d4 29 3d f4 07 3b 3c
       0.024568237 0.026331406 0.04146242 0.01141547
000390 ba 85 a0 3d 37 d7 a1 3c 94 a0 32 3d 3d 90 85 3d
       0.07838006 0.019755943 0.04361017 0.06521652
0003a0 7e cf 8c 3c f1 69 8c 3c 7f 83 d1 3c 80 3a 0a 3d
       0.017188784 0.01714036 0.025575398 0.033747196
0003b0 30 dd 38 3d 3a c1 1a 3d 8b fc 0c 3d ad 11 8b 3c
       0.045132816 0.03778193 0.03442053 0.016976202
0003c0 43 65 98 3c 6a d5 a5 3c 76 36 13 3d d6 d8 8d 3c
       0.018602973 0.020243365 0.03594061 0.01731531
0003d0 28 80 4c 3c e9 21 16 3d d9 ba 34 3c fa 80 67 3c
       0.012481727 0.036653433 0.011030876 0.0141298715
0003e0 99 59 df 3c 29 a9 52 3c 89 d7 83 3c b3 d0 27 3d
       0.027264403 0.012857714 0.016093986 0.040970515
0003f0 90 6a d4 3c 8d 2d b9 3c e8 78 a3 3c 6b 3a 76 3c
       0.02592972 0.022604728 0.019955114 0.015028576

net.4.weight f4 [128, 256]
000000 14 75 5c 3b 8d b6 54 be 3c 1e f1 bd e3 a8 b8 bc
       0.003363912 -0.20772763 -0.11773345 -0.022541469
000010 cd 91 cf 3d 33 fe 37 be 01 3a d2 3c 27 1d ed 3d
       0.10135231 -0.17968063 0.025662424 0.11577826
000020 60 cb 95 3c 0f f5 10 bd f8 39 32 3d 76 a7 fc bc
       0.018285453 -0.035389956 0.043512315 -0.03084157
000030 5a a7 56 bd e3 2a 93 3d 9d bf 43 bd c6 e8 10 3e
       -0.052405693 0.07185914 -0.04779016 0.14151296
000040 91 c9 80 bd a6 64 cd 3d ea 69 07 be e0 99 f6 3c
       -0.06288446 0.10028963 -0.13223997 0.03010267
000050 cb 62 af 3d 45 a5 20 3d d2 da a5 bd 3c b1 12 3d
       0.08563765 0.039220113 -0.08098377 0.035813555
000060 c2 da 12 3d 95 ef 76 bc 7c 1a 22 3d 10 77 c4 bd
       0.035853155 -0.015071769 0.03957604 -0.09593022
000070 28 46 24 3e 6b a2 a2 bd 6b 1e 84 3d 8e a2 17 3e
       0.16042387 -0.07941135 0.06451114 0.14808103
000080 a7 81 22 bc d0 e0 09 bd 04 0a 09 3e de 50 54 3d
       -0.009918607 -0.033661664 0.13382727 0.051834933
000090 17 4d 68 3d 6c e3 e6 bc d0 67 7f 3c b1 8d c7 bb
       0.056714144 -0.028184615 0.015588716 -0.006089889
0000a0 ec 8c c2 bc 79 9a d0 3d 2d 0e ca 3d e7 2e 54 bc
       -0.023748837 0.10185713 0.09865985 -0.0129506355
0000b0 e8 25 36 3d 90 f6 e7 b8 ed 9d 48 bd d5 1d 24 3b
       0.044469744 -0.00011060864 -0.048978735 0.0025042195
0000c0 ba cb 9a bd fe b8 01 3d c0 8c 73 bd 1e 70 6c 3c
       -0.07558389 0.031670563 -0.0594604 0.014431028
0000d0 a4 9b a1 bd ac 51 01 bd f8 b5 a0 3b fc 4e 4e 3d
       -0.07891014 -0.03157203 0.004904505 0.050368294
0000e0 56 27 fb bd c3 b6 f1 3c ef 81 a5 bd e8 3d cf bc
       -0.12263362 0.029506093 -0.080814235 -0.025298074
0000f0 8a 22 04 b9 fc 67 1b 3c 60 14 9d bd 97 01 11 bd
       -0.00012601368 0.009485241 -0.07669902 -0.035401907
000100 3a 28 a1 bd 65 d3 d2 bd 66 64 88 bc 3d a4 24 3e
       -0.07869001 -0.102942266 -0.016649436 0.16078277
000110 e0 77 56 3c 2c 39 8f bc 1e bf 96 3c a9 6b 46 3d
       0.013090104 -0.017483316 0.018401679 0.048442516
000120 af cb 9d bb 71 a3 2d bc ee d4 00 be c1 20 e6 bd
       -0.0048155407 -0.0105980495 -0.12581226 -0.11236716
000130 59 aa 9f bc df 68 2f 3c d7 2c f6 bd 76 f7 cf 3d
       -0.019490408 0.010706156 -0.12020271 0.10154621
000140 59 d4 80 3d 12 4a 0e bd ad 71 b3 bb c4 24 86 bd
       0.06290502 -0.034738608 -0.0054761977 -0.06549981
000150 c0 6a 07 3e 51 5d 88 bd 15 4e 3d 3c e5 36 0b bc
       0.13224316 -0.06658424 0.011554261 -0.008496975
000160 41 64 bd bc 7f d0 6f b9 7c 73 29 be 2f 5b 92 bd
       -0.023119094 -0.00022870487 -0.1654796 -0.07146298
000170 0b 0a cd bd f0 d5 9a bd be 35 74 bd 25 39 47 3d
       -0.10011681 -0.075603366 -0.059621565 0.04863848
000180 b7 93 8b bd b6 d8 ca 3d 2c 29 08 be db cd 95 3d
       -0.06815284 0.099046156 -0.13296956 0.073146544
000190 c4 ab 4a 3d 25 c9 8b 3d bc f0 eb bc fb 42 9c ba
       0.049480215 0.06825475 -0.028801315 -0.0011921817
0001a0 7b b1 0c bc 1b 92 87 3d 02 e0 55 3d ff 37 08 3c
       -0.0085872365 0.06619664 0.052215584 0.008314132
0001b0 19 2b 9c bd f6 e1 21 be 52 4e aa bd 42 03 c3 bd
       -0.07625408 -0.15808854 -0.0831572 -0.09522106
0001c0 74 bb 25 be 69 0e 7c bd 75 f6 4f bd f7 d5 b8 3d
       -0.16184789 -0.06153718 -0.05077215 0.090251856
0001d0 01 4e 1a bc f4 e8 30 bd 0a d1 53 3d 8f 08 1d bc
       -0.009418012 -0.04319091 0.051713027 -0.00958456
0001e0 2f e6 9c 3c a7 27 7d bd 23 2f 90 3b 42 61 8e 3c
       0.019152729 -0.061805394 0.0044001504 0.01738036
0001f0 cc 88 6e bd 36 9a 98 3d 65 d3 dd 3c 25 2a fa 3d
       -0.05823593 0.074512884 0.02707834 0.1221507
000200 51 21 ca bd 64 6a 7c 3d 80 d9 9a bd d8 cb 91 3d
       -0.09869636 0.0616249 -0.07561016 0.07118958
000210 24 86 cc bd ed 43 f1 bb 50 42 dc bd b7 13 03 3d
       -0.09986523 -0.0073628337 -0.107548356 0.032001223
000220 e6 21 cc bd 11 4f 11 bd fe a4 d4 bb 04 89 d8 3d
       -0.09967403 -0.035475794 -0.006489395 0.10573009
000230 8b 94 d0 bc 0a a3 00 bd 1d 3b 87 3d 6f 4f e5 3d
       -0.025461456 -0.031405486 0.06603072 0.111967914
000240 91 18 d2 3d c4 ea 7a bc 79 a2 d9 3d b2 e4 2b bd
       0.10258592 -0.015314762 0.10626692 -0.041966148
000250 e2 b8 e5 3d d2 a3 06 3e 7c 93 2f 3c 4c ec b3 bc
       0.11216904 0.1314843 0.010716315 -0.021963261
000260 e4 c6 58 3d f6 76 d8 3c 4f ed da 3c 57 d3 1e be
       0.052924052 0.026423912 0.026724486 -0.15510307
000270 be f8 91 bd e2 97 31 be e2 53 a3 3d 1d 35 35 3c
       -0.07127522 -0.17343095 0.07974984 0.0110600265
000280 41 51 19 3d d9 d5 79 bc f9 85 23 3e 0a 60 03 bd
       0.037431005 -0.015248739 0.15969075 -0.03207401
000290 d8 7c 06 3a 4c f4 33 3d 19 e6 78 3d 60 16 0d be
       0.00051302975 0.04393415 0.060766313 -0.13778067
0002a0 d4 c5 2c bd 40 f5 a3 3c 29 bd b6 bd 65 54 09 3d
       -0.04218085 0.020014405 -0.08922798 0.03352775
0002b0 bc 35 8c 3d 88 83 9a bb 0c 00 26 3d a2 a1 63 bd
       0.068461865 -0.004715387 0.04052739 -0.055574067
0002c0 d7 a8 7f bd 87 ca ec 3c a0 66 f1 3b 02 72 28 3c
       -0.062416878 0.028905166 0.00736697 0.010281088
0002d0 66 e7 15 3d 2a 93 43 3d fd 5a a0 bd 87 fb e4 3d
       0.036597632 0.04774777 -0.07829855 0.111807875
0002e0 04 59 97 3d ad e7 50 be c6 5e 2d 3d e7 89 0e bd
       0.07390025 -0.20400877 0.04232671 -0.034799483
0002f0 ff c0 7e 3d b1 79 1e bd 65 c5 c0 3d 17 dc c6 bd
       0.062195774 -0.038690273 0.0941265 -0.097099476
000300 cd 51 97 3d 04 74 42 bd f7 90 93 bd 8c 99 dc 3c
       0.07388649 -0.047473922 -0.07205384 0.026928686
000310 3e 24 a3 3c b5 54 4c bd ff 25 86 bc d1 ea 6b bd
       0.019914743 -0.04988547 -0.01637554 -0.057596985
000320 95 0e 9c bc 54 12 9f 3d 1e 8f de 38 41 2b 62 3d
       -0.019049922 0.07767168 0.000106124426 0.05521703
000330 45 03 1d 3e 49 88 c6 bb 44 5d 8b bd 60 75 26 bd
       0.15333278 -0.006058727 -0.068048984 -0.04063928
000340 e1 9e 91 3c 61 5c 47 bd af 7e 33 bb 8e a1 b6 bb
       0.017775955 -0.048672084 -0.0027388742 -0.005573458
000350 2b 61 a8 bc 57 e8 0f be f7 02 bb bd 7c 3b 85 be
       -0.020554146 -0.14053474 -0.09131425 -0.26021945
000360 21 58 b3 bc fa 70 8c bd 2e cb 9a bd be 41 ba bd
       -0.02189261 -0.06857486 -0.07558285 -0.090945706
000370 f1 80 3e 3d 7e 52 60 ba c0 96 9b 3d e0 69 08 bd
       0.046509687 -0.0008557214 0.07597113 -0.033304095
000380 3a c8 01 be 92 ef b8 3d 3f 51 31 be 11 09 ba 3d
       -0.12674037 0.090300694 -0.17316149 0.090837605
000390 05 20 d6 bb 98 7b 88 3b 50 41 48 bd 9b c0 30 3d
       -0.0065345787 0.004165124 -0.04889041 0.043152433
0003a0 62 89 98 bc 45 4b e6 bc 26 40 72 bc e9 9e 8b bc
       -0.018620197 -0.028112063 -0.014785802 -0.017043548
0003b0 17 4b d7 3c db 88 ff bc 25 11 0a be 41 42 9f 3b
       0.026280923 -0.031193187 -0.13483103 0.004860193
0003c0 e3 06 9d bd 0b d4 30 bd e0 ff 3d bd 6c df a8 3c
       -0.07667329 -0.04317097 -0.0463866 0.020614348
0003d0 52 c0 12 3d b4 2d 07 be 22 a6 01 3e 04 11 b5 bd
       0.035827942 -0.13201028 0.12661031 -0.08841136
0003e0 56 d6 76 3c 41 f1 04 3e d8 b3 8e 3d 60 d4 b2 3c
       0.01506575 0.12982656 0.06967896 0.021829784
0003f0 d6 5f b8 3d 76 4b d0 bd 4b 72 5d bb 95 85 18 3d
       0.09002654 -0.10170643 -0.0033790048 0.03723677
