models/STGCN/best_models/best_model_0.7550_5sec_stride2.pth (torch, 21674 bytes, 32 tensors)

layer1.A f4 [21, 21]
000000 00 00 80 3f 00 00 80 3f 00 00 00 00 00 00 00 00
       1.0 1.0 0.0 0.0
000010 00 00 00 00 00 00 80 3f 00 00 00 00 00 00 00 00
       0.0 1.0 0.0 0.0
000020 00 00 00 00 00 00 80 3f 00 00 00 00 00 00 00 00
       0.0 1.0 0.0 0.0
000030 00 00 00 00 00 00 80 3f 00 00 00 00 00 00 00 00
       0.0 1.0 0.0 0.0
000040 00 00 00 00 00 00 80 3f 00 00 00 00 00 00 00 00
       0.0 1.0 0.0 0.0
000050 00 00 00 00 00 00 80 3f 00 00 80 3f 00 00 80 3f
       0.0 1.0 1.0 1.0
000060 00 00 00 00 00 00 00 00 00 00 00 00 00 00 00 00
       0.0 0.0 0.0 0.0
000070 00 00 00 00 00 00 00 00 00 00 00 00 00 00 00 00
       0.0 0.0 0.0 0.0
000080 00 00 00 00 00 00 00 00 00 00 00 00 00 00 00 00
       0.0 0.0 0.0 0.0
000090 00 00 00 00 00 00 00 00 00 00 00 00 00 00 00 00
       0.0 0.0 0.0 0.0
0000a0 00 00 00 00 00 00 00 00 00 00 00 00 00 00 80 3f
       0.0 0.0 0.0 1.0
0000b0 00 00 80 3f 00 00 80 3f 00 00 00 00 00 00 00 00
       1.0 1.0 0.0 0.0
0000c0 00 00 00 00 00 00 00 00 00 00 00 00 00 00 00 00
       0.0 0.0 0.0 0.0
0000d0 00 00 00 00 00 00 00 00 00 00 00 00 00 00 00 00
       0.0 0.0 0.0 0.0
0000e0 00 00 00 00 00 00 00 00 00 00 00 00 00 00 00 00
       0.0 0.0 0.0 0.0
0000f0 00 00 00 00 00 00 00 00 00 00 00 00 00 00 00 00
       0.0 0.0 0.0 0.0
000100 00 00 00 00 00 00 80 3f 00 00 80 3f 00 00 80 3f
       0.0 1.0 1.0 1.0
000110 00 00 00 00 00 00 00 00 00 00 00 00 00 00 00 00
       0.0 0.0 0.0 0.0
000120 00 00 00 00 00 00 00 00 00 00 00 00 00 00 00 00
       0.0 0.0 0.0 0.0
000130 00 00 00 00 00 00 00 00 00 00 00 00 00 00 00 00
       0.0 0.0 0.0 0.0
000140 00 00 00 00 00 00 00 00 00 00 00 00 00 00 00 00
       0.0 0.0 0.0 0.0
000150 00 00 00 00 00 00 00 00 00 00 00 00 00 00 80 3f
       0.0 0.0 0.0 1.0
000160 00 00 80 3f 00 00 00 00 00 00 00 00 00 00 00 00
       1.0 0.0 0.0 0.0
000170 00 00 00 00 00 00 00 00 00 00 00 00 00 00 00 00
       0.0 0.0 0.0 0.0
000180 00 00 00 00 00 00 00 00 00 00 00 00 00 00 00 00
       0.0 0.0 0.0 0.0
000190 00 00 00 00 00 00 00 00 00 00 00 00 00 00 00 00
       0.0 0.0 0.0 0.0
0001a0 00 00 00 00 00 00 80 3f 00 00 00 00 00 00 00 00
       0.0 1.0 0.0 0.0
0001b0 00 00 00 00 00 00 00 00 00 00 80 3f 00 00 80 3f
       0.0 0.0 1.0 1.0
0001c0 00 00 00 00 00 00 00 00 00 00 80 3f 00 00 00 00
       0.0 0.0 1.0 0.0
0001d0 00 00 00 00 00 00 00 00 00 00 00 00 00 00 00 00
       0.0 0.0 0.0 0.0
0001e0 00 00 00 00 00 00 00 00 00 00 00 00 00 00 00 00
       0.0 0.0 0.0 0.0
0001f0 00 00 00 00 00 00 00 00 00 00 00 00 00 00 00 00
       0.0 0.0 0.0 0.0
000200 00 00 00 00 00 00 00 00 00 00 00 00 00 00 80 3f
       0.0 0.0 0.0 1.0
000210 00 00 80 3f 00 00 80 3f 00 00 00 00 00 00 00 00
       1.0 1.0 0.0 0.0
000220 00 00 00 00 00 00 00 00 00 00 00 00 00 00 00 00
       0.0 0.0 0.0 0.0
000230 00 00 00 00 00 00 00 00 00 00 00 00 00 00 00 00
       0.0 0.0 0.0 0.0
000240 00 00 00 00 00 00 00 00 00 00 00 00 00 00 00 00
       0.0 0.0 0.0 0.0
000250 00 00 00 00 00 00 00 00 00 00 00 00 00 00 00 00
       0.0 0.0 0.0 0.0
000260 00 00 00 00 00 00 80 3f 00 00 80 3f 00 00 80 3f
       0.0 1.0 1.0 1.0
000270 00 00 00 00 00 00 00 00 00 00 00 00 00 00 00 00
       0.0 0.0 0.0 0.0
000280 00 00 00 00 00 00 00 00 00 00 00 00 00 00 00 00
       0.0 0.0 0.0 0.0
000290 00 00 00 00 00 00 00 00 00 00 00 00 00 00 00 00
       0.0 0.0 0.0 0.0
0002a0 00 00 00 00 00 00 00 00 00 00 00 00 00 00 00 00
       0.0 0.0 0.0 0.0
0002b0 00 00 00 00 00 00 00 00 00 00 00 00 00 00 80 3f
       0.0 0.0 0.0 1.0
0002c0 00 00 80 3f 00 00 00 00 00 00 00 00 00 00 00 00
       1.0 0.0 0.0 0.0
0002d0 00 00 00 00 00 00 00 00 00 00 00 00 00 00 00 00
       0.0 0.0 0.0 0.0
0002e0 00 00 00 00 00 00 00 00 00 00 00 00 00 00 00 00
       0.0 0.0 0.0 0.0
0002f0 00 00 00 00 00 00 80 3f 00 00 00 00 00 00 00 00
       0.0 1.0 0.0 0.0
000300 00 00 00 00 00 00 00 00 00 00 80 3f 00 00 00 00
       0.0 0.0 1.0 0.0
000310 00 00 00 00 00 00 00 00 00 00 80 3f 00 00 80 3f
       0.0 0.0 1.0 1.0
000320 00 00 00 00 00 00 00 00 00 00 80 3f 00 00 00 00
       0.0 0.0 1.0 0.0
000330 00 00 00 00 00 00 00 00 00 00 00 00 00 00 00 00
       0.0 0.0 0.0 0.0
000340 00 00 00 00 00 00 00 00 00 00 00 00 00 00 00 00
       0.0 0.0 0.0 0.0
000350 00 00 00 00 00 00 00 00 00 00 00 00 00 00 00 00
       0.0 0.0 0.0 0.0
000360 00 00 00 00 00 00 00 00 00 00 00 00 00 00 80 3f
       0.0 0.0 0.0 1.0
000370 00 00 80 3f 00 00 80 3f 00 00 00 00 00 00 00 00
       1.0 1.0 0.0 0.0
000380 00 00 00 00 00 00 00 00 00 00 00 00 00 00 00 00
       0.0 0.0 0.0 0.0
000390 00 00 00 00 00 00 00 00 00 00 00 00 00 00 00 00
       0.0 0.0 0.0 0.0
0003a0 00 00 00 00 00 00 00 00 00 00 00 00 00 00 00 00
       0.0 0.0 0.0 0.0
0003b0 00 00 00 00 00 00 00 00 00 00 00 00 00 00 00 00
       0.0 0.0 0.0 0.0
0003c0 00 00 00 00 00 00 80 3f 00 00 80 3f 00 00 80 3f
       0.0 1.0 1.0 1.0
0003d0 00 00 00 00 00 00 00 00 00 00 00 00 00 00 00 00
       0.0 0.0 0.0 0.0
0003e0 00 00 00 00 00 00 00 00 00 00 00 00 00 00 00 00
       0.0 0.0 0.0 0.0
0003f0 00 00 00 00 00 00 00 00 00 00 00 00 00 00 00 00
       0.0 0.0 0.0 0.0

layer1.gcn.weight f4 [8, 3, 1, 1]
000000 6c 20 f6 3e a8 b6 02 3f 44 4a 4c be 1d 32 d7 bc
       0.4807161 0.5105996 -0.19950205 -0.026269013
000010 e8 4b c6 be cd 36 bd 3e 20 e6 51 3d 19 7d db be
       -0.38729787 0.36955872 0.051244855 -0.4286888
000020 98 02 67 bf c8 fd 90 bc a5 ad c2 3e 09 79 9b be
       -0.9023833 -0.017699137 0.38023105 -0.3036578
000030 0d 04 df 3e ab ea f2 be 04 72 f7 3d 11 14 d4 3e
       0.43557778 -0.47444662 0.12082294 0.4142156
000040 06 17 9a bc 0d 35 7d be 02 f7 29 bf bc 8f 63 3e
       -0.018809807 -0.24727269 -0.6639253 0.22222799
000050 f3 c8 13 be 02 0b a3 3e 11 a7 69 be 24 ff 2e bf
       -0.14432125 0.31844336 -0.22817637 -0.68358064

layer1.gcn.bias f4 [8]
000000 57 f1 4d bf 7f 64 51 3e 66 71 0f 3e c4 9a ff be
       -0.8044638 0.20448492 0.14008102 -0.49922764
000010 ee e2 23 bf 2b 20 0f 3e 81 8f e2 3e de 09 a2 be
       -0.6401814 0.13977115 0.4425011 -0.31648153

layer1.tcn.weight f4 [8, 8, 3, 1]
000000 21 9e d9 bc 34 7a 9f 3e 2c 78 12 bd eb 92 93 bd
       -0.02656466 0.3114792 -0.035759136 -0.07205757
000010 a1 e7 6b be 1c 05 0d be ae 5f 26 be 6d 2d b2 3d
       -0.23037578 -0.1377148 -0.16247436 0.087000705
000020 86 d7 e4 bd 45 43 15 3e 27 af 9b 3c db 5a 1f bd
       -0.1117392 0.14576443 0.019004418 -0.038905006
000030 19 e8 50 3d c5 50 cb 3d 59 a0 33 be 71 fb b0 bd
       0.051002596 0.09927515 -0.17541637 -0.08641709
000040 a9 99 83 3a 5c 40 84 3e 9a f4 d3 bd fd eb eb bb
       0.0010040301 0.25830352 -0.103493884 -0.007199763
000050 6a d8 80 be f9 01 d0 3d fa 43 0f be 43 3a 1f 3e
       -0.2516511 0.10156626 -0.13990775 0.15549569
000060 15 e7 2e 3d 3b d3 42 3b 0e 2e bb bd 47 89 b1 bd
       0.042700846 0.0029727954 -0.091396436 -0.08668762
000070 36 82 e9 bd b0 79 22 3e 98 f7 6c 3d 01 6e 80 bc
       -0.11401789 0.15866733 0.05785331 -0.015677454
000080 4e 49 bc 3c 09 3d 45 3e 57 63 23 3d 24 07 e1 bc
       0.022984173 0.19261564 0.03988966 -0.027469225
000090 e1 09 4f be c1 64 d4 bd ea 2a 71 3e 47 ef 09 be
       -0.20218612 -0.1037078 0.23551527 -0.13470183
0000a0 05 c8 81 be 8c df ba 3c fb 5d 3d 3e 63 f9 8c 3d
       -0.25347915 0.022811674 0.18492882 0.06883504
0000b0 d9 8a 45 3d ee be df bd 32 aa 6b be 39 40 d0 3d
       0.04822812 -0.10925089 -0.23014143 0.101684995
0000c0 6f 7e 10 3e ea 5e 2b bd 6d 67 61 3e 0e e4 5b bd
       0.1411073 -0.041838564 0.2201211 -0.053684287
0000d0 b4 e3 1b 3e 37 cf 44 be ea b4 67 be 2f 4a 00 be
       0.1522358 -0.19219671 -0.22627607 -0.12528299
0000e0 f7 1a 1d bd 03 30 8b 3e 44 60 98 bd 90 59 41 3e
       -0.038355794 0.27185068 -0.07440236 0.18881822
0000f0 e4 c0 e0 bc 15 4f 97 bd 9c d3 f2 bd b7 4e 36 3e
       -0.027435727 -0.073881306 -0.118567675 0.17803465
000100 fe d2 9a bd 76 68 b4 bd fa 19 84 3d 4f e0 2e 3d
       -0.07559775 -0.08808987 0.06450267 0.042694386
000110 03 56 20 be ff c3 50 bd ab da 49 3c 07 85 d2 3c
       -0.15657811 -0.050968166 0.012320201 0.025698198
000120 06 c5 da 3d 45 c3 0f be a9 0b 2d be a3 4e f7 3d
       0.106821105 -0.14039333 -0.16898979 0.12075546
000130 41 77 87 3d cb cf 7a bc a3 14 d6 3c 7e 23 a2 be
       0.06614543 -0.015308331 0.026132887 -0.31667703
000140 b4 83 ce bd b2 9e 46 3d e0 73 9e bd ac 05 78 bd
       -0.10083714 0.048491187 -0.07736945 -0.060552284
000150 12 82 a2 bc 40 35 49 bd da dd e5 bc 68 83 b9 bd
       -0.019837413 -0.04912305 -0.028059889 -0.09058267
000160 9a 0c 0c be 8c 9d 87 3c 48 7f 96 bd cc 38 0c 3d
       -0.13676682 0.016554616 -0.07348496 0.034233853
000170 bf e7 35 be b2 f5 1b be 98 b4 0b 3c 66 a9 90 be
       -0.17764185 -0.15230444 0.008526944 -0.2825424
000180 d7 cd 10 3e a3 e0 32 be 2b 87 1f be 69 52 ab bd
       0.14141022 -0.17468505 -0.15578906 -0.08365328
000190 c9 f6 81 bd cb 7f a4 be b4 bc 20 3e 5e 7a 7d 3e
       -0.06345899 -0.32128748 0.15696985 0.2475371
0001a0 cb 53 94 3e ed d5 52 bb be 43 4f 3e c6 45 6b bd
       0.2897018 -0.0032170967 0.20240685 -0.057439588
0001b0 0b e3 e9 3c f1 79 1c 3e b9 57 94 bc 9c 04 0b 3d
       0.028550645 0.15280892 -0.018108236 0.033939943
0001c0 e6 98 57 3d 93 d5 2b 3e 90 70 20 3e c0 63 16 be
       0.05263605 0.16780691 0.15667939 -0.14686489
0001d0 53 b2 ea bd 21 15 a7 3e 19 d4 23 3e c6 7a 55 3e
       -0.11459794 0.32633308 0.15998878 0.20847616
0001e0 39 48 29 bd 14 c8 ab bd 1a 60 1a 3e f2 9d 32 3d
       -0.041328643 -0.08387771 0.15075722 0.04360766
0001f0 70 11 a5 bc ef 37 32 3d 7a bb bd bd e7 dc 27 be
       -0.020149916 0.043510374 -0.09264274 -0.16392861
000200 73 e5 9e bd f2 0c 55 bd aa b6 b0 bc a9 e8 59 be
       -0.07758608 -0.0520143 -0.021571476 -0.21280159
000210 66 4b 39 bd 57 52 7d be f3 41 78 be ab 7c 59 3c
       -0.04523792 -0.24738441 -0.24243908 0.013274352
000220 94 73 00 3e b6 d4 0a be f8 ec 18 3e 9a ed e5 3d
       0.1254409 -0.13557705 0.14934146 0.112269595
000230 3e 3d 78 3e ef 07 66 be 29 16 7b bc 34 01 04 be
       0.24242112 -0.22463964 -0.015325108 -0.12891084
000240 fe 21 48 3d 3c a2 e9 3d 56 47 94 bc a9 96 ce bd
       0.048860542 0.11407897 -0.018100422 -0.1008733
000250 06 0f 80 3d 8a 98 0c bd 9b 33 60 3d 11 7e 2c be
       0.062528655 -0.03432516 0.054736715 -0.16844966
000260 20 3b 4d bd 69 a8 88 bd 9b 8c 1e be c6 8b 2b 3d
       -0.050105214 -0.06672747 -0.15483324 0.041881345
000270 9c 0e ab 3c bb 3d 41 3e 44 2e 6c 3d e3 95 64 bc
       0.02088099 0.18871205 0.05766131 -0.013951751
000280 83 d0 2d 3e f7 2e 8e 3e 76 cb 28 3d b7 0d db be
       0.16974072 0.27770206 0.04120966 -0.427839
000290 5d 8d ba be 47 b2 2f bd c1 ca 2b 3e 50 86 76 bd
       -0.36435977 -0.042894628 0.16776563 -0.060186684
0002a0 9c 52 83 bc 9a ac 0a be 4c f6 46 be 91 19 4d be
       -0.016030602 -0.13542405 -0.19429892 -0.20029284
0002b0 9c 8a ea bc 94 88 8a 3d a4 a2 69 be 1f 46 43 3e
       -0.028630547 0.067643315 -0.22815949 0.19069718
0002c0 e5 ad 2a be 17 4a 11 be 61 22 1a be c8 d1 74 bd
       -0.16667898 -0.1418842 -0.15052177 -0.059770375
0002d0 04 0e 30 3d d8 82 02 3d c5 e4 9e bb c5 54 cb bd
       0.042982116 0.031863064 -0.004849049 -0.09928278
0002e0 65 60 7c bd 44 85 6e be a9 8d db 3d 47 ad 4b 3e
       -0.061615366 -0.23293024 0.10720379 0.19890319
0002f0 02 4b 85 3e eb 99 cd 3d 7e ce 64 3d 04 b3 71 be
       0.2603379 0.10039123 0.05586099 -0.23603445

layer1.tcn.bias f4 [8]
000000 85 21 1c 39 d3 1d ef 39 89 33 8c 38 c6 c6 92 39
       0.00014889806 0.00045607853 6.6853194e-05 0.00027995388
000010 89 e5 b6 38 8f 42 1e 3a 6d ab 87 38 06 89 61 39
       8.7211905e-05 0.00060371397 6.469232e-05 0.00021508717

layer1.bn.weight f4 [8]
000000 22 d5 80 3f c0 9f 5d 3f c3 12 68 3f 0a f2 95 3f
       1.0065043 0.86571884 0.9065363 1.171449
000010 26 5b 96 3f f4 16 8c 3f eb 62 96 3f 0c d0 94 3f
       1.1746566 1.0944505 1.1748937 1.1625991

layer1.bn.bias f4 [8]
000000 c1 ec 6a be 8e 43 d0 3d b9 a5 bf 3d 22 dc 73 bd
       -0.22941877 0.10169135 0.09357781 -0.059536107
000010 81 8a 61 3d d2 3f 80 be e8 dd 97 3e 88 a4 7d 3e
       0.05506373 -0.2504869 0.2966149 0.24769795

layer1.bn.running_mean f4 [8]
000000 20 3a 41 3f 9d a5 e1 be f0 95 0f 3f 25 98 0e be
       0.75479317 -0.44071665 0.5608816 -0.13925226
000010 fc b0 a4 bc 8e a3 2e 3e 44 16 41 3f 7d ff 44 bf
       -0.020103924 0.17054579 0.754246 -0.76952344

layer1.bn.running_var f4 [8]
000000 db 4a e4 3d 4a 38 cc 3d 38 06 52 3e 1e e3 cf 3c
       0.1114709 0.09971674 0.20510185 0.025376853
000010 d0 79 27 3e d3 47 90 3e d8 3c 86 3e 34 32 13 3e
       0.16355062 0.28179798 0.26218295 0.1437462

layer1.res.0.weight f4 [8, 3, 1, 1]
000000 5e 68 b6 bd d8 07 f5 be 37 ba 62 3e 27 0f 2b 3e
       -0.08906625 -0.47857547 0.22141348 0.16704999
000010 eb 41 84 3e 41 20 a6 be 21 6c d6 bd 1d 34 20 3f
       0.2583154 -0.32446483 -0.10469843 0.6257952
000020 9e d7 7d 3e bc 1a 4f 3f 3a 5b 8d be 59 98 68 3d
       0.24789283 0.8090017 -0.27608663 0.056785915
000030 a4 5a 30 3e 4c 2a af 3d 9d d9 fb bd a3 17 18 3d
       0.17222077 0.08552989 -0.12297366 0.037131917
000040 d7 b7 30 bf 3d 5f db be 47 1f 0a 3f 0a 6a 3d 3d
       -0.6903052 -0.428461 0.53953975 0.046243705
000050 44 68 a2 be c8 64 3c bd 30 cb 31 3e 3c 28 25 be
       -0.31720173 -0.04599455 0.17362666 -0.1612863

layer1.res.0.bias f4 [8]
000000 18 fb 02 39 59 74 98 39 50 d3 59 b8 f9 e1 75 39
       0.00012491306 0.00029078385 -5.193363e-05 0.00023449202
000010 93 56 19 3b 13 77 49 3a b5 7f a3 b8 d2 78 6c 3a
       0.002339755 0.0007685285 -7.796233e-05 0.0009020689

layer1.res.1.weight f4 [8]
000000 7c 62 96 3f 00 8d 99 3f 50 47 14 3f e8 f4 76 3f
       1.1748805 1.1996155 0.57921314 0.9646745
000010 28 75 35 3f 2c 5f 5c 3f 00 aa 0f 3f 4f e4 4c 3f
       0.7088189 0.8608272 0.56118774 0.8003587

layer1.res.1.bias f4 [8]
000000 c1 ec 6a be 8e 43 d0 3d b9 a5 bf 3d 22 dc 73 bd
       -0.22941877 0.10169135 0.09357781 -0.059536107
000010 81 8a 61 3d d2 3f 80 be e8 dd 97 3e 88 a4 7d 3e
       0.05506373 -0.2504869 0.2966149 0.24769795

layer1.res.1.running_mean f4 [8]
000000 06 ca 8e be 97 86 69 3e e7 92 5d 3e d9 4a c2 3e
       -0.27888507 0.22805248 0.2163807 0.3794773
000010 ce 3b 1b 3e 2b 70 92 be 90 dd ba 3e 8b da 5b 3d
       0.15159532 -0.28601202 0.36497164 0.053675216

layer1.res.1.running_var f4 [8]
000000 af 03 ab 3c 87 b5 0d 3c b1 6c 07 3d cd 0d 54 3d
       0.02087578 0.0086492365 0.03306264 0.051770974
000010 13 7f 47 3b 7a 46 22 3d ee b1 b7 3c 5c 51 31 3b
       0.0030440732 0.039617993 0.02242371 0.002705655

layer2.A f4 [21, 21]
000000 00 00 80 3f 00 00 80 3f 00 00 00 00 00 00 00 00
       1.0 1.0 0.0 0.0
000010 00 00 00 00 00 00 80 3f 00 00 00 00 00 00 00 00
       0.0 1.0 0.0 0.0
000020 00 00 00 00 00 00 80 3f 00 00 00 00 00 00 00 00
       0.0 1.0 0.0 0.0
000030 00 00 00 00 00 00 80 3f 00 00 00 00 00 00 00 00
       0.0 1.0 0.0 0.0
000040 00 00 00 00 00 00 80 3f 00 00 00 00 00 00 00 00
       0.0 1.0 0.0 0.0
000050 00 00 00 00 00 00 80 3f 00 00 80 3f 00 00 80 3f
       0.0 1.0 1.0 1.0
000060 00 00 00 00 00 00 00 00 00 00 00 00 00 00 00 00
       0.0 0.0 0.0 0.0
000070 00 00 00 00 00 00 00 00 00 00 00 00 00 00 00 00
       0.0 0.0 0.0 0.0
000080 00 00 00 00 00 00 00 00 00 00 00 00 00 00 00 00
       0.0 0.0 0.0 0.0
000090 00 00 00 00 00 00 00 00 00 00 00 00 00 00 00 00
       0.0 0.0 0.0 0.0
0000a0 00 00 00 00 00 00 00 00 00 00 00 00 00 00 80 3f
       0.0 0.0 0.0 1.0
0000b0 00 00 80 3f 00 00 80 3f 00 00 00 00 00 00 00 00
       1.0 1.0 0.0 0.0
0000c0 00 00 00 00 00 00 00 00 00 00 00 00 00 00 00 00
       0.0 0.0 0.0 0.0
0000d0 00 00 00 00 00 00 00 00 00 00 00 00 00 00 00 00
       0.0 0.0 0.0 0.0
0000e0 00 00 00 00 00 00 00 00 00 00 00 00 00 00 00 00
       0.0 0.0 0.0 0.0
0000f0 00 00 00 00 00 00 00 00 00 00 00 00 00 00 00 00
       0.0 0.0 0.0 0.0
000100 00 00 00 00 00 00 80 3f 00 00 80 3f 00 00 80 3f
       0.0 1.0 1.0 1.0
000110 00 00 00 00 00 00 00 00 00 00 00 00 00 00 00 00
       0.0 0.0 0.0 0.0
000120 00 00 00 00 00 00 00 00 00 00 00 00 00 00 00 00
       0.0 0.0 0.0 0.0
000130 00 00 00 00 00 00 00 00 00 00 00 00 00 00 00 00
       0.0 0.0 0.0 0.0
000140 00 00 00 00 00 00 00 00 00 00 00 00 00 00 00 00
       0.0 0.0 0.0 0.0
000150 00 00 00 00 00 00 00 00 00 00 00 00 00 00 80 3f
       0.0 0.0 0.0 1.0
000160 00 00 80 3f 00 00 00 00 00 00 00 00 00 00 00 00
       1.0 0.0 0.0 0.0
000170 00 00 00 00 00 00 00 00 00 00 00 00 00 00 00 00
       0.0 0.0 0.0 0.0
000180 00 00 00 00 00 00 00 00 00 00 00 00 00 00 00 00
       0.0 0.0 0.0 0.0
000190 00 00 00 00 00 00 00 00 00 00 00 00 00 00 00 00
       0.0 0.0 0.0 0.0
0001a0 00 00 00 00 00 00 80 3f 00 00 00 00 00 00 00 00
       0.0 1.0 0.0 0.0
0001b0 00 00 00 00 00 00 00 00 00 00 80 3f 00 00 80 3f
       0.0 0.0 1.0 1.0
0001c0 00 00 00 00 00 00 00 00 00 00 80 3f 00 00 00 00
       0.0 0.0 1.0 0.0
0001d0 00 00 00 00 00 00 00 00 00 00 00 00 00 00 00 00
       0.0 0.0 0.0 0.0
0001e0 00 00 00 00 00 00 00 00 00 00 00 00 00 00 00 00
       0.0 0.0 0.0 0.0
0001f0 00 00 00 00 00 00 00 00 00 00 00 00 00 00 00 00
       0.0 0.0 0.0 0.0
000200 00 00 00 00 00 00 00 00 00 00 00 00 00 00 80 3f
       0.0 0.0 0.0 1.0
000210 00 00 80 3f 00 00 80 3f 00 00 00 00 00 00 00 00
       1.0 1.0 0.0 0.0
000220 00 00 00 00 00 00 00 00 00 00 00 00 00 00 00 00
       0.0 0.0 0.0 0.0
000230 00 00 00 00 00 00 00 00 00 00 00 00 00 00 00 00
       0.0 0.0 0.0 0.0
000240 00 00 00 00 00 00 00 00 00 00 00 00 00 00 00 00
       0.0 0.0 0.0 0.0
000250 00 00 00 00 00 00 00 00 00 00 00 00 00 00 00 00
       0.0 0.0 0.0 0.0
000260 00 00 00 00 00 00 80 3f 00 00 80 3f 00 00 80 3f
       0.0 1.0 1.0 1.0
000270 00 00 00 00 00 00 00 00 00 00 00 00 00 00 00 00
       0.0 0.0 0.0 0.0
000280 00 00 00 00 00 00 00 00 00 00 00 00 00 00 00 00
       0.0 0.0 0.0 0.0
000290 00 00 00 00 00 00 00 00 00 00 00 00 00 00 00 00
       0.0 0.0 0.0 0.0
0002a0 00 00 00 00 00 00 00 00 00 00 00 00 00 00 00 00
       0.0 0.0 0.0 0.0
0002b0 00 00 00 00 00 00 00 00 00 00 00 00 00 00 80 3f
       0.0 0.0 0.0 1.0
0002c0 00 00 80 3f 00 00 00 00 00 00 00 00 00 00 00 00
       1.0 0.0 0.0 0.0
0002d0 00 00 00 00 00 00 00 00 00 00 00 00 00 00 00 00
       0.0 0.0 0.0 0.0
0002e0 00 00 00 00 00 00 00 00 00 00 00 00 00 00 00 00
       0.0 0.0 0.0 0.0
0002f0 00 00 00 00 00 00 80 3f 00 00 00 00 00 00 00 00
       0.0 1.0 0.0 0.0
000300 00 00 00 00 00 00 00 00 00 00 80 3f 00 00 00 00
       0.0 0.0 1.0 0.0
000310 00 00 00 00 00 00 00 00 00 00 80 3f 00 00 80 3f
       0.0 0.0 1.0 1.0
000320 00 00 00 00 00 00 00 00 00 00 80 3f 00 00 00 00
       0.0 0.0 1.0 0.0
000330 00 00 00 00 00 00 00 00 00 00 00 00 00 00 00 00
       0.0 0.0 0.0 0.0
000340 00 00 00 00 00 00 00 00 00 00 00 00 00 00 00 00
       0.0 0.0 0.0 0.0
000350 00 00 00 00 00 00 00 00 00 00 00 00 00 00 00 00
       0.0 0.0 0.0 0.0
000360 00 00 00 00 00 00 00 00 00 00 00 00 00 00 80 3f
       0.0 0.0 0.0 1.0
000370 00 00 80 3f 00 00 80 3f 00 00 00 00 00 00 00 00
       1.0 1.0 0.0 0.0
000380 00 00 00 00 00 00 00 00 00 00 00 00 00 00 00 00
       0.0 0.0 0.0 0.0
000390 00 00 00 00 00 00 00 00 00 00 00 00 00 00 00 00
       0.0 0.0 0.0 0.0
0003a0 00 00 00 00 00 00 00 00 00 00 00 00 00 00 00 00
       0.0 0.0 0.0 0.0
0003b0 00 00 00 00 00 00 00 00 00 00 00 00 00 00 00 00
       0.0 0.0 0.0 0.0
0003c0 00 00 00 00 00 00 80 3f 00 00 80 3f 00 00 80 3f
       0.0 1.0 1.0 1.0
0003d0 00 00 00 00 00 00 00 00 00 00 00 00 00 00 00 00
       0.0 0.0 0.0 0.0
0003e0 00 00 00 00 00 00 00 00 00 00 00 00 00 00 00 00
       0.0 0.0 0.0 0.0
0003f0 00 00 00 00 00 00 00 00 00 00 00 00 00 00 00 00
       0.0 0.0 0.0 0.0

layer2.gcn.weight f4 [16, 8, 1, 1]
000000 d3 52 0b be e7 29 d9 bd 57 5a 26 be cf f3 cd 3d
       -0.13605814 -0.10603695 -0.162454 0.100562684
000010 ca 15 06 be 9b 13 a4 bd b2 36 16 be f7 ec 43 3d
       -0.1309425 -0.08011552 -0.14669302 0.04783341
000020 d1 72 91 bc 06 60 9a 3d 55 1c ff bd b3 03 c8 bd
       -0.017754944 0.07537846 -0.12456576 -0.097663306
000030 51 e8 1a bd d5 4f ce be 26 00 c2 bd d5 83 20 be
       -0.03781921 -0.40295282 -0.094726846 -0.1567529
000040 bd 56 45 3d c5 73 68 3e 02 20 52 be 50 12 a8 be
       0.048178423 0.22700413 -0.20520023 -0.3282647
000050 44 90 30 3e 18 7a 1f be 99 2c 40 3e 72 d3 e5 3d
       0.17242533 -0.15573919 0.18767013 0.112219706
000060 0b be 3d 3e 69 56 9f 3e 7c 95 6a be a6 ee a4 3e
       0.18529527 0.31120613 -0.22908586 0.32213324
000070 7e 94 02 3e 1e ed d3 bc 0a 1f 0d be aa 47 a5 3d
       0.12751958 -0.025869902 -0.13781372 0.080703095
000080 92 e6 d6 be 1d 88 a1 3d 88 84 fe bd 8d 5d 69 be
       -0.41972786 0.0788729 -0.12427622 -0.22789593
000090 7e 4a 54 be 8a fa 77 bd b8 c4 8a 3e fb 79 ec 3d
       -0.20731542 -0.060541667 0.2710321 0.115467034
0000a0 eb b1 c8 bd 71 96 47 3e 44 e2 fd 3c 2a 7e 3d be
       -0.0979956 0.19490983 0.03099168 -0.18505159
0000b0 82 ce 82 3e 0a 2d 00 3f 29 85 73 3e 9a 65 98 bb
       0.25548178 0.50068724 0.23781265 -0.0046507837
0000c0 b5 04 25 3d 71 79 d4 bd 29 08 99 3e 75 3d 37 be
       0.040287692 -0.103747256 0.29889038 -0.17894538
0000d0 13 41 08 3e f0 a1 4d 3d cd 82 14 be a8 dc 90 be
       0.13306074 0.050203264 -0.14503022 -0.28293347
0000e0 2d 74 60 be ab af 1e 3d 6f ee 2c 3d d8 6f 8c 3e
       -0.21919318 0.03874175 0.042219575 0.2742908
0000f0 b5 f0 d1 be df b3 a6 3e 85 fc 77 3e e2 73 52 be
       -0.41003957 0.32559106 0.24217422 -0.20552018
000100 3a f7 3d 3e ea 3f ef 3d d8 49 04 be 0b 19 50 be
       0.1855134 0.116821125 -0.12918794 -0.20322053
000110 49 d8 93 bd cb 09 15 3e 31 9d 2a 3e 1e 62 59 3e
       -0.072189875 0.14554517 0.16661526 0.21228835
000120 f2 24 5b 3d e0 58 36 3e 15 5f 91 bc 06 f7 bd 3e
       0.05350203 0.1780734 -0.017745534 0.37102526
000130 86 aa 62 3e a7 75 47 3e 49 5d e4 be 07 1c a8 be
       0.22135362 0.19478475 -0.4460242 -0.32833883
000140 4d 06 ea bc 57 1f 61 be cf 4a 36 39 96 16 01 3c
       -0.028567458 -0.21984611 0.00017384741 0.00787892
000150 08 b4 07 3e a4 51 a7 be b4 0d 38 3e 9b 91 03 3e
       0.1325227 -0.32679474 0.17973977 0.12848513
000160 d3 9c 8f bd 8c 73 96 bc ec a9 9d be 40 97 be be
       -0.07012334 -0.018365644 -0.30793703 -0.3722477
000170 1c bf 8b be 5c db 95 3e 20 59 a0 3c ea 0c 84 3e
       -0.27294242 0.2926892 0.019573748 0.25791103
000180 a0 7a 90 3e 38 01 6e 3e 47 aa 2b 3e 9f aa db 3d
       0.28218555 0.23242652 0.16764174 0.10725903
000190 84 40 5c 3d 12 1d 40 be 8d af 84 bd 2b 02 48 3e
       0.053772464 -0.1876109 -0.06478796 0.19532077
0001a0 32 65 20 3e 28 a6 43 bd b4 64 99 3e 79 2c f2 3d
       0.15663603 -0.04776588 0.29959643 0.11824889
0001b0 70 3b 3b bd ff 2b 07 be 11 35 0f 3d 23 72 43 3e
       -0.04571098 -0.13200377 0.034962717 0.19086508
0001c0 e3 ff c6 be 72 cf 85 be 2a ae aa 3e dd c0 70 3e
       -0.388671 -0.2613483 0.33336002 0.23511072
0001d0 df eb 88 3e cc 4c bf 3d d9 6e 9d 3d 45 66 d2 3d
       0.26742455 0.0934082 0.07687158 0.102734126
0001e0 94 94 3f 3e 66 cc 79 be a6 8a 11 3e 6c 7b 3c 3e
       0.18709022 -0.24394378 0.14213046 0.18406457
0001f0 96 0b 80 3e 14 b8 0f be 7a 49 33 be 52 89 0b be
       0.2500884 -0.14035064 -0.17508498 -0.13626602

layer2.gcn.bias f4 [16]
000000 d6 f8 45 3f 80 09 00 3f d2 42 17 bf 6f 73 21 be
       0.7733282 0.50014496 -0.59086335 -0.1576669
000010 ef 09 b8 3e b1 88 01 bf 1b 94 41 3f 20 5e b2 3e
       0.3594508 -0.505992 0.75616616 0.34837437
000020 97 80 53 bf 69 a0 2a 3f ed cc e6 be a8 f0 96 3e
       -0.8261809 0.66651016 -0.4507822 0.2948048
000030 bc c2 8c bd 81 11 68 be 6f 44 54 bf e8 21 42 bc
       -0.0687308 -0.22662927 -0.8291692 -0.011848904

layer2.tcn.weight f4 [16, 16, 3, 1]
000000 14 41 48 bd 0a 8c ab 3d 29 a0 e9 bc 68 d6 e9 3d
       -0.04889019 0.0837632 -0.028518753 0.11417848
000010 31 c9 1b 3d fc 05 22 bd 48 7b 8b bd 61 25 34 3d
       0.038033668 -0.03955649 -0.068106234 0.04398096
000020 4b 22 0d 3e f4 6d ba 3c 79 13 9a bd ee af 2c be
       0.13782613 0.022757508 -0.07523245 -0.16863987
000030 3f d7 64 bc 8e 9e ba 3d b2 66 7a bb b5 dc 11 bd
       -0.013967334 0.09112273 -0.0038208184 -0.035610873
000040 bf a4 f1 bc e9 b4 3f be cf 11 65 3d 3e d9 7b bc
       -0.029497502 -0.18721355 0.055925187 -0.015371619
000050 97 81 dd bd 9c 6d 8c 3e 16 27 07 3e 08 37 7e 3e
       -0.10815733 0.27427375 0.13198504 0.2482568
000060 dc 8a 32 bd 6d 0f 3c bd 37 f7 45 3d 1c d1 23 be
       -0.043589458 -0.04591315 0.048331466 -0.15997738
000070 3e 23 23 be 9b 87 18 be d8 2c 10 3c e4 4c 87 bd
       -0.15931413 -0.1489548 0.008799754 -0.066064626
000080 43 6c 29 bc 71 dd 7e 3d 59 b1 f7 bc fe dd 5f bd
       -0.010340753 0.0622229 -0.030235933 -0.054655068
000090 81 e9 b1 ba d2 91 89 3d 16 ff 02 bd 59 da fc 3c
       -0.0013573618 0.06717266 -0.03198155 0.030865835
0000a0 12 62 c9 bd 40 10 ec 3c ae 21 98 bd c1 f1 ff bd
       -0.098331586 0.028816342 -0.07428299 -0.12497283
0000b0 70 dd 48 bd 61 02 4f 3c 53 82 cc bd d1 90 e1 bd
       -0.049039304 0.0126348445 -0.09985795 -0.1101395
0000c0 07 2b 2b 3e fb 16 a3 3d 61 49 88 bd 55 e6 3a bd
       0.16715632 0.079633676 -0.06654621 -0.045629818
0000d0 4b 9a 56 3d d9 84 8f bd 47 4c b9 bc 23 a1 80 bd
       0.05239324 -0.070077606 -0.02261938 -0.062807344
0000e0 61 35 05 be d1 db 2f be 0a 7b 53 be b5 08 db bb
       -0.13008644 -0.17173697 -0.20652404 -0.0066843876
0000f0 76 ac a4 3d 8c 3b bd bd a9 09 7f 3d db 47 77 be
       0.08040707 -0.09239873 0.062265072 -0.24148504
000100 e4 eb 52 bd af c7 70 be cc 33 89 bd ee d0 2d 3e
       -0.051494494 -0.23513673 -0.066993326 0.16974232
000110 18 ae a1 3d e7 bd 50 3d 23 7f f1 ba 62 6f 88 3d
       0.07894534 0.050962355 -0.001842473 0.066618696
000120 14 c1 25 3c 6a d5 61 bc 3f e8 5e bc 86 1e 17 bd
       0.010116834 -0.013783792 -0.0136051765 -0.036894344
000130 29 64 0d bd 55 5b 66 bd 87 3b d1 3b a0 91 e2 3d
       -0.03451935 -0.056239445 0.00638527 0.11062932
000140 0a 2b 14 3e 56 b7 7e bd 0b c6 c0 3d c8 77 e2 3d
       0.14469543 -0.06218656 0.09412774 0.11058003
000150 cb 03 ac 3b ce 63 cc 3b 88 b6 21 bc cf 91 03 3e
       0.0052494756 0.0062374836 -0.009870179 0.1284859
000160 46 97 87 bd 8a 13 83 3c de 01 1a bd 43 94 76 bd
       -0.0662065 0.016000528 -0.037599437 -0.060199987
000170 f7 f0 ee 3c 5c c9 fd bb 19 53 b1 bc 0d c1 0b 3e
       0.029167635 -0.007744951 -0.02164607 0.13647862
000180 b6 fa 62 bd 39 9d f2 bd a2 2a f9 3d 56 d4 18 be
       -0.055414878 -0.11846394 0.12166335 -0.1492475
000190 58 60 0c 3e ac ea c8 3a ba 2d 29 3d 6e ab c7 bc
       0.13708627 0.0015328727 0.041303374 -0.024373736
0001a0 8e 0c 45 bd 07 96 4e 3d 94 5a 8c 3c 21 8b e2 3c
       -0.048107676 0.050436046 0.017133035 0.027654232
0001b0 5a 48 37 3d af 35 5a 3d 6e cc 33 3e 3b 1e cd 3d
       0.044746734 0.053273853 0.17558452 0.10015532
0001c0 16 d7 bb 3c 94 bf d2 3d b4 25 05 be 78 98 69 bd
       0.02292971 0.10290447 -0.13002664 -0.05703017
0001d0 b0 25 d5 bd 51 63 2a bd 78 76 d4 3d df f0 0f be
       -0.10407579 -0.04159862 0.103741586 -0.14056729
0001e0 45 f3 18 3e c6 1b a8 3d 7e 74 04 3e 36 20 33 bd
       0.1493655 0.08208422 0.12935063 -0.04373189
0001f0 a7 78 4f 3d b6 c8 a2 bd 8b 36 63 3d 7b 1a 04 bd
       0.050652172 -0.07948439 0.055471938 -0.032251816
000200 80 a1 34 3d eb ad d2 3d f1 e2 da 3d 97 a3 28 3d
       0.04409933 0.102870785 0.10687817 0.041171636
000210 11 db cb bc 3f b7 9e 3d 2b b8 9d 3c 77 ed 07 be
       -0.024884732 0.07749795 0.019252857 -0.1327418
000220 a0 1b f3 bd e8 74 fc bc 05 e5 3b be 47 18 34 be
       -0.118705034 -0.030817464 -0.18349083 -0.17587386
000230 ec fd 1d be d0 70 1f 3b 83 9a 14 be 6d d9 93 bc
       -0.15428895 0.0024328716 -0.14512067 -0.018048013
000240 44 66 c9 bd 97 6c 9e 3c 92 09 91 bd 77 24 56 3d
       -0.09833959 0.019338889 -0.070819035 0.05228087
000250 6f bd a2 3d 56 f5 95 3d 58 70 4c bd d3 c0 c7 bc
       0.07946288 0.07322185 -0.049911827 -0.024383938
000260 c7 5f cf 3c ef 8f 20 bd 68 59 e2 bd c2 f2 13 3d
       0.025314225 -0.039199766 -0.11052209 0.036120184
000270 85 fc 4c 3d 72 c3 5b bd 79 43 c5 3d 9b a3 b0 bd
       0.05004551 -0.053653188 0.0963201 -0.08624955
000280 93 53 2b 3b 1f af 02 be 00 1e 96 3c 98 e4 3c 3d
       0.0026142343 -0.12762116 0.018324852 0.04611644
000290 64 d5 cc 3d fc 55 b2 bd 18 e7 ed bc 3a 8b 13 bd
       0.100016385 -0.087078065 -0.029040858 -0.03602145
0002a0 57 cc 07 bd 29 b9 97 bc 5b a0 ff bd 95 91 1e 3e
       -0.033153858 -0.018520908 -0.12481757 0.15485223
0002b0 16 c0 5b 3e a2 79 25 3e 93 76 a4 bd e8 e5 25 be
       0.21459994 0.1615968 -0.08030429 -0.16200984
0002c0 2d 7d aa b9 55 60 18 be 8e ad 25 3c 7a a9 aa bd
       -0.0003251819 -0.14880498 0.010112179 -0.08333106
0002d0 a9 50 96 bd 1f 00 17 3d 4a 5d 8d 3d c1 8f 2a 3d
       -0.073396035 0.03686535 0.06902559 0.041641
0002e0 15 7b 11 bc 5f 60 84 bc 71 19 5b be e6 93 07 be
       -0.008879443 -0.016159235 -0.21396424 -0.13240013
0002f0 49 b0 77 bc 02 9a fb bc e8 fa 39 bd 1e 30 dd 3d
       -0.015117713 -0.030713085 -0.0454053 0.10800193
000300 e2 80 23 3d aa 7b 89 3d 8d 1a a3 bd cc e5 db 3d
       0.039917834 0.0671304 -0.079640485 0.1073719
000310 93 be 7c 3d 39 8b b1 3d 61 f0 e5 bd 88 a0 96 3d
       0.061705183 0.08669133 -0.11227489 0.07354838
000320 86 47 b0 3d 55 02 e2 3d 7d 01 26 3d 38 15 52 bd
       0.08607392 0.11035601 0.040528763 -0.051289767
000330 f0 12 e0 bc 77 1c 40 bd cc 98 d3 3d 56 bb 11 3d
       -0.02735278 -0.046902146 0.10331878 0.035579048
000340 ff e8 f5 bd d4 ef da bd 82 9d 81 bd bd 35 a0 3d
       -0.12007331 -0.10690275 -0.0632887 0.0782275
000350 f1 de 2b be d6 7e 17 be 87 63 98 3d 08 67 d7 bc
       -0.16784264 -0.14794478 0.07440858 -0.026294246
000360 2b 85 8d bc 08 da 62 3d 8c 06 c5 3d 0d 64 88 be
       -0.017275413 0.055383712 0.09620389 -0.26638833
000370 a0 ad 19 be a1 98 8d be 2a e2 19 3e cb e4 00 3e
       -0.15007639 -0.2765551 0.15027681 0.12587278
000380 a1 f6 2b 3d 44 b3 f9 bc 9e 69 d7 3c f0 f6 0d 3d
       0.04198325 -0.030480988 0.02629548 0.034659326
000390 90 f6 73 3d 2b b4 0e 3e 35 dd a7 3d 1e 49 41 bc
       0.059561312 0.13935916 0.08196489 -0.011797218
0003a0 34 e6 42 3e 37 b0 13 3d 3b 88 de bd 85 5f 2d be
       0.19033128 0.036056723 -0.10865828 -0.16930969
0003b0 85 88 a0 bc d7 3c 6e 3d ed 79 37 3d c7 83 26 3e
       -0.019596348 0.05816349 0.04479401 0.16261207
0003c0 f3 f9 ba bd 68 e7 bd ba c1 d0 57 3d 5c c0 3e bc
       -0.09129705 -0.001448852 0.052689318 -0.011642542
0003d0 44 ae 80 bd 56 ad ee bd f6 64 7f 3c b9 3d 22 3d
       -0.062832385 -0.11654155 0.015588036 0.039609645
0003e0 bb ce db bc 8f 1c ae 3c 06 40 f7 3d 76 f1 10 3d
       -0.026831975 0.021253852 0.120727584 0.035386525
0003f0 7e 98 05 bd b5 ec 18 be 4a f3 53 bd 59 5b f6 3d
       -0.03261613 -0.14934047 -0.05174569 0.12029142

layer2.tcn.bias f4 [16]
000000 fa 48 5d 38 09 ad 99 b9 98 70 01 b9 b6 22 15 b9
       5.275847e-05 -0.00029311355 -0.00012344343 -0.00014222678
000010 a5 70 f2 37 30 de b6 38 ad a6 6a b9 50 6a 3e b8
       2.8901102e-05 8.719822e-05 -0.0002237807 -4.539854e-05
000020 ed ee ea b8 f2 8f 2d b9 d3 55 b0 b8 87 b1 c3 b8
       -0.00011202493 -0.0001655219 -8.40832e-05 -9.3313916e-05
000030 55 4d 74 b9 98 7e 71 38 bf bb f9 b8 82 13 14 b9
       -0.00023298462 5.7576777e-05 -0.00011908216 -0.00014121647

layer2.bn.weight f4 [16]
000000 32 91 cc 3f 28 ae c3 3f 31 3e ce 3f b6 46 c9 3f
       1.598181 1.5287523 1.6112729 1.5724704
000010 64 f8 db 3f 0a 0d dd 3f 05 92 b7 3f 92 e9 d8 3f
       1.7185178 1.7269604 1.4341437 1.694628
000020 e8 51 e2 3f ff 63 d7 3f 83 bf ed 3f 00 41 e9 3f
       1.7681246 1.6827391 1.857407 1.8222961
000030 d1 b9 ff 3f d1 7a b7 3f 2c 5a e7 3f 12 86 ea 3f
       1.9978582 1.4334356 1.8074393 1.8322165

layer2.bn.bias f4 [16]
000000 53 7d 37 3e a2 f9 5b 3d b2 bf a1 bb fc 82 5f 3e
       0.17918901 0.053704865 -0.004936182 0.2182731
000010 ee e3 30 3e 27 7b a9 3e ad 80 6a 3e a1 62 45 3e
       0.17274448 0.3310177 0.22900648 0.19275905
000020 6c 9e 8a 3e 3b 89 63 3e 29 a6 7b 3e 0d 75 4f 3e
       0.2707399 0.22220318 0.24575104 0.20259495
000030 4a 85 2b 3e 0e 02 11 3e 4a 84 20 3e d2 cc 43 3e
       0.16750064 0.1416094 0.15675464 0.19121101

layer2.bn.running_mean f4 [16]
000000 e1 84 77 be a8 c0 4c bf 28 8c 45 3c 1c fb df be
       -0.24171783 -0.7998147 0.012057342 -0.4374627
000010 05 c9 9c 3e 50 ed e9 bc 28 7d 8f 3d 3f 09 5f be
       0.30622116 -0.028555542 0.070062935 -0.21780871
000020 1c 36 fe bc 32 96 61 3e b4 8c 87 3e fa 32 09 3d
       -0.03103166 0.22029951 0.26474535 0.03349588
000030 2e 21 29 3e 57 e1 40 be d4 4c f0 ba cb a9 42 3f
       0.16516563 -0.1883596 -0.0018333443 0.76040334

layer2.bn.running_var f4 [16]
000000 d4 b5 45 3e b2 df b3 3e 2d d8 c4 3e 68 d5 a4 3e
       0.19307643 0.35131603 0.3844618 0.32194066
000010 4e 48 73 3e ec 07 f1 3d f2 8f 95 3e e7 cf 37 3e
       0.23758051 0.11769089 0.29211384 0.17950402
000020 88 1e 53 3e b9 44 33 3e c0 94 cd 3e 4e 94 2f 3e
       0.20617115 0.17506684 0.4015255 0.17146417
000030 2c 08 1d 3f 9a a3 83 3e c0 88 7d 3e 56 15 d7 3e
       0.61340594 0.25710756 0.24759197 0.42008466

layer2.res.0.weight f4 [16, 8, 1, 1]
000000 8b ca ea bb c6 72 89 bb a7 1f 67 3e 5d 8c 53 be
       -0.0071652583 -0.0041945903 0.22570668 -0.20659013
000010 1a 41 ea be 70 24 24 be 45 3a 5a 3e 82 f0 a2 bd
       -0.45752794 -0.16029525 0.2131129 -0.079560295
000020 bc 20 a1 3c 0f 8f d2 be d4 26 bc 3d 36 bc f8 bc
       0.01966893 -0.4112477 0.091870934 -0.030363183
000030 0b 2f 01 be ef 12 9d be 3e 9f 6c be 45 98 f0 3d
       -0.12615602 -0.30678508 -0.23107621 0.11747793
000040 f9 d8 e8 3e 7a bd 20 be d7 b2 ba bc 15 32 2a bd
       0.45478037 -0.1569728 -0.022790356 -0.04155167
000050 b0 02 90 be c5 42 f3 bc 16 a9 0c 3c f9 88 8b 3e
       -0.2812705 -0.029694924 0.008585235 0.2725294
000060 dd 66 89 3e 9f 24 87 3e 20 07 8b 3d a4 bb 3a 3e
       0.2683629 0.26395127 0.06788468 0.18235642
000070 29 d1 a8 3d 40 42 8a 3b c7 32 75 be 80 9a 89 be
       0.08243019 0.0042193234 -0.23945151 -0.26875687
000080 d2 3c eb 3e 24 9b 2f bd ab e6 01 be c2 1d ce bb
       0.4594484 -0.042872563 -0.12685649 -0.0062901685
000090 9b 96 99 3e fa 18 7f be f6 1b f0 bc 5d b0 62 3d
       0.29997715 -0.24911872 -0.029310208 0.055343974
0000a0 5c 5b ea bd 9b ee 15 3d 61 96 3f 3c 75 8d 0c 3e
       -0.11443207 0.036604505 0.011693568 0.13725837
0000b0 f0 f0 48 bb 82 49 d7 3e 2b 13 61 3c 2c 16 e2 bd
       -0.0030661188 0.4204827 0.01373748 -0.11039385
0000c0 da 2c d3 3e 36 37 39 be 4e 1c 5a 3e 85 71 d9 3e
       0.41245157 -0.18087468 0.2129986 0.4246942
0000d0 d4 4f 4b 3e f4 8e 09 3d 17 d6 0a be f7 62 90 bc
       0.19854671 0.033583596 -0.13558231 -0.017625315
0000e0 89 83 08 bd e9 98 d9 bd 06 cc 5f 3e 75 ad 21 3f
       -0.033328567 -0.106248684 0.21855173 0.631553
0000f0 f7 d2 a9 bd 1d ed cc 3d 3a a4 a7 3c 7e b9 4f be
       -0.082921915 0.10006163 0.020464052 -0.20285603
000100 25 8b d1 3c 49 75 6c 3e 01 e0 ed 3d c8 a1 a5 be
       0.025579045 0.23091616 0.11614991 -0.32349992
000110 29 f6 05 bf c1 cb 4b 3e 97 bd fd 3d 4e c7 e6 bd
       -0.52328736 0.19901945 0.12389677 -0.11268483
000120 3e 99 22 3d 3d 50 1c bd da 2f 1a be 9c 38 45 be
       0.039696924 -0.03816246 -0.15057316 -0.19259876
000130 a4 43 4e 3d 30 a9 ef 3e e1 e1 cf bd 67 91 c9 3d
       0.050357476 0.46808767 -0.10150505 0.098421864
000140 ed 81 05 3f 0a 42 bf 3b fd 82 96 3d 70 92 a6 bd
       0.52151376 0.00583673 0.07349203 -0.081333995
000150 b2 d9 15 3e e7 46 f2 3d 28 f5 03 3d 80 d2 09 3e
       0.14633825 0.1182993 0.03221622 0.13459206
000160 bf eb cc 3e 96 d3 97 3e 83 71 3d 3b 8a 95 3e 3d
       0.4002361 0.29653615 0.002890677 0.04652933
000170 86 cf 0a 3d 88 51 48 3e 85 0b 46 be b2 7b 80 be
       0.033889316 0.19562352 -0.19340332 -0.25094372
000180 b2 db 04 3f 9c ff f9 3d 18 6d 2f bd 9c 8d b7 3d
       0.5189773 0.12206957 -0.04282865 0.08962557
000190 ec de 1b be d1 14 5b be e4 0e 77 3e b4 a9 ee 3d
       -0.15221757 -0.2139466 0.24126774 0.11653462
0001a0 3f 81 8f 3e 41 46 dd bd 82 b7 cd 3d 72 80 94 3e
       0.28028294 -0.108044155 0.10044767 0.29004246
0001b0 74 bd 7f 3d 94 e0 ca bd 05 01 a7 bd 67 a0 4d bc
       0.062436536 -0.09906116 -0.08154491 -0.01255045
0001c0 ae 42 d8 3e ea 78 1f 3e 0f 06 61 be 60 00 a5 bd
       0.42238373 0.15573469 -0.21974967 -0.08056712
0001d0 3f ee 2f bd 05 17 5c be fb 45 fd 3d 9e 7a 0d 3e
       -0.04295182 -0.21493156 0.12366863 0.13816306
0001e0 46 40 cd bd 2b 48 81 3b 21 91 18 bd 74 95 bf be
       -0.10022025 0.0039453707 -0.03724778 -0.3741871
0001f0 24 d2 a4 be 26 a1 55 3e 18 b9 38 3e 09 d0 86 3e
       -0.32191575 0.20862255 0.18039358 0.26330593

layer2.res.0.bias f4 [16]
000000 4e 49 5d 39 82 86 e8 b8 a5 41 ce 38 1f a8 84 b9
       0.0002110351 -0.00011087676 9.835073e-05 -0.00025302262
000010 a5 6a 67 b6 84 74 35 3a 69 24 fa b9 37 0c 19 b8
       -3.4483758e-06 0.0006921964 -0.00047710844 -3.648942e-05
000020 5e 5c e3 b7 a5 f9 fe b8 de a4 07 35 6d bf bb b9
       -2.710352e-05 -0.00012158164 5.053133e-07 -0.00035810043
000030 55 47 3c b8 48 43 b5 b9 57 a6 65 b9 79 1e bb 38
       -4.4889126e-05 -0.0003457314 -0.00021901108 8.922531e-05

layer2.res.1.weight f4 [16]
000000 00 44 aa 3f c4 a5 a2 3f ee ee a1 3f be 47 bb 3f
       1.3302002 1.2706838 1.265104 1.4631269
000010 2d dc a5 3f a4 d0 b5 3f 41 31 bc 3f 4f f3 be 3f
       1.2957817 1.4204297 1.4702531 1.4918002
000020 67 90 a2 3f d5 fd ac 3f e7 5d a4 3f 43 12 ac 3f
       1.2700318 1.3514963 1.2841157 1.3443073
000030 ff 7e c3 3f a9 65 ae 3f 4e 8b 8c 3f 19 4e ad 3f
       1.5273131 1.3624774 1.0980012 1.3539459

layer2.res.1.bias f4 [16]
000000 53 7d 37 3e a2 f9 5b 3d b2 bf a1 bb fc 82 5f 3e
       0.17918901 0.053704865 -0.004936182 0.2182731
000010 ee e3 30 3e 27 7b a9 3e ad 80 6a 3e a1 62 45 3e
       0.17274448 0.3310177 0.22900648 0.19275905
000020 6c 9e 8a 3e 3b 89 63 3e 29 a6 7b 3e 0d 75 4f 3e
       0.2707399 0.22220318 0.24575104 0.20259495
000030 4a 85 2b 3e 0e 02 11 3e 4a 84 20 3e d2 cc 43 3e
       0.16750064 0.1416094 0.15675464 0.19121101

layer2.res.1.running_mean f4 [16]
000000 f8 6a f6 bd 9e 16 04 bf a2 c8 a6 3c 49 9f 70 bd
       -0.120321214 -0.5159701 0.020359341 -0.058745656
000010 bc a6 3b 3e 5f c0 f5 3c 4e e4 6f 3e f2 f7 3e 3d
       0.18325323 0.029998956 0.23426935 0.046623178
000020 f9 f0 19 be 4a 90 a3 bd b3 82 df 3e 1f 6f b8 bc
       -0.1503333 -0.07986505 0.43654403 -0.022513924
000030 43 89 da 3e 5e 8c a4 3d 99 76 70 3e bd f4 88 3d
       0.42682847 0.080345854 0.23482741 0.06687305

layer2.res.1.running_var f4 [16]
000000 db c6 ec 3d 80 8c 1a 3e 06 cb 15 3e a3 07 75 3d
       0.11561366 0.15092659 0.14628229 0.059821736
000010 53 91 04 3e 99 8d 83 3c 54 93 41 3d b7 2b 36 3d
       0.12946062 0.01605873 0.047259644 0.044475283
000020 33 58 4c 3e a9 58 85 3d 67 5e 45 3d e2 f3 81 3d
       0.1995552 0.06511051 0.048185732 0.06345345
000030 0f bf 48 3d 0f 41 a0 3c 56 b8 34 3d 7e 55 d2 3d
       0.049010333 0.019562272 0.04412111 0.102702126

fc.weight f4 [5, 16]
000000 85 d4 ff 3e 6c 46 16 3f b7 8c 92 bc 4c f2 e8 3e
       0.49966827 0.58701205 -0.017889364 0.45497358
000010 3d 4a 63 3e ef ba 11 bf 7e 96 f8 be e2 69 e1 be
       0.22196288 -0.56925863 -0.48552316 -0.44026095
000020 03 1d 7b 3e 61 dd 8a be 8c 5b b1 bd 1e 29 4f be
       0.24522786 -0.27122024 -0.08660039 -0.20230529
000030 9d 53 5b bd 55 d2 a2 be f9 dc 02 be 46 dd ae be
       -0.053546537 -0.31801096 -0.12779607 -0.34153193
000040 9d 03 33 3e 6a 3a d0 be bf 23 17 3f f4 22 1f bf
       0.17481847 -0.40669566 0.5903892 -0.6216271
000050 4d 59 1f be fb e1 9b be 83 78 e7 be 1f f4 28 bf
       -0.1556141 -0.30445847 -0.4520913 -0.659975
000060 f2 ed 0f 3f 51 7d 8d 3e b8 4a f5 3c 1b 3a 09 bf
       0.5622245 0.2763467 0.029942855 -0.53604287
000070 00 d0 80 3e d9 c6 1f bf bb d0 47 3d ee 2e 40 3f
       0.2515869 -0.6241279 0.048783045 0.7507161
000080 ff 1e 51 bf 8b 0a 22 bf a9 e4 0f bf 5f 77 85 be
       -0.8168792 -0.6329734 -0.5620828 -0.26067635
000090 9c c9 09 bf 5b 25 f1 3e b4 46 04 3f 11 ba 1e 3e
       -0.53823256 0.47098812 0.51670384 0.15500666
0000a0 da fe 9e be 94 46 24 bd d7 7a c2 3e d1 51 b7 bc
       -0.3105381 -0.04010637 0.37984344 -0.02237788
0000b0 8d 9d 88 bd 49 91 f0 3e 94 7c 09 bf 71 79 e9 3d
       -0.066706754 0.46985844 -0.53705716 0.11400116
0000c0 71 b4 9f be fb 2d 86 bd 27 6f 0c be 8a a6 b3 be
       -0.31192353 -0.06551739 -0.13714276 -0.35087997
0000d0 ad 9a 8d 3e 98 15 f0 be 95 7d 97 3d 51 92 c0 3e
       0.2765707 -0.46891475 0.07397 0.3761163
0000e0 5d 5b 9f be ce 43 39 bf d2 77 a4 3e 4e 0e a5 be
       -0.31124392 -0.72369087 0.32122666 -0.32237476
0000f0 fa ca e6 3e d8 b7 b2 3d af 0c f2 3e 3f c5 c4 be
       0.45076734 0.08726472 0.47275302 -0.38431737
000100 0c b0 98 be d8 97 02 be d7 79 2c 3e 67 84 a2 3e
       -0.29821813 -0.12753236 0.16843353 0.3174164
000110 89 39 22 bf d9 d6 00 3f 95 22 2c be e4 37 ad 3e
       -0.6336904 0.5032783 -0.16810067 0.33831704
000120 85 25 9c 3b eb 4e 07 3f 3f 9e 4c bf 5e 26 53 3f
       0.004765215 0.52854794 -0.79928964 0.8248042
000130 3c a5 77 bf 98 53 ee bc cd a9 3d bf 68 12 da be
       -0.967365 -0.029092595 -0.7408722 -0.42592168

fc.bias f4 [5]
000000 40 65 29 be 02 71 b1 3d d1 bc f1 bd cd 58 1c 3e
       -0.1654253 0.08664133 -0.11803592 0.1526825
000010 54 e1 83 3d
       0.06439462
