models/STGCN/best_models/best_model_p005.pth (torch, 21674 bytes, 32 tensors)

layer1.A f4 [21, 21]
000000 00 00 80 3f 00 00 80 3f 00 00 00 00 00 00 00 00
       1.0 1.0 0.0 0.0
000010 00 00 00 00 00 00 80 3f 00 00 00 00 00 00 00 00
       0.0 1.0 0.0 0.0
000020 00 00 00 00 00 00 80 3f 00 00 00 00 00 00 00 00
       0.0 1.0 0.0 0.0
000030 00 00 00 00 00 00 80 3f 00 00 00 00 00 00 00 00
       0.0 1.0 0.0 0.0
000040 00 00 00 00 00 00 80 3f 00 00 00 00 00 00 00 00
       0.0 1.0 0.0 0.0
000050 00 00 00 00 00 00 80 3f 00 00 80 3f 00 00 80 3f
       0.0 1.0 1.0 1.0
000060 00 00 00 00 00 00 00 00 00 00 00 00 00 00 00 00
       0.0 0.0 0.0 0.0
000070 00 00 00 00 00 00 00 00 00 00 00 00 00 00 00 00
       0.0 0.0 0.0 0.0
000080 00 00 00 00 00 00 00 00 00 00 00 00 00 00 00 00
       0.0 0.0 0.0 0.0
000090 00 00 00 00 00 00 00 00 00 00 00 00 00 00 00 00
       0.0 0.0 0.0 0.0
0000a0 00 00 00 00 00 00 00 00 00 00 00 00 00 00 80 3f
       0.0 0.0 0.0 1.0
0000b0 00 00 80 3f 00 00 80 3f 00 00 00 00 00 00 00 00
       1.0 1.0 0.0 0.0
0000c0 00 00 00 00 00 00 00 00 00 00 00 00 00 00 00 00
       0.0 0.0 0.0 0.0
0000d0 00 00 00 00 00 00 00 00 00 00 00 00 00 00 00 00
       0.0 0.0 0.0 0.0
0000e0 00 00 00 00 00 00 00 00 00 00 00 00 00 00 00 00
       0.0 0.0 0.0 0.0
0000f0 00 00 00 00 00 00 00 00 00 00 00 00 00 00 00 00
       0.0 0.0 0.0 0.0
000100 00 00 00 00 00 00 80 3f 00 00 80 3f 00 00 80 3f
       0.0 1.0 1.0 1.0
000110 00 00 00 00 00 00 00 00 00 00 00 00 00 00 00 00
       0.0 0.0 0.0 0.0
000120 00 00 00 00 00 00 00 00 00 00 00 00 00 00 00 00
       0.0 0.0 0.0 0.0
000130 00 00 00 00 00 00 00 00 00 00 00 00 00 00 00 00
       0.0 0.0 0.0 0.0
000140 00 00 00 00 00 00 00 00 00 00 00 00 00 00 00 00
       0.0 0.0 0.0 0.0
000150 00 00 00 00 00 00 00 00 00 00 00 00 00 00 80 3f
       0.0 0.0 0.0 1.0
000160 00 00 80 3f 00 00 00 00 00 00 00 00 00 00 00 00
       1.0 0.0 0.0 0.0
000170 00 00 00 00 00 00 00 00 00 00 00 00 00 00 00 00
       0.0 0.0 0.0 0.0
000180 00 00 00 00 00 00 00 00 00 00 00 00 00 00 00 00
       0.0 0.0 0.0 0.0
000190 00 00 00 00 00 00 00 00 00 00 00 00 00 00 00 00
       0.0 0.0 0.0 0.0
0001a0 00 00 00 00 00 00 80 3f 00 00 00 00 00 00 00 00
       0.0 1.0 0.0 0.0
0001b0 00 00 00 00 00 00 00 00 00 00 80 3f 00 00 80 3f
       0.0 0.0 1.0 1.0
0001c0 00 00 00 00 00 00 00 00 00 00 80 3f 00 00 00 00
       0.0 0.0 1.0 0.0
0001d0 00 00 00 00 00 00 00 00 00 00 00 00 00 00 00 00
       0.0 0.0 0.0 0.0
0001e0 00 00 00 00 00 00 00 00 00 00 00 00 00 00 00 00
       0.0 0.0 0.0 0.0
0001f0 00 00 00 00 00 00 00 00 00 00 00 00 00 00 00 00
       0.0 0.0 0.0 0.0
000200 00 00 00 00 00 00 00 00 00 00 00 00 00 00 80 3f
       0.0 0.0 0.0 1.0
000210 00 00 80 3f 00 00 80 3f 00 00 00 00 00 00 00 00
       1.0 1.0 0.0 0.0
000220 00 00 00 00 00 00 00 00 00 00 00 00 00 00 00 00
       0.0 0.0 0.0 0.0
000230 00 00 00 00 00 00 00 00 00 00 00 00 00 00 00 00
       0.0 0.0 0.0 0.0
000240 00 00 00 00 00 00 00 00 00 00 00 00 00 00 00 00
       0.0 0.0 0.0 0.0
000250 00 00 00 00 00 00 00 00 00 00 00 00 00 00 00 00
       0.0 0.0 0.0 0.0
000260 00 00 00 00 00 00 80 3f 00 00 80 3f 00 00 80 3f
       0.0 1.0 1.0 1.0
000270 00 00 00 00 00 00 00 00 00 00 00 00 00 00 00 00
       0.0 0.0 0.0 0.0
000280 00 00 00 00 00 00 00 00 00 00 00 00 00 00 00 00
       0.0 0.0 0.0 0.0
000290 00 00 00 00 00 00 00 00 00 00 00 00 00 00 00 00
       0.0 0.0 0.0 0.0
0002a0 00 00 00 00 00 00 00 00 00 00 00 00 00 00 00 00
       0.0 0.0 0.0 0.0
0002b0 00 00 00 00 00 00 00 00 00 00 00 00 00 00 80 3f
       0.0 0.0 0.0 1.0
0002c0 00 00 80 3f 00 00 00 00 00 00 00 00 00 00 00 00
       1.0 0.0 0.0 0.0
0002d0 00 00 00 00 00 00 00 00 00 00 00 00 00 00 00 00
       0.0 0.0 0.0 0.0
0002e0 00 00 00 00 00 00 00 00 00 00 00 00 00 00 00 00
       0.0 0.0 0.0 0.0
0002f0 00 00 00 00 00 00 80 3f 00 00 00 00 00 00 00 00
       0.0 1.0 0.0 0.0
000300 00 00 00 00 00 00 00 00 00 00 80 3f 00 00 00 00
       0.0 0.0 1.0 0.0
000310 00 00 00 00 00 00 00 00 00 00 80 3f 00 00 80 3f
       0.0 0.0 1.0 1.0
000320 00 00 00 00 00 00 00 00 00 00 80 3f 00 00 00 00
       0.0 0.0 1.0 0.0
000330 00 00 00 00 00 00 00 00 00 00 00 00 00 00 00 00
       0.0 0.0 0.0 0.0
000340 00 00 00 00 00 00 00 00 00 00 00 00 00 00 00 00
       0.0 0.0 0.0 0.0
000350 00 00 00 00 00 00 00 00 00 00 00 00 00 00 00 00
       0.0 0.0 0.0 0.0
000360 00 00 00 00 00 00 00 00 00 00 00 00 00 00 80 3f
       0.0 0.0 0.0 1.0
000370 00 00 80 3f 00 00 80 3f 00 00 00 00 00 00 00 00
       1.0 1.0 0.0 0.0
000380 00 00 00 00 00 00 00 00 00 00 00 00 00 00 00 00
       0.0 0.0 0.0 0.0
000390 00 00 00 00 00 00 00 00 00 00 00 00 00 00 00 00
       0.0 0.0 0.0 0.0
0003a0 00 00 00 00 00 00 00 00 00 00 00 00 00 00 00 00
       0.0 0.0 0.0 0.0
0003b0 00 00 00 00 00 00 00 00 00 00 00 00 00 00 00 00
       0.0 0.0 0.0 0.0
0003c0 00 00 00 00 00 00 80 3f 00 00 80 3f 00 00 80 3f
       0.0 1.0 1.0 1.0
0003d0 00 00 00 00 00 00 00 00 00 00 00 00 00 00 00 00
       0.0 0.0 0.0 0.0
0003e0 00 00 00 00 00 00 00 00 00 00 00 00 00 00 00 00
       0.0 0.0 0.0 0.0
0003f0 00 00 00 00 00 00 00 00 00 00 00 00 00 00 00 00
       0.0 0.0 0.0 0.0

layer1.gcn.weight f4 [8, 3, 1, 1]
000000 10 71 86 3e eb 10 99 be 78 c9 81 3d ad 92 a3 3e
       0.26258135 -0.2989572 0.06337255 0.31947842
000010 b9 4a 65 3e 06 58 f3 be 5c 5e 46 bd e4 1d f8 3d
       0.22391786 -0.47528094 -0.04842983 0.12115076
000020 00 d1 ff be 72 c0 9e 3e 47 19 ed be 48 93 5a be
       -0.49964142 0.310062 -0.46308348 -0.21345246
000030 4a 11 cf 3e 18 ed 72 3d 24 db 2f 3f 19 a4 84 be
       0.40442878 0.05930814 0.6869376 -0.25906447
000040 31 db 18 be 9d b9 2a bf 01 fb e4 3e bc 1f 28 be
       -0.14927365 -0.66689473 0.4472275 -0.16418356
000050 44 80 17 bf 69 54 30 bd 90 36 cb be ae ba 72 3e
       -0.5918009 -0.04304925 -0.39690065 0.23704025

layer1.gcn.bias f4 [8]
000000 29 c7 ef 3d fd f5 88 bc 6c 0b 2d bf f4 a4 d4 be
       0.11707909 -0.016718859 -0.67595553 -0.415321
000010 22 a8 27 bf 78 96 d2 3e 50 f6 01 bf 28 97 67 3d
       -0.65490925 0.41130424 -0.5076647 0.05654064

layer1.tcn.weight f4 [8, 8, 3, 1]
000000 d9 c1 5e bd 80 f6 78 3e a3 27 29 3d 78 01 73 bd
       -0.054384086 0.24312782 0.041297566 -0.059327573
000010 a5 c7 23 bd 36 34 a6 bd 36 18 3a 3e 6c a6 1e 3e
       -0.039985318 -0.08115427 0.18173298 0.15493172
000020 1b 97 a3 3d 53 f4 a0 bd d6 66 82 3e fc 4a b8 3c
       0.079878055 -0.07859101 0.25469083 0.022496693
000030 01 b8 fe 3c a7 0c 73 be 2f be be 3d f8 65 8e bc
       0.0310936 -0.23735295 0.093136184 -0.017382607
000040 2a f0 f3 3d 95 a4 9d bd 14 b9 80 3e b1 00 e2 3d
       0.11911042 -0.07697407 0.25141203 0.11035288
000050 40 e6 68 3e 8d fa 00 3d d0 01 6b 3e 9d 66 15 be
       0.22744083 0.031488944 0.2294991 -0.14589925
000060 2f 36 82 be 24 48 58 3c 5a 64 90 3d b0 82 57 3e
       -0.25431964 0.013200793 0.070503905 0.21045947
000070 ea 4a fc 3d 33 e6 3f 3e 53 d7 1b bd 8d ab f4 3d
       0.12318976 0.18740158 -0.038047146 0.11946783
000080 09 15 7f 3e 6d 85 33 3c e6 51 3d 3e db 8d 60 be
       0.24910368 0.010957104 0.18488273 -0.21929114
000090 1f bf 73 3d e5 62 ed bd 45 88 b6 bd 3d fd 79 be
       0.05950844 -0.11591128 -0.0891271 -0.24413009
0000a0 8f b1 e3 3d cf b8 2b be 69 b4 ab 3c 57 07 0e be
       0.11117851 -0.16769718 0.02096005 -0.13869987
0000b0 20 24 ca bd a5 2c d4 be a0 27 94 3e 87 72 92 be
       -0.098701715 -0.4144031 0.2893648 -0.28603002
0000c0 9c 34 ed 3d 94 e5 c9 bd 8f 07 ac 3d 6e d0 7a be
       0.115823 -0.09858242 0.08399879 -0.24493572
0000d0 a4 37 00 3e 1a 25 9a bd 58 18 2e be 4e 0f 01 3e
       0.12521225 -0.07526608 -0.17001474 0.12603495
0000e0 71 36 7f be b4 7a b5 3d c3 8a 1b be 23 a4 9b 3d
       -0.24923111 0.088612944 -0.15189652 0.07599666
0000f0 37 40 0b 3e 58 94 7c 3e 4e 1c f5 3c a5 46 7f bc
       0.13598715 0.24665964 0.029920723 -0.015580808
000100 f8 be 67 bd 0d ee ac 3d b2 67 1f be 39 1f 5d be
       -0.056578606 0.08443842 -0.155669 -0.21593942
000110 1f 9a 2a be c5 5c 94 bd 91 bc 27 3d 08 22 11 3e
       -0.16660355 -0.07244257 0.040951315 0.14173138
000120 e6 55 ce bd 48 da 06 3e ee 71 68 3d a4 f6 1c be
       -0.100749776 0.13169205 0.056749277 -0.15328461
000130 8d e8 52 3e ac fb 7f bc 9b a4 83 be 74 2f 63 be
       0.20596524 -0.015623968 -0.25711522 -0.2218607
000140 08 a7 d0 3d 86 72 ad bc 3d 35 c8 3d 80 b2 8e bc
       0.10188109 -0.021172773 0.097757794 -0.0174191
000150 51 2f 03 3e f7 ba 08 3f 89 9d b5 3e 5a 10 89 bb
       0.12811019 0.53410286 0.35471752 -0.0041828575
000160 32 68 77 be fe 93 42 be fb 66 86 be 2a 22 8e 3d
       -0.24160841 -0.19001767 -0.26250443 0.0694011
000170 c5 32 54 bc 7e a0 19 be b8 74 22 3d 59 40 84 3c
       -0.0129515575 -0.15002629 0.039662093 0.016143965
000180 51 ca a2 bd ca 05 4d be f8 e5 85 3d e5 a0 34 3e
       -0.07948745 -0.2002174 0.06538004 0.17639501
000190 12 e5 b5 bd c8 4d 28 bd 83 7d a7 3d 7a 1d 76 3e
       -0.08881582 -0.041089803 0.08178236 0.24034682
0001a0 b1 93 84 bd 39 c9 c8 bd 7b 54 e4 3d ec 63 47 3d
       -0.064734824 -0.09804005 0.11148926 0.048679277
0001b0 dc 20 c9 be cf 37 7c be 9a 16 e8 be fb 24 05 3e
       -0.39282882 -0.24630664 -0.45329744 0.13002388
0001c0 83 ba b3 3e 1a af 86 3e d3 e0 68 3c eb cc 38 3c
       0.35103235 0.26305467 0.0142137585 0.011279325
0001d0 52 0b 01 bd 84 7d eb 3d 71 7d ff 3c 43 4b 63 be
       -0.031504937 0.114985496 0.031187745 -0.22196679
0001e0 d3 b5 11 bd 60 92 20 be d0 74 05 3e 99 39 89 3d
       -0.03557379 -0.15680838 0.13032842 0.06700439
0001f0 50 39 dc 3d 7c 13 2a 3d 17 2e 0b 3e 72 7a c4 3d
       0.10753119 0.041522488 0.135918 0.09593667
000200 f3 40 5c 3e 4e df 3b 3e ad 44 42 3d 91 36 85 3d
       0.21509151 0.18346903 0.047428776 0.06504548
000210 26 53 82 3e 64 7c a1 3e 23 c2 d4 bb 5a c4 9c 3d
       0.25454062 0.31540215 -0.0064928695 0.076546386
000220 2d 2c 53 bd 1c 34 51 bc 37 5d 64 3d 95 bd 85 3e
       -0.0515558 -0.0127687715 0.05575296 0.26121202
000230 89 c4 cc 3d f0 45 59 bc ca 71 6e be f2 de 8e bc
       0.099984236 -0.013261303 -0.23285595 -0.017440293
000240 13 ee d0 3c 99 ad b9 bd 85 ba 36 bc f9 54 c4 3d
       0.025504148 -0.09066314 -0.011152868 0.0958652
000250 ee f2 2a 3e cd f8 8f 3d fa 94 c9 3d 06 67 10 3d
       0.16694233 0.07029877 0.09842868 0.0352545
000260 03 f9 51 3c 71 79 39 3e 5e e1 5d 3e de 8a 6e 3e
       0.012815717 0.18112732 0.21668002 0.23295161
000270 21 8b 5c 3e 13 f1 37 be 79 bb 34 be 64 f7 4c bd
       0.21537448 -0.17963056 -0.1764964 -0.050040618
000280 b3 16 df bc a6 d4 26 3e 01 c9 b0 3e 51 0b 34 3d
       -0.027232504 0.16292056 0.34528354 0.043956105
000290 4b 50 fa 3c e0 9c 13 3e 76 32 21 be ff 26 d9 bd
       0.030555865 0.14415312 -0.15741906 -0.10603141
0002a0 0c 46 8f bd 43 dc f6 bd 3b 85 b1 bd a2 44 56 3e
       -0.06995782 -0.1205373 -0.0866799 0.20924619
0002b0 ff c3 7c 3d 0c ee 7a 3c 52 7d 26 3e 37 29 c2 3d
       0.061710354 0.015315544 0.16258743 0.09480517
0002c0 11 e0 91 3d a6 23 bb 3d 33 92 c8 be 16 53 03 3e
       0.071228154 0.09137659 -0.3917404 0.12824664
0002d0 71 37 b1 bd fc fe 13 3d 93 fd d9 bc 3b 5a 5a bb
       -0.08653153 0.036131844 -0.026610171 -0.0033317942
0002e0 dd 3a 28 be 45 f2 1b be 1f c2 96 bd cc b7 13 be
       -0.16428705 -0.15229137 -0.073612444 -0.14425582
0002f0 12 68 d1 bc e1 22 8c bd 20 bf 3d be bc b9 46 be
       -0.02556232 -0.0684259 -0.1852994 -0.1940679

layer1.tcn.bias f4 [8]
000000 7a f1 4c 39 5b 34 d2 b8 6d 1d 46 39 60 6b c8 39
       0.00019544913 -0.00010023332 0.00018893713 0.00038226973
000010 af 34 9a 37 bc 1e bf b9 f7 e5 bc 39 f6 9e 5c 3a
       1.8382763e-05 -0.00036453258 0.00036029491 0.0008416021

layer1.bn.weight f4 [8]
000000 6f ae f7 3e 6c 27 50 3f 53 56 3c 3f f6 1c 43 3f
       0.4837527 0.81310153 0.7356922 0.76216066
000010 d4 25 91 3f 00 f0 8b 3f 75 ca 6c 3f 36 2c 50 3f
       1.1339669 1.0932617 0.92496425 0.8131746

layer1.bn.bias f4 [8]
000000 10 c6 37 be 19 69 ad bb 93 8b b6 be bb 4d 3d be
       -0.17946649 -0.0052920696 -0.35653362 -0.18486683
000010 76 d6 b7 bd 3d 4b d1 be 72 9d 21 be 5f d8 3e be
       -0.08976452 -0.40877715 -0.15782717 -0.18637227

layer1.bn.running_mean f4 [8]
000000 0e a6 fb be 64 b0 07 3f 66 f0 80 bd bd 11 01 3f
       -0.49150127 0.53003526 -0.06295852 0.5041769
000010 d9 27 de be b2 3e 2a 3d 66 03 45 bd f3 77 d8 3e
       -0.43389776 0.041563697 -0.048098944 0.42279014

layer1.bn.running_var f4 [8]
000000 75 ee a0 3d 9e c6 fe 3d 81 01 2b 3c 49 30 84 3d
       0.07857982 0.12440227 0.01043737 0.06454522
000010 30 85 e0 3d aa 61 ad 3d 31 31 a4 3d 80 13 2d 3e
       0.109629035 0.084658936 0.08017195 0.1690197

layer1.res.0.weight f4 [8, 3, 1, 1]
000000 bb b7 29 3e 58 52 6c 3e 16 11 c9 3d 8d 0b b8 3d
       0.16573994 0.23078287 0.09817712 0.08986578
000010 8e d9 9d 3e e4 b2 26 bf ea 68 48 bc 37 1b 0d be
       0.30830044 -0.65116715 -0.012232045 -0.13779913
000020 10 d5 cd 3e c9 50 0c 3e 95 2e c5 3e 73 e0 74 3f
       0.40201616 0.13702692 0.38512102 0.9565498
000030 e3 3a 88 bd e3 98 0d 3e 3a 3b 8a bc 37 f9 14 3c
       -0.06651857 0.13827853 -0.016873945 0.009092621
000040 b4 ba 32 bf a7 b3 11 be 72 c8 c4 3d 7f 9c 15 3d
       -0.69816136 -0.14228688 0.096085444 0.0365262
000050 d8 03 14 bf 4d 19 b3 3e a1 67 5a 3d 7e c0 f4 be
       -0.57818365 0.3498024 0.053321484 -0.4780311

layer1.res.0.bias f4 [8]
000000 bc 70 9c ba 67 dd b2 38 ea e1 fd b9 78 6d 07 3a
       -0.0011935453 8.528941e-05 -0.0004842424 0.00051661534
000010 b0 38 a4 3a a4 cf 27 b9 44 2a a5 ba d6 7f cf b9
       0.0012529101 -0.00016003713 -0.0012601097 -0.00039577362

layer1.res.1.weight f4 [8]
000000 52 3c a6 3f de 51 74 3f 33 dc 66 3f 88 e9 9a 3f
       1.2987158 0.9543742 0.9017975 1.2102518
000010 cd c7 38 3f cb 74 6b 3f 44 b7 84 3f 9a ba 9b 3f
       0.7217987 0.91975087 1.0368428 1.2166321

layer1.res.1.bias f4 [8]
000000 8c f4 00 bf d8 c0 8c 3e 87 e1 1b be b2 6f f0 bd
       -0.5037315 0.27490878 -0.1522275 -0.11740054
000010 0a 40 88 3c 10 db 13 bf f4 27 5d bd 46 fd 60 be
       0.016632099 -0.5775614 -0.05399318 -0.21971616

layer1.res.1.running_mean f4 [8]
000000 09 6b 55 3e 11 99 55 3e e9 28 9e bd e5 60 80 3e
       0.20841612 0.20859171 -0.07722647 0.25073925
000010 83 2d b3 3c f9 2f a1 be 45 d3 ae 3d 3a b0 80 3e
       0.021872288 -0.31481913 0.0853639 0.2513445

layer1.res.1.running_var f4 [8]
000000 4c c4 d7 3b 84 4e 25 3c ba 94 01 3b 79 9c 59 3c
       0.0065846797 0.01008952 0.0019772486 0.013281935
000010 fa 49 fd 3a 34 d6 2b 3d ec 21 a6 3a 5f 15 23 3c
       0.0019324415 0.041952327 0.0012674904 0.009953826

layer2.A f4 [21, 21]
000000 00 00 80 3f 00 00 80 3f 00 00 00 00 00 00 00 00
       1.0 1.0 0.0 0.0
000010 00 00 00 00 00 00 80 3f 00 00 00 00 00 00 00 00
       0.0 1.0 0.0 0.0
000020 00 00 00 00 00 00 80 3f 00 00 00 00 00 00 00 00
       0.0 1.0 0.0 0.0
000030 00 00 00 00 00 00 80 3f 00 00 00 00 00 00 00 00
       0.0 1.0 0.0 0.0
000040 00 00 00 00 00 00 80 3f 00 00 00 00 00 00 00 00
       0.0 1.0 0.0 0.0
000050 00 00 00 00 00 00 80 3f 00 00 80 3f 00 00 80 3f
       0.0 1.0 1.0 1.0
000060 00 00 00 00 00 00 00 00 00 00 00 00 00 00 00 00
       0.0 0.0 0.0 0.0
000070 00 00 00 00 00 00 00 00 00 00 00 00 00 00 00 00
       0.0 0.0 0.0 0.0
000080 00 00 00 00 00 00 00 00 00 00 00 00 00 00 00 00
       0.0 0.0 0.0 0.0
000090 00 00 00 00 00 00 00 00 00 00 00 00 00 00 00 00
       0.0 0.0 0.0 0.0
0000a0 00 00 00 00 00 00 00 00 00 00 00 00 00 00 80 3f
       0.0 0.0 0.0 1.0
0000b0 00 00 80 3f 00 00 80 3f 00 00 00 00 00 00 00 00
       1.0 1.0 0.0 0.0
0000c0 00 00 00 00 00 00 00 00 00 00 00 00 00 00 00 00
       0.0 0.0 0.0 0.0
0000d0 00 00 00 00 00 00 00 00 00 00 00 00 00 00 00 00
       0.0 0.0 0.0 0.0
0000e0 00 00 00 00 00 00 00 00 00 00 00 00 00 00 00 00
       0.0 0.0 0.0 0.0
0000f0 00 00 00 00 00 00 00 00 00 00 00 00 00 00 00 00
       0.0 0.0 0.0 0.0
000100 00 00 00 00 00 00 80 3f 00 00 80 3f 00 00 80 3f
       0.0 1.0 1.0 1.0
000110 00 00 00 00 00 00 00 00 00 00 00 00 00 00 00 00
       0.0 0.0 0.0 0.0
000120 00 00 00 00 00 00 00 00 00 00 00 00 00 00 00 00
       0.0 0.0 0.0 0.0
000130 00 00 00 00 00 00 00 00 00 00 00 00 00 00 00 00
       0.0 0.0 0.0 0.0
000140 00 00 00 00 00 00 00 00 00 00 00 00 00 00 00 00
       0.0 0.0 0.0 0.0
000150 00 00 00 00 00 00 00 00 00 00 00 00 00 00 80 3f
       0.0 0.0 0.0 1.0
000160 00 00 80 3f 00 00 00 00 00 00 00 00 00 00 00 00
       1.0 0.0 0.0 0.0
000170 00 00 00 00 00 00 00 00 00 00 00 00 00 00 00 00
       0.0 0.0 0.0 0.0
000180 00 00 00 00 00 00 00 00 00 00 00 00 00 00 00 00
       0.0 0.0 0.0 0.0
000190 00 00 00 00 00 00 00 00 00 00 00 00 00 00 00 00
       0.0 0.0 0.0 0.0
0001a0 00 00 00 00 00 00 80 3f 00 00 00 00 00 00 00 00
       0.0 1.0 0.0 0.0
0001b0 00 00 00 00 00 00 00 00 00 00 80 3f 00 00 80 3f
       0.0 0.0 1.0 1.0
0001c0 00 00 00 00 00 00 00 00 00 00 80 3f 00 00 00 00
       0.0 0.0 1.0 0.0
0001d0 00 00 00 00 00 00 00 00 00 00 00 00 00 00 00 00
       0.0 0.0 0.0 0.0
0001e0 00 00 00 00 00 00 00 00 00 00 00 00 00 00 00 00
       0.0 0.0 0.0 0.0
0001f0 00 00 00 00 00 00 00 00 00 00 00 00 00 00 00 00
       0.0 0.0 0.0 0.0
000200 00 00 00 00 00 00 00 00 00 00 00 00 00 00 80 3f
       0.0 0.0 0.0 1.0
000210 00 00 80 3f 00 00 80 3f 00 00 00 00 00 00 00 00
       1.0 1.0 0.0 0.0
000220 00 00 00 00 00 00 00 00 00 00 00 00 00 00 00 00
       0.0 0.0 0.0 0.0
000230 00 00 00 00 00 00 00 00 00 00 00 00 00 00 00 00
       0.0 0.0 0.0 0.0
000240 00 00 00 00 00 00 00 00 00 00 00 00 00 00 00 00
       0.0 0.0 0.0 0.0
000250 00 00 00 00 00 00 00 00 00 00 00 00 00 00 00 00
       0.0 0.0 0.0 0.0
000260 00 00 00 00 00 00 80 3f 00 00 80 3f 00 00 80 3f
       0.0 1.0 1.0 1.0
000270 00 00 00 00 00 00 00 00 00 00 00 00 00 00 00 00
       0.0 0.0 0.0 0.0
000280 00 00 00 00 00 00 00 00 00 00 00 00 00 00 00 00
       0.0 0.0 0.0 0.0
000290 00 00 00 00 00 00 00 00 00 00 00 00 00 00 00 00
       0.0 0.0 0.0 0.0
0002a0 00 00 00 00 00 00 00 00 00 00 00 00 00 00 00 00
       0.0 0.0 0.0 0.0
0002b0 00 00 00 00 00 00 00 00 00 00 00 00 00 00 80 3f
       0.0 0.0 0.0 1.0
0002c0 00 00 80 3f 00 00 00 00 00 00 00 00 00 00 00 00
       1.0 0.0 0.0 0.0
0002d0 00 00 00 00 00 00 00 00 00 00 00 00 00 00 00 00
       0.0 0.0 0.0 0.0
0002e0 00 00 00 00 00 00 00 00 00 00 00 00 00 00 00 00
       0.0 0.0 0.0 0.0
0002f0 00 00 00 00 00 00 80 3f 00 00 00 00 00 00 00 00
       0.0 1.0 0.0 0.0
000300 00 00 00 00 00 00 00 00 00 00 80 3f 00 00 00 00
       0.0 0.0 1.0 0.0
000310 00 00 00 00 00 00 00 00 00 00 80 3f 00 00 80 3f
       0.0 0.0 1.0 1.0
000320 00 00 00 00 00 00 00 00 00 00 80 3f 00 00 00 00
       0.0 0.0 1.0 0.0
000330 00 00 00 00 00 00 00 00 00 00 00 00 00 00 00 00
       0.0 0.0 0.0 0.0
000340 00 00 00 00 00 00 00 00 00 00 00 00 00 00 00 00
       0.0 0.0 0.0 0.0
000350 00 00 00 00 00 00 00 00 00 00 00 00 00 00 00 00
       0.0 0.0 0.0 0.0
000360 00 00 00 00 00 00 00 00 00 00 00 00 00 00 80 3f
       0.0 0.0 0.0 1.0
000370 00 00 80 3f 00 00 80 3f 00 00 00 00 00 00 00 00
       1.0 1.0 0.0 0.0
000380 00 00 00 00 00 00 00 00 00 00 00 00 00 00 00 00
       0.0 0.0 0.0 0.0
000390 00 00 00 00 00 00 00 00 00 00 00 00 00 00 00 00
       0.0 0.0 0.0 0.0
0003a0 00 00 00 00 00 00 00 00 00 00 00 00 00 00 00 00
       0.0 0.0 0.0 0.0
0003b0 00 00 00 00 00 00 00 00 00 00 00 00 00 00 00 00
       0.0 0.0 0.0 0.0
0003c0 00 00 00 00 00 00 80 3f 00 00 80 3f 00 00 80 3f
       0.0 1.0 1.0 1.0
0003d0 00 00 00 00 00 00 00 00 00 00 00 00 00 00 00 00
       0.0 0.0 0.0 0.0
0003e0 00 00 00 00 00 00 00 00 00 00 00 00 00 00 00 00
       0.0 0.0 0.0 0.0
0003f0 00 00 00 00 00 00 00 00 00 00 00 00 00 00 00 00
       0.0 0.0 0.0 0.0

layer2.gcn.weight f4 [16, 8, 1, 1]
000000 72 90 d3 be 2c f8 1a 3d b5 4f 99 3e e5 91 b3 3d
       -0.4132114 0.03783433 0.29943624 0.087680615
000010 57 fd b3 bd a1 62 9d be 60 e9 31 3d 6f 31 ef 3e
       -0.08788555 -0.3073931 0.043435454 0.46717402
000020 48 f4 92 be 55 76 f8 bd 57 29 65 be 51 cb d2 3d
       -0.28701997 -0.12131945 -0.22379051 0.10292686
000030 7d 8f 66 3e 57 36 c3 3e 9a 09 95 3e 7a a0 21 be
       0.22515674 0.38127396 0.29108888 -0.15783873
000040 07 c2 96 be 8c d5 31 3e e8 c5 a0 bd 45 99 54 3d
       -0.29444906 0.17366618 -0.078502476 0.05190398
000050 a7 bd 78 be 3c e8 0c bf 22 db be bd 1d 4a 3c be
       -0.24291097 -0.5504186 -0.0931914 -0.18387647
000060 28 f8 13 be 03 b8 69 3e 86 22 37 3d de 25 d7 3e
       -0.14450133 0.22824101 0.04471066 0.42021078
000070 a4 aa 05 3e 7a 59 00 3f c7 17 0d 3e 3b 3c 4d be
       0.13053375 0.5013653 0.13778602 -0.20042507
000080 bc 31 7f be 63 e6 0d 3e 7a 45 5d 3d 1c 85 c1 3d
       -0.24921316 0.13857417 0.054021336 0.09449217
000090 dd 0c df bd 66 23 c8 bb 73 d9 a4 3e be ed be be
       -0.10891125 -0.0061077354 0.3219715 -0.37290758
0000a0 d9 b0 c4 3e b6 a9 eb bd de 7e 43 be 77 35 07 3e
       0.38416174 -0.11506979 -0.19091365 0.13203989
0000b0 2d 44 29 3c 7c 0f b0 be 69 cb 0f be d3 7e 5c bd
       0.010331196 -0.34386814 -0.14042439 -0.053831887
0000c0 e1 a1 25 3e ef 3d b7 bd f5 d6 74 be 4c be a2 be
       0.16175033 -0.0894736 -0.23910125 -0.3178581
0000d0 c7 14 82 be f9 00 eb 3d ea 75 1d bd 2a bb 26 be
       -0.25406477 0.11474795 -0.03844253 -0.16282335
0000e0 48 11 9a 3e c6 a9 3c 3c 10 b0 e6 bc d0 66 81 3e
       0.3009131 0.0115150865 -0.028160125 0.25273752
0000f0 0b b9 ed bd ee f3 cb 3d 83 0f a4 be 63 7e cf bd
       -0.1160756 0.09958635 -0.32043085 -0.10131528
000100 ca b2 7e 3e de b3 bb 3d f7 98 27 be 88 d5 a0 be
       0.2487289 0.09165166 -0.16366945 -0.3141291
000110 97 da 9e be 4d 06 a5 bd 0c d2 6d be 95 11 85 3e
       -0.31026146 -0.080578424 -0.23224658 0.25989977
000120 4e 8c 68 bd 4a ec 1b 3d 77 0c c1 bd b8 aa 62 3e
       -0.05677443 0.03806714 -0.094262056 0.22135437
000130 e8 d6 4e be a9 b9 1f 3e 7b e0 c6 bc 5d 4a ba be
       -0.20199168 0.15598167 -0.024276963 -0.3638486
000140 11 84 62 3d 38 34 dd 3d 55 b6 4c 3e 11 54 b9 bc
       0.05530173 0.108009756 0.19991429 -0.022623094
000150 86 d4 65 be 27 db 70 be 09 9d b0 bd 8e dc b3 be
       -0.22444353 -0.235211 -0.08623702 -0.35129207
000160 b5 f0 3a be b9 7f 84 3e 4c 1d 96 3e de 3f 48 be
       -0.18255885 0.25878695 0.29319227 -0.19555613
000170 af 89 6c be ec f2 ef be 78 b0 96 3e 79 c9 4a 3e
       -0.23099397 -0.46865022 0.2943151 0.19803418
000180 cc 1f 9d 3e 9d 06 75 3e e6 d1 53 3c 71 a7 46 be
       0.30688322 0.23928304 0.012928462 -0.19399811
000190 38 c4 f5 bd 12 31 34 3e 85 a3 c7 3d c8 3e 39 be
       -0.120003164 0.17596844 0.09747986 -0.18090355
0001a0 fb ce bb 3e 85 48 a4 3e 60 92 4d 3e c7 51 2b be
       0.3668135 0.32086578 0.20075369 -0.16730414
0001b0 a1 bd 0e be 8b f9 f4 3d 6e ee f6 3c 5d 05 f1 be
       -0.13939525 0.11961659 0.030142989 -0.47074404
0001c0 36 2d 17 3e 5f f4 0b be 4f 5a 9a be a2 2b d8 bd
       0.1476334 -0.13667439 -0.30147025 -0.10555197
0001d0 d1 10 00 3e 8e 1e 3a 3e 91 a9 c0 3c 83 be 55 3d
       0.12506415 0.18175718 0.023518356 0.05218364
0001e0 29 fb 65 3c 03 00 2c 3e ea 24 04 be c0 20 06 3e
       0.014036932 0.1679688 -0.12904707 0.1309843
0001f0 08 53 9b bd cf f7 07 bd dd 69 0b be d4 1a 8b be
       -0.07584196 -0.033195313 -0.13614602 -0.27168906

layer2.gcn.bias f4 [16]
000000 54 ad 71 3d 03 9c 6c be 56 cd 0f 3e 46 ae f1 be
       0.05900319 -0.23106389 0.14043173 -0.47203273
000010 ed 90 f2 be dc a8 34 3e f4 fa 5f 3e 2b 34 b8 3e
       -0.47376195 0.1764254 0.21873075 0.359773
000020 3e d8 0a 3f cb 5b e8 bd 7e 2d b0 3d 79 5d 84 3d
       0.5423621 -0.11345633 0.08602427 0.06463141
000030 07 78 43 bd 87 31 bb bd 50 1e 9d bd 51 98 fd bd
       -0.04772189 -0.09140306 -0.07671797 -0.12382568

layer2.tcn.weight f4 [16, 16, 3, 1]
000000 94 77 23 3d 36 75 e7 3d 3e 83 1d 3d c2 f5 dd 3d
       0.03990896 0.11301653 0.03845524 0.1083789
000010 6b 53 19 3e 73 9f 37 3e 80 57 2e 3c 7e b4 b6 b7
       0.14973228 0.17931919 0.010640979 -2.1780139e-05
000020 34 4f 28 bd ac 9d 88 bd d7 b7 7a 3d 85 13 23 bd
       -0.04109116 -0.066706985 0.06121048 -0.039813537
000030 ec e1 e8 bc a9 85 86 3c de 47 97 bc 90 44 fd bd
       -0.02842804 0.016421156 -0.018466886 -0.12366593
000040 65 b4 3d 3d 8c e0 02 bd c3 ca 83 bd 64 34 50 ba
       0.046314616 -0.031952426 -0.06435158 -0.0007942377
000050 e4 67 10 be 67 58 33 be 88 4f db bd ee 12 eb bd
       -0.14102131 -0.17514192 -0.10708529 -0.1147822
000060 23 f1 35 be 16 4a 2e be 70 c4 4b bd 0f a3 16 be
       -0.17767768 -0.17020449 -0.049747884 -0.1471064
000070 4b f5 01 be 78 84 4d be 89 2b 9b bd 06 35 da bd
       -0.12691228 -0.20070064 -0.07576663 -0.10654645
000080 fe f7 ff bd c5 86 cc 3b f2 3f 1f 3d 1b 28 01 bd
       -0.12498473 0.0062416517 0.038879342 -0.03153239
000090 35 65 42 be 61 73 c5 bd 43 a8 4a bd c1 cd 45 be
       -0.1898392 -0.096411474 -0.049476873 -0.1931677
0000a0 c5 c8 f7 bd 47 f4 75 be 1f c8 d9 3d 22 c1 e1 bb
       -0.120988406 -0.24018966 0.10633873 -0.0068894783
0000b0 9f 37 ed bc 80 6e e1 3d 19 54 8d bd 3c 87 cd 3d
       -0.028957186 0.11007404 -0.06900806 0.100355595
0000c0 05 1e b2 bd 96 e6 7e bb d4 e9 cd bd 40 a8 f9 bd
       -0.08697132 -0.0038894764 -0.10054365 -0.12190294
0000d0 7f 16 ee bd 51 6c d3 3d 21 7e 8e bd ce 24 85 bd
       -0.116253845 0.10323394 -0.06957651 -0.065011606
0000e0 a9 da 8c bc 86 49 ae bd 87 6b c3 bd 37 6f 50 bd
       -0.017194109 -0.08510117 -0.095419936 -0.050887313
0000f0 2f b5 53 be 3b df 7c be d0 bd 94 be 62 00 d2 bd
       -0.20674585 -0.2469453 -0.29051065 -0.10253979
000100 54 13 52 bd 08 7e 56 bc 04 a4 d6 3d b9 19 22 3d
       -0.051287964 -0.013091572 0.10480502 0.039575312
000110 7f 86 a7 3d 7c cd 21 bd 21 c5 34 bd d3 67 dc 3d
       0.0817995 -0.039502606 -0.04413331 0.107619904
000120 9b 95 1b 3e 2f b6 5b 3e f7 56 dd 3d 34 5b 73 3d
       0.15193789 0.21456216 0.10807603 0.05941315
000130 a3 7f 96 3d 78 12 9a bd 57 dc 83 bd 30 b4 cf bd
       0.073485635 -0.07523054 -0.06438511 -0.1014179
000140 3a 56 3c 3c cf 66 73 be 66 84 07 be 5d 08 3c be
       0.011495167 -0.23769687 -0.132341 -0.18362565
000150 db ee ac 3d e2 8f 9c 3d fa f9 c5 3d cb 53 65 bc
       0.084439956 0.07644631 0.0966682 -0.013997029
000160 59 0d 02 3d 84 88 31 3d d7 4b e9 3b 49 47 dd 3d
       0.03175101 0.043343082 0.0071196365 0.10804612
000170 3d 23 d4 3b 6c 33 17 bc 65 82 90 bd 76 50 3f bd
       0.0064739273 -0.0092285685 -0.07056121 -0.046707593
000180 53 3c a9 bd 6c 97 8a bd ab 33 70 bd 15 e5 8a bd
       -0.08263459 -0.06767163 -0.058643024 -0.06781975
000190 4a ad b5 bd 69 0e 83 be 40 49 1d bb 6b a7 af 3c
       -0.08870943 -0.25596932 -0.002399996 0.021442136
0001a0 4a 98 fd 3b 4e aa 7c bd 3d 8f 13 be 8a 38 0d ba
       0.0077391015 -0.061685853 -0.1441011 -0.0005387148
0001b0 5f 4a cd bd 4e a1 31 be ef a2 7a be 4a 1d 0e 3e
       -0.10023951 -0.17346689 -0.24476217 0.1387836
0001c0 9a ba 83 3d 1e 47 30 3e bb 64 e0 3a d4 aa ef bc
       0.06432076 0.17214629 0.0017119864 -0.029256262
0001d0 1d b1 f6 3d 02 08 19 3e 9d 54 a0 3d a6 c5 21 3e
       0.120455004 0.14944461 0.07828639 0.15798053
0001e0 5f 2e 58 3e 2d 42 1a 3e 47 64 c3 3c cb 4e 1a bd
       0.21111439 0.15064307 0.023851527 -0.0376728
0001f0 77 4b b9 3d f8 2d 60 bd d3 2e 63 bc b6 7d 11 be
       0.09047597 -0.05473134 -0.013866144 -0.14208111
000200 1a 95 c7 bd 0c cd 1a be c1 e7 e7 bd 45 9f 56 bd
       -0.09745236 -0.15117282 -0.113235004 -0.052397985
000210 23 ce 9b bd 1f ce ac 3c 5e e3 ba bd c2 ca 9b bd
       -0.07607677 0.02109438 -0.09125398 -0.07607032
000220 c0 a9 a6 bd 22 99 f4 bc ae 78 8a bd 38 5a 82 3d
       -0.08137846 -0.029858176 -0.06761299 0.06364864
000230 1f 5c 07 3e 02 61 04 bd 42 23 24 3d 37 37 2b 3d
       0.13218735 -0.032319076 0.040072687 0.041800704
000240 06 3d b9 bd 20 76 d5 3c 31 69 91 bd 8f 63 0b be
       -0.090448424 0.026057303 -0.07100142 -0.13612197
000250 05 c1 08 3d cb c0 40 bc 95 13 35 3d 52 08 ae 3d
       0.033387203 -0.011764715 0.044208128 0.08497681
000260 df d0 ae bc b1 29 b7 bd c3 da 7f bc 5f b0 96 bd
       -0.021339832 -0.08943499 -0.015616122 -0.07357859
000270 ec 86 55 3e ea 3b 48 3e 1c 80 75 3e bc dd ed 3c
       0.2085225 0.19554105 0.23974651 0.029036395
000280 20 86 2c 3e 2c 80 d0 bc 68 62 48 bd 9d ce 56 3d
       0.1684804 -0.025451742 -0.048921973 0.052443136
000290 cd 69 7a bc 43 8b 14 bd b3 73 11 bd e3 a2 3d 3d
       -0.015284014 -0.036265623 -0.03551073 0.04629792
0002a0 43 c8 18 be 02 4b 60 be f5 3b 71 bd fd 46 39 3e
       -0.14920144 -0.21903613 -0.05889507 0.18093486
0002b0 8b 05 ed 3d 80 6a 9c 3d 23 ad 61 3d 6d 0f ea 3d
       0.11573323 0.07637501 0.055096757 0.114287235
0002c0 7d 5e 4b 3e 09 6d ce 3a 3b 17 b5 bd 22 6b 9e 3d
       0.19860263 0.0015749048 -0.088423215 0.07735278
0002d0 2f 0a d0 bc 03 46 56 3d b3 7c 66 bd 97 6b 72 3e
       -0.02539548 0.052312862 -0.056271266 0.23673855
0002e0 11 01 0f 3e 17 56 32 3e 37 27 10 be 9a 29 e8 bc
       0.1396525 0.17415653 -0.1407746 -0.02834015
0002f0 d6 6b 9b 3c 2d aa ab 3c 06 65 c3 3d 83 a4 22 3e
       0.018972319 0.02095517 0.09540753 0.15883069
000300 65 24 cf bd 96 bb 8c bd ac a8 e9 bd 8f 5a cc bd
       -0.101143636 -0.06871717 -0.11409125 -0.0997821
000310 fd f3 85 bd e5 d9 85 bd a8 e2 19 3e 9e 37 2b 3e
       -0.06540678 -0.06535701 0.15027869 0.16720435
000320 05 11 89 3d 25 1a 02 be 48 c5 37 3b 7e 4b f7 bd
       0.06692699 -0.12705286 0.0028041173 -0.12074946
000330 e2 02 d3 bd ff 87 c6 bd 18 18 00 3d 52 ff cf bd
       -0.10303284 -0.09693908 0.031272978 -0.1015612
000340 7f 9c a6 bd d6 49 ae bd f3 e2 b1 3c 96 44 58 bd
       -0.08135318 -0.08510177 0.021714663 -0.052799784
000350 9c 16 8f bd aa de 67 bd b7 62 93 bd d6 7a 42 bd
       -0.06986734 -0.056608833 -0.07196563 -0.047480427
000360 1c 0e 4d 3d f0 71 27 3e 68 f4 be 3d be 65 9d bc
       0.050062284 0.16352057 0.093239605 -0.019213554
000370 fc 00 5a be f9 09 40 bd 28 c0 09 3e 6d d2 98 3d
       -0.21289438 -0.04688451 0.13452208 0.074620105
000380 85 be 83 3d 73 94 13 3d 18 28 e4 bd 95 ef 7b 3d
       0.06432823 0.036030244 -0.1114046 0.06150778
000390 c4 90 0e 3e 96 2f 00 3e 26 3d a7 3d 52 e2 3e 3e
       0.13922411 0.12518153 0.0816596 0.18641022
0003a0 43 50 21 3e 58 d0 60 3e bb bd cd 3d 2c 51 27 bd
       0.15753274 0.21954477 0.10045954 -0.040848896
0003b0 5b 27 8a bd b8 ed 23 3e 99 7c fe 3d 66 57 36 3d
       -0.06745788 0.16008651 0.12426109 0.044516943
0003c0 ac f1 3b 3e 1e da 8e 3e 81 42 fa 3d 58 80 51 bc
       0.18353909 0.27900785 0.12219716 -0.012786947
0003d0 59 db 03 3e 64 84 0c 3d f7 75 5c 3e 0c e3 89 3e
       0.12876643 0.034305945 0.21529375 0.26931036
0003e0 f0 5d 45 3e 2b 21 dc bc 6f e8 da bc 6f 73 65 bd
       0.19274116 -0.026871284 -0.026722161 -0.05601829
0003f0 61 d6 f3 3d 8b 3b 69 3d 23 24 57 3e c2 01 23 3d
       0.11906124 0.05694155 0.21009879 0.0397966

layer2.tcn.bias f4 [16]
000000 d6 03 5a 36 13 cf e7 b8 8e 3b 10 35 ed 1a 28 39
       3.2486764e-06 -0.00011053509 5.3730844e-07 0.00016031759
000010 ac 81 53 b7 c4 ee 9a 39 78 3b 35 38 81 f8 9c b8
       -1.2606772e-05 0.00029551063 4.3209147e-05 -7.484947e-05
000020 bd 07 90 37 a1 91 38 39 c8 b9 92 b9 28 c6 7e b9
       1.7169741e-05 0.00017601858 -0.00027985708 -0.00024297147
000030 21 65 b1 b6 75 a3 d8 b8 12 af 57 b9 33 23 0b b9
       -5.286784e-06 -0.00010330129 -0.00020569217 -0.00013269186

layer2.bn.weight f4 [16]
000000 00 31 fb 3f 2d 26 dc 3f ce 56 c7 3f 06 24 e5 3f
       1.9624329 1.719915 1.5573366 1.7901618
000010 a1 71 b9 3f 56 3a c1 3f 8f cc e7 3f e5 79 e6 3f
       1.4487802 1.5095928 1.8109301 1.8005949
000020 45 91 e7 3f f7 60 d2 3f a5 31 eb 3f 51 50 d6 3f
       1.8091208 1.6435841 1.8374525 1.6743261
000030 e5 49 dc 3f 5a 00 f1 3f 50 66 00 40 89 d6 e2 3f
       1.7210051 1.8828232 2.0062447 1.7721721

layer2.bn.bias f4 [16]
000000 11 75 58 3e 61 43 9a 3e eb 9e 70 3e 6f 30 9d 3e
       0.21138407 0.3012953 0.23498122 0.30701014
000010 76 23 0e 3e 25 0b 59 3e 7f 0f 37 3e 7d 95 8a 3e
       0.13880715 0.21195658 0.17877005 0.27067176
000020 97 34 2f 3c 36 82 94 3e 52 da d9 3e 28 30 91 3e
       0.010693691 0.29005593 0.42549378 0.28357053
000030 06 ed 8c 3e 64 ca 73 3e 33 9e 9c 3e c6 18 af 3e
       0.27524585 0.23807675 0.30589446 0.34198588

layer2.bn.running_mean f4 [16]
000000 08 bd 12 3f 8e 4e 44 bf e1 3b 82 bf 63 94 1c bf
       0.5731969 -0.76682365 -1.0174524 -0.6116392
000010 ab f8 f9 be 63 5b 6a bf 1e 8f 21 3f 49 b2 2a 3f
       -0.4882253 -0.91545695 0.63109004 0.6667829
000020 d7 b4 56 be a2 06 69 bf 64 d5 fc be 59 a0 ad bf
       -0.20967422 -0.91025746 -0.49381554 -1.3564559
000030 a2 61 19 3e 32 0a 7e 3d 99 e4 84 3e 97 bf 20 bf
       0.1497865 0.06202144 0.25955656 -0.6279234

layer2.bn.running_var f4 [16]
000000 37 3f 44 3f 58 8e 02 3f db 1b 52 3f 23 72 cf 3e
       0.7665896 0.5099845 0.82073754 0.40516767
000010 e6 58 e7 3e 43 46 be 3e a5 aa 5f 3f 47 35 49 3f
       0.45185012 0.3716298 0.8736976 0.7859692
000020 88 da 6f 3e 1e 6d 43 3f 73 3c 41 3f a6 f9 35 3f
       0.23423207 0.76338375 0.75482863 0.7108406
000030 1e 95 06 3f 8f 6a 47 3f 64 a3 44 3f 86 87 40 3f
       0.52571285 0.7789697 0.76811814 0.7520679

layer2.res.0.weight f4 [16, 8, 1, 1]
000000 e8 3b 45 be 42 16 37 be 96 df 85 bd 89 87 1f bd
       -0.19261134 -0.17879584 -0.06536786 -0.038947616
000010 cb 7b 53 3e 8f 47 52 be e3 2c b3 3d ab 15 b8 3d
       0.20652692 -0.2053511 0.08748796 0.08988508
000020 e4 c2 1b 3e ce 7e 59 bd ec 27 81 be e4 67 0f 3e
       0.15211064 -0.053099446 -0.2522577 0.14004475
000030 f2 1b 5a 3d d5 6a 86 3e 6b a3 95 be 26 0c 7e be
       0.053249307 0.2625338 -0.2922624 -0.24809322
000040 ee 08 80 3e 41 e0 84 3d 38 4a 9a bd 67 4f 08 3c
       0.25006813 0.064880855 -0.07533687 0.008319712
000050 23 2f a3 3c ac 99 d1 bd d6 fd 5f be 9f 74 4b 3e
       0.019919937 -0.10234389 -0.21874174 0.19868706
000060 e3 9f 9d be 88 94 ce 3e b7 4b f9 3d 36 e3 fb bd
       -0.30786046 0.40347695 0.121726446 -0.122991964
000070 83 3c be bd 49 e3 74 be e1 85 3d be f1 64 74 3c
       -0.092888854 -0.23914827 -0.18508102 0.014916644
000080 51 7f 32 3d 70 93 24 3e f6 26 cd 3e 3d e8 5d 3d
       0.04357845 0.16071868 0.40068787 0.054176558
000090 0d a7 10 be 3c 6c 49 3e 31 7e a2 be 56 86 2b be
       -0.14126225 0.19670194 -0.317369 -0.16750464
0000a0 0a f7 8e bd 5a b2 65 3e b0 83 17 3d 86 1c 40 be
       -0.06980713 0.22431317 0.03699082 -0.18760881
0000b0 31 12 88 be 26 48 41 3e 33 cd 60 be df bc 23 bf
       -0.2657638 0.18875179 -0.21953277 -0.6396007
0000c0 ef 27 ea 3d f3 63 c3 bc 8a 1b 22 3c 00 c0 77 3c
       0.11433398 -0.02385137 0.009894261 0.01512146
0000d0 70 23 a1 3d e0 be 0a 3f dc b9 c3 bd 32 cc 86 bd
       0.07868087 0.541975 -0.09556934 -0.06581916
0000e0 a9 a2 81 be a5 70 28 be 60 f1 10 bd 30 0b ab 3e
       -0.25319412 -0.1644922 -0.035386443 0.33406973
0000f0 b6 1a 8e 3e 36 21 3e be 39 46 45 be fa eb 82 bd
       0.27754754 -0.18567356 -0.19265069 -0.06392665
000100 75 1f b2 be fd 0d 51 3e ac 9e b9 bd 34 42 2b 3d
       -0.34789625 0.20415492 -0.090634674 0.041811183
000110 ae 70 30 3d 52 c5 0b be aa ab f5 bd 67 7c af 3d
       0.04307621 -0.1364949 -0.11995633 0.0856865
000120 8a e7 03 3f 33 ce da 3d 18 66 f4 bd bb 3e 1e 3e
       0.51525176 0.10683861 -0.11933535 0.15453617
000130 06 5b 57 bd da c7 7a bd cf 10 22 be f1 ea 9c bd
       -0.05257704 -0.06122575 -0.15826724 -0.07661999
000140 ba 72 8c 3d da fd 72 3e 04 66 24 3e d3 1e 23 bf
       0.0685782 0.23729649 0.16054541 -0.6371891
000150 ef 42 3d be 9f 2c d3 bd 2c 51 09 3e 7d cc 99 3e
       -0.18482564 -0.10311245 0.13409871 0.30038825
000160 dc da c8 3e 9c 9e 87 bc fc 67 99 be ae 08 ca 3d
       0.39229476 -0.016555123 -0.29962146 0.09864937
000170 67 d8 5d 3d e1 24 14 3e 54 a5 7b be 70 b6 f5 be
       0.054161455 0.14467193 -0.24574786 -0.4799075
000180 b1 46 cd 3d 77 84 84 3e d3 6e c6 bc f7 6d 59 3c
       0.10023249 0.25882313 -0.024222767 0.013270847
000190 69 f7 98 3d 7b 79 0a bf 6d e5 c9 bd 2e d9 26 3f
       0.07469065 -0.54091614 -0.098582126 0.6517514
0001a0 f0 a6 07 3e 43 aa ed bc 21 25 77 bd 56 86 02 bc
       0.13247275 -0.029011851 -0.060338143 -0.0079665985
0001b0 d3 55 80 3d 0f 01 d2 3e 08 91 85 bd 8a 99 d0 bd
       0.0626637 0.41016433 -0.06521803 -0.10185535
0001c0 0e ef 58 3e 0b 58 68 bb 66 c2 72 bc 4e 19 85 bc
       0.21184942 -0.0035452868 -0.014816856 -0.016247418
0001d0 3a 31 80 3c a8 0c 9d 3e 50 21 15 bc 39 08 e4 bd
       0.015648473 0.30673718 -0.009102181 -0.11134381
0001e0 98 9f ad 3d 62 6b 81 3d 39 87 12 3e a3 37 a4 be
       0.08477706 0.0631931 0.14309396 -0.32073697
0001f0 97 1b ab bd 45 e5 8d bc 22 82 5d 3e e1 4a c9 3d
       -0.08354872 -0.017321238 0.21631673 0.09828735

layer2.res.0.bias f4 [16]
000000 4e f7 19 ba 01 0c 2f b9 18 51 04 ba 0f ad 22 38
       -0.0005873338 -0.00016693772 -0.00050474843 3.8784983e-05
000010 ee 2e 39 39 c9 1d 82 b7 37 96 01 ba 58 53 0d 3a
       0.00017660458 -1.5511077e-05 -0.0004943343 0.00053911423
000020 c1 ca 69 b8 8b ac 78 b9 bf bc 13 ba a2 d2 f6 38
       -5.574036e-05 -0.000237154 -0.00056357303 0.000117694275
000030 a9 ce 84 38 ef e7 54 ba 02 0f 6f ba 5f a4 8e 39
       6.332744e-05 -0.0008121719 -0.0009119363 0.00027206817

layer2.res.1.weight f4 [16]
000000 d4 f3 d2 3f 70 64 c7 3f 91 ab b6 3f 02 3d c6 3f
       1.648066 1.5577526 1.4271108 1.5487368
000010 1f 38 96 3f a6 aa a0 3f 07 ff b6 3f b5 14 c1 3f
       1.1735877 1.2552078 1.4296578 1.5084444
000020 37 74 c6 3f 28 7f 98 3f 32 25 c1 3f b9 98 cd 3f
       1.5504216 1.1913805 1.5089476 1.6062232
000030 7d b6 9b 3f d3 df cb 3f c4 4f d5 3f f8 fe c3 3f
       1.2165066 1.5927681 1.6664968 1.5312185

layer2.res.1.bias f4 [16]
000000 db bc 56 3e 25 eb 98 3e 17 25 56 3e 44 d2 8b 3e
       0.2097048 0.298669 0.20912586 0.27308857
000010 09 1d 03 3e ef ae 32 3e 73 65 19 3e c2 61 74 3e
       0.12804045 0.17449544 0.14980106 0.23865417
000020 67 fd c6 3c ca 27 6e 3e cc c7 c4 3e ce 69 8c 3e
       0.024290754 0.23257366 0.38433683 0.27424473
000030 e9 80 69 3e bc e7 62 3e 6f f0 99 3e 0f 6d a4 3e
       0.22803082 0.22158712 0.3006625 0.32114455

layer2.res.1.running_mean f4 [16]
000000 a8 54 91 bd 1b 4f 4b be 3a 08 01 3d 0f 79 69 3c
       -0.07096225 -0.19854395 0.031501986 0.014250054
000010 2f fb aa 3c cf 24 d0 be 59 d1 e6 3d dd 43 6d bd
       0.020871727 -0.40653083 0.11270399 -0.057926048
000020 57 e0 90 3c d6 5e ba 3d 27 3a 16 3b f9 b6 68 be
       0.017685099 0.0910012 0.0022922845 -0.22726049
000030 2b 61 b0 3e 9a da 28 3d 71 b7 95 3d f6 8d 95 3d
       0.34449133 0.0412241 0.07310379 0.073024675

layer2.res.1.running_var f4 [16]
000000 a2 c7 7a 3d cb aa 6e 3d 2d a6 be 3d 0c cb 36 3e
       0.06122554 0.05826835 0.09309039 0.17850894
000010 ef 50 fe 3d f9 8a 79 3e d9 7f 3e 3d 7b 58 16 3e
       0.124177806 0.2436942 0.046508644 0.1468219
000020 a8 fd d0 3d a0 22 26 3e 58 bc 0d 3e a7 f6 95 3d
       0.10204631 0.16224146 0.13841379 0.07322436
000030 b3 7f 0b 3f 91 6f ee 3c 2e d5 9e 3c 31 35 81 3d
       0.5449173 0.029105933 0.019388761 0.063089736

fc.weight f4 [5, 16]
000000 9f 87 7c be a6 5e a8 3e 92 44 01 3f 47 0e 98 be
       -0.2466111 0.3288471 0.50495255 -0.29698393
000010 e9 fa 9f 3e db 31 e7 be 5e c3 e7 bd c7 6f 28 bf
       0.31246117 -0.45155224 -0.1131656 -0.6579556
000020 30 61 35 bf 49 93 05 3f 03 83 8a 3c 33 6a a3 3e
       -0.7085142 0.52177864 0.016908174 0.3191696
000030 0a 2b f3 bd d0 bc e7 bd 9c 29 3f 3e 37 16 74 bd
       -0.118734434 -0.1131531 0.18668216 -0.0595915
000040 e7 21 5b 3f 39 d0 0d 3f 3e cf 25 3d a5 6b 5a bf
       0.85598606 0.5539585 0.040480845 -0.853205
000050 d5 88 04 bf 90 a3 de be 94 33 87 3e 6a f3 18 3f
       -0.5177129 -0.43484163 0.26406538 0.5974642
000060 77 91 dc be a2 c7 0a 3e ed 9b 35 bf 69 ab 27 3d
       -0.4307973 0.13552716 -0.7094105 0.040934954
000070 c8 2a cb 3e 66 23 5c 3e bd 8d c0 bd 5c 5f 24 bf
       0.39681077 0.21497878 -0.094020344 -0.64208007
000080 cf 06 cf 3d 73 19 d4 be 5d b5 f3 be 7d ff b7 3e
       0.101087205 -0.41425666 -0.47599307 0.3593711
000090 da 8c a3 3e ae 54 04 3f 6d 44 2c be 8f 62 f9 3e
       0.319434 0.5169171 -0.16822977 0.48708007
0000a0 8d 31 0d 3f 4a 57 13 bf e8 df 6d 3e 9a 00 48 bf
       0.55153733 -0.5755507 0.23229945 -0.7812592
0000b0 ec aa 53 be d9 0b ed be 4e de 83 be 96 79 48 3e
       -0.2067067 -0.46298102 -0.25755543 0.19577631
0000c0 01 3e 50 bf 28 8f d2 3d c9 86 e4 be b6 03 42 3e
       -0.8134461 0.10281211 -0.44634083 0.18946728
0000d0 1d ce a3 bd 0a 29 4b be 1c b2 26 3f 65 43 83 be
       -0.07998297 -0.19839874 0.65115523 -0.25637355
0000e0 05 ac 43 3e 50 cb 94 bd 22 ed 51 be e5 2b e6 3d
       0.19108589 -0.07265341 -0.20500615 0.11238841
0000f0 b3 56 25 bf fd ba 12 3f 43 5a 12 3f fe 04 d1 bd
       -0.6458542 0.5731657 0.5716898 -0.1020603
000100 b4 87 3a 3e 65 75 ce be 19 c2 a6 3e 36 d3 94 3e
       0.18215829 -0.4032394 0.3256996 0.2906739
000110 65 08 5c bd 43 75 9a 3d dd 79 69 bf 08 12 ab 3d
       -0.053718943 0.07541897 -0.91201574 0.083530486
000120 e5 91 85 3e 3b c6 46 3d a0 3f c7 3e d8 25 be be
       0.2608787 0.04852889 0.3891573 -0.37138247
000130 b1 9f c5 3e 8e 56 6e bf e8 b3 51 bf bf ce 01 3f
       0.38598397 -0.9310082 -0.8191514 0.50706095

fc.bias f4 [5]
000000 1e e2 84 bd 4b 5c c3 bd 3b da 89 3d cf 47 ca 3d
       -0.06488441 -0.09539088 0.06731077 0.09876978
000010 f5 41 5a 3e
       0.21314223
