best_models_stgcn/best_model_0.7246_4sec.pth (torch, 21674 bytes, 32 tensors)

layer1.A f4 [21, 21]
1.0 1.0 0.0 0.0 0.0 1.0 0.0 0.0
0.0 1.0 0.0 0.0 0.0 1.0 0.0 0.0
0.0 1.0 0.0 0.0 0.0 1.0 1.0 1.0
0.0 0.0 0.0 0.0 0.0 0.0 0.0 0.0
0.0 0.0 0.0 0.0 0.0 0.0 0.0 0.0
0.0 0.0 0.0 1.0 1.0 1.0 0.0 0.0
0.0 0.0 0.0 0.0 0.0 0.0 0.0 0.0
0.0 0.0 0.0 0.0 0.0 0.0 0.0 0.0
0.0 1.0 1.0 1.0 0.0 0.0 0.0 0.0
0.0 0.0 0.0 0.0 0.0 0.0 0.0 0.0
0.0 0.0 0.0 0.0 0.0 0.0 0.0 1.0
1.0 0.0 0.0 0.0 0.0 0.0 0.0 0.0
0.0 0.0 0.0 0.0 0.0 0.0 0.0 0.0
0.0 1.0 0.0 0.0 0.0 0.0 1.0 1.0
0.0 0.0 1.0 0.0 0.0 0.0 0.0 0.0
0.0 0.0 0.0 0.0 0.0 0.0 0.0 0.0
0.0 0.0 0.0 1.0 1.0 1.0 0.0 0.0
0.0 0.0 0.0 0.0 0.0 0.0 0.0 0.0
0.0 0.0 0.0 0.0 0.0 0.0 0.0 0.0
0.0 1.0 1.0 1.0 0.0 0.0 0.0 0.0
0.0 0.0 0.0 0.0 0.0 0.0 0.0 0.0
0.0 0.0 0.0 0.0 0.0 0.0 0.0 1.0
1.0 0.0 0.0 0.0 0.0 0.0 0.0 0.0
0.0 0.0 0.0 0.0 0.0 1.0 0.0 0.0
0.0 0.0 1.0 0.0 0.0 0.0 1.0 1.0
0.0 0.0 1.0 0.0 0.0 0.0 0.0 0.0
0.0 0.0 0.0 0.0 0.0 0.0 0.0 0.0
0.0 0.0 0.0 1.0 1.0 1.0 0.0 0.0
0.0 0.0 0.0 0.0 0.0 0.0 0.0 0.0
0.0 0.0 0.0 0.0 0.0 0.0 0.0 0.0
0.0 1.0 1.0 1.0 0.0 0.0 0.0 0.0
0.0 0.0 0.0 0.0 0.0 0.0 0.0 0.0
00000000: 0000 803f 0000 803f 0000 0000 0000 0000
00000010: 0000 0000 0000 803f 0000 0000 0000 0000
00000020: 0000 0000 0000 803f 0000 0000 0000 0000
00000030: 0000 0000 0000 803f 0000 0000 0000 0000
00000040: 0000 0000 0000 803f 0000 0000 0000 0000
00000050: 0000 0000 0000 803f 0000 803f 0000 803f
00000060: 0000 0000 0000 0000 0000 0000 0000 0000
00000070: 0000 0000 0000 0000 0000 0000 0000 0000
00000080: 0000 0000 0000 0000 0000 0000 0000 0000
00000090: 0000 0000 0000 0000 0000 0000 0000 0000
000000a0: 0000 0000 0000 0000 0000 0000 0000 803f
000000b0: 0000 803f 0000 803f 0000 0000 0000 0000
000000c0: 0000 0000 0000 0000 0000 0000 0000 0000
000000d0: 0000 0000 0000 0000 0000 0000 0000 0000
000000e0: 0000 0000 0000 0000 0000 0000 0000 0000
000000f0: 0000 0000 0000 0000 0000 0000 0000 0000
00000100: 0000 0000 0000 803f 0000 803f 0000 803f
00000110: 0000 0000 0000 0000 0000 0000 0000 0000
00000120: 0000 0000 0000 0000 0000 0000 0000 0000
00000130: 0000 0000 0000 0000 0000 0000 0000 0000
00000140: 0000 0000 0000 0000 0000 0000 0000 0000
00000150: 0000 0000 0000 0000 0000 0000 0000 803f
00000160: 0000 803f 0000 0000 0000 0000 0000 0000
00000170: 0000 0000 0000 0000 0000 0000 0000 0000
00000180: 0000 0000 0000 0000 0000 0000 0000 0000
00000190: 0000 0000 0000 0000 0000 0000 0000 0000
000001a0: 0000 0000 0000 803f 0000 0000 0000 0000
000001b0: 0000 0000 0000 0000 0000 803f 0000 803f
000001c0: 0000 0000 0000 0000 0000 803f 0000 0000
000001d0: 0000 0000 0000 0000 0000 0000 0000 0000
000001e0: 0000 0000 0000 0000 0000 0000 0000 0000
000001f0: 0000 0000 0000 0000 0000 0000 0000 0000
00000200: 0000 0000 0000 0000 0000 0000 0000 803f
00000210: 0000 803f 0000 803f 0000 0000 0000 0000
00000220: 0000 0000 0000 0000 0000 0000 0000 0000
00000230: 0000 0000 0000 0000 0000 0000 0000 0000
00000240: 0000 0000 0000 0000 0000 0000 0000 0000
00000250: 0000 0000 0000 0000 0000 0000 0000 0000
00000260: 0000 0000 0000 803f 0000 803f 0000 803f
00000270: 0000 0000 0000 0000 0000 0000 0000 0000
00000280: 0000 0000 0000 0000 0000 0000 0000 0000
00000290: 0000 0000 0000 0000 0000 0000 0000 0000
000002a0: 0000 0000 0000 0000 0000 0000 0000 0000
000002b0: 0000 0000 0000 0000 0000 0000 0000 803f
000002c0: 0000 803f 0000 0000 0000 0000 0000 0000
000002d0: 0000 0000 0000 0000 0000 0000 0000 0000
000002e0: 0000 0000 0000 0000 0000 0000 0000 0000
000002f0: 0000 0000 0000 803f 0000 0000 0000 0000
00000300: 0000 0000 0000 0000 0000 803f 0000 0000
00000310: 0000 0000 0000 0000 0000 803f 0000 803f
00000320: 0000 0000 0000 0000 0000 803f 0000 0000
00000330: 0000 0000 0000 0000 0000 0000 0000 0000
00000340: 0000 0000 0000 0000 0000 0000 0000 0000
00000350: 0000 0000 0000 0000 0000 0000 0000 0000
00000360: 0000 0000 0000 0000 0000 0000 0000 803f
00000370: 0000 803f 0000 803f 0000 0000 0000 0000
00000380: 0000 0000 0000 0000 0000 0000 0000 0000
00000390: 0000 0000 0000 0000 0000 0000 0000 0000
000003a0: 0000 0000 0000 0000 0000 0000 0000 0000
000003b0: 0000 0000 0000 0000 0000 0000 0000 0000
000003c0: 0000 0000 0000 803f 0000 803f 0000 803f
000003d0: 0000 0000 0000 0000 0000 0000 0000 0000
000003e0: 0000 0000 0000 0000 0000 0000 0000 0000
000003f0: 0000 0000 0000 0000 0000 0000 0000 0000

layer1.gcn.weight f4 [8, 3, 1, 1]
0.31331894 0.33417585 -0.6330699 -0.167932 0.07563041 0.59779245 -0.14410816 -0.15367405
0.15368877 0.5797273 0.33080733 0.49030438 0.26637053 -0.28774804 -0.45243737 -0.6919903
0.0476124 -0.42449865 -0.5255038 -0.38973778 0.21106039 -0.14077367 0.27128655 -0.62898993
00000000: 576b a03e 1919 ab3e de10 22bf 5ef6 2bbe
00000010: 1ee4 9a3d ed08 193f 1791 13be bb5c 1dbe
00000020: 9760 1d3e 0269 143f 945f a93e 2d09 fb3e
00000030: b861 883e b653 93be dfa5 e7be 4726 31bf
00000040: 3805 433d e357 d9be 6b87 06bf b68b c7be
00000050: 3720 583e f926 10be 12e6 8a3e 7c05 21bf

layer1.gcn.bias f4 [8]
0.3106521 0.21680328 -0.60088295 -0.0009884799 -0.18911625 0.13875057 -0.7122633 -0.30638924
00000000: cb0d 9f3e ae01 5e3e 77d3 19bf e28f 81ba
00000010: b1a7 41be a114 0e3e e356 36bf 0ddf 9cbe

layer1.tcn.weight f4 [8, 8, 3, 1]
0.019973252 -0.13033468 0.054209445 -0.12025355 -0.10337116 -0.12239103 0.07639776 0.1612001
-0.07097899 0.032090534 0.16127159 0.15523756 0.04740227 0.041748296 0.23154913 -0.066358455
-0.068715714 -0.26151612 0.017876348 0.059092514 -0.044426452 0.08785509 -0.1511278 -0.072712
0.120794214 0.0040417295 -0.11465404 -0.13979392 0.07877506 -0.03770503 -0.12619762 0.00010926317
-0.05866975 0.1503288 -0.16736653 -0.18387273 0.060259283 0.009872998 -0.085644774 0.041727327
0.23514645 0.23027746 -0.18237211 0.039807156 -0.13924897 0.15386093 0.011351634 -0.06277431
0.07914918 0.08202067 0.037968576 0.02844737 0.011311538 0.22423783 -0.004559236 0.19225238
0.032840993 -0.135402 -0.1943201 -0.05898881 -0.064357094 0.052006397 -0.1692825 0.09347869
0.29181194 0.106554344 -0.067364395 0.084872894 0.122082375 -0.159706 0.12947182 -0.01654521
0.03089098 0.15768604 -0.08218665 0.029850839 -0.06975347 0.100125074 -0.046083305 -0.22566733
-0.16674036 -0.07046863 0.25206771 0.13706726 0.1199009 -0.10701479 0.020527296 0.0031677703
-0.09201215 -0.20398016 -0.044113494 -0.15654314 -0.19401166 0.106112905 -0.11631315 0.011653521
0.021081712 0.043327298 0.0041887113 0.08327377 -0.012602155 0.15380651 -0.21973874 0.0603865
0.15835746 0.13497162 -0.07904621 -0.07221478 0.06350643 0.18127826 -0.1141768 -0.19788761
-0.1719306 -0.17882937 -0.10938721 0.16500343 -0.11199137 -0.07155246 -0.18456323 -0.24370143
0.084567584 -0.05186687 -0.14242825 0.19677846 0.2603509 0.2968885 -0.060225837 -0.06210367
0.12944064 0.0886397 0.07320702 0.20901322 -0.017028023 -0.04540615 -0.17837012 0.13326785
-0.12337698 0.059086192 0.1048407 0.0039384994 0.13274902 -0.14954944 0.010074486 -0.05282747
0.015823342 -0.018258078 0.16658765 -0.09916694 -0.30386117 -0.15299478 0.018953739 -0.10878605
-0.051301695 -0.11394014 -0.06209311 -0.2863753 0.08549847 -0.079899326 0.017281706 0.21918227
0.052775603 0.16387019 -0.14773199 0.13551414 -0.03359933 -0.049836416 -0.06887419 0.06175847
0.09727058 0.09746879 0.09968702 -0.27812585 -0.043381177 -0.100950085 0.18032582 -0.06654194
0.03483442 -0.004673989 0.17529173 0.02368551 0.049812317 0.21174744 0.189505 -0.100650646
0.12324214 -0.05969779 0.00014052696 -0.0045865932 -0.15940051 0.1916276 0.1404878 -0.05854329
00000000: f29e a33c 7476 05be b90a 5e3d 7e47 f6bd
00000010: 42b4 d3bd 26a8 fabd 6e76 9c3d a411 253e
00000020: 6f5d 91bd 5d71 033d 6124 253e 98f6 1e3e
00000030: e228 423d 4300 2b3d 371b 6d3e f1e6 87bd
00000040: d3ba 8cbd 71e5 85be 6b71 923c fe0a 723d
00000050: 83f8 35bd 5fed b33d 3fc1 1abe 07ea 94bd
00000060: f562 f73d 7c70 843b bdcf eabd 2326 0fbe
00000070: d254 a13d 9770 1abd f339 01be 3824 e538
00000080: b14f 70bd cbef 193e 2262 2bbe 2249 3cbe
00000090: 70d2 763d 5bc2 213c 8766 afbd 46ea 2a3d
000000a0: 3bca 703e dbcd 6b3e c1bf 3abe d40c 233d
000000b0: 4897 0ebe b88d 1d3e 34fc 393c d18f 80bd
000000c0: f718 a23d 74fa a73d f084 1b3d 750a e93c
000000d0: 0754 393c 9a9e 653e a565 95bb cfdd 443e
000000e0: 4784 063d d2a6 0abe d9fb 46be 409e 71bd
000000f0: a7cd 83bd a904 553d 6458 2dbe c171 bf3d
00000100: 6068 953e 2a39 da3d 58f6 89bd d7d1 ad3d
00000110: 5306 fa3d f889 23be 4394 043e d289 87bc
00000120: 150f fd3c 7378 213e 7951 a8bd bf89 f43c
00000130: e8da 8ebd 600e cd3d d9c1 3cbd 5615 67be
00000140: fcbd 2abe db51 90bd 050f 813e 5c5b 0c3e
00000150: 9a8e f53d 922a dbbd dc28 a83c 5e9a 4f3b
00000160: de70 bcbd 2de0 50be 5ab0 34bd d84c 20be
00000170: feaa 46be b951 d93d 9735 eebd 69ee 3e3c
00000180: 8eb3 ac3c f777 313d 7541 893b 708b aa3d
00000190: 4579 4ebc 747f 1d3e 3103 61be d657 773d
000001a0: 7528 223e 0036 0a3e fbe2 a1bd 58e5 93bd
000001b0: a90f 823d 02a1 393e 87d5 e9bd 0da3 4abe
000001c0: 930e 30be 0c1f 37be 6706 e0bd a9f6 283e
000001d0: bb5b e5bd 198a 92bd 25fe 3cbe de8c 79be
000001e0: c531 ad3d 5b72 54bd b6d8 11be 4b80 493e
000001f0: b74c 853e c501 983e 5eaf 76bd 6b60 7ebd
00000200: 168c 043e bb88 b53d 90ed 953d 9007 563e
00000210: 5a7e 8bbc cdfb 39bd a8a6 36be 5e77 083e
00000220: 12ad fcbd 5d04 723d b9b6 d63d 870e 813b
00000230: 5cef 073e 7d23 19be 750f 253c 9e61 58bd
00000240: f49f 813c f791 95bc f495 2a3e 0918 cbbd
00000250: b193 9bbe aaaa 1cbe df44 9b3c 38cb debd
00000260: ba21 52bd 7359 e9bd 5855 7ebd c99f 92be
00000270: d219 af3d 42a2 a3bd 5d92 8d3c 5171 603e
00000280: 3b2b 583d 96cd 273e 0e47 17be 38c4 0a3e
00000290: 739f 09bd 4521 4cbd e90d 8dbd 73f6 7c3d
000002a0: cc35 c73d b89d c73d b528 cc3d 8366 8ebe
000002b0: 76b0 31bd ebbe cebd 55a7 383e 2447 88bd
000002c0: 89ae 0e3d 4328 99bb ad7f 333e 1d08 c23c
000002d0: 0008 4c3d 52d4 583e 990d 423e ed21 cebd
000002e0: 6066 fc3d ab85 74bd 6b5a 1339 224b 96bb
000002f0: e339 23be 073a 443e 09dc 0f3e 17cb 6fbd

layer1.tcn.bias f4 [8]
0.00025192197 1.3597415e-05 0.00067373895 0.00046332355 -0.0012681813 0.00012205756 -0.00065069535 -0.00089202053
00000000: 6514 8439 7420 6437 db9d 303a 3cea f239
00000010: 1a39 a6ba 27f9 ff38 6d93 2aba 7cd6 69ba

layer1.bn.weight f4 [8]
1.2781858 0.7111388 1.114006 0.896655 0.8856161 1.0053895 1.0320444 1.2593958
00000000: 989b a33f 310d 363f c097 8e3f 2f8b 653f
00000010: bdb7 623f 9ab0 803f 081a 843f e233 a13f

layer1.bn.bias f4 [8]
0.064881 -0.31261683 0.037143566 0.14186676 0.11234539 -0.17702632 -0.10785009 -0.24945845
00000000: 54e0 843d 500f a0be da23 183d 8545 113e
00000010: 5715 e63d 6346 35be 82e0 dcbd 0972 7fbe

layer1.bn.running_mean f4 [8]
0.5709451 -0.015399985 -1.3088754 2.2569413 0.7707999 -0.16741593 -0.6281333 0.8353011
00000000: 7529 123f 3850 7cbc 3b89 a7bf ba71 1040
00000010: 2453 453f 156f 2bbe 58cd 20bf 4bd6 553f

layer1.bn.running_var f4 [8]
0.106491536 0.049137305 0.12852873 0.17556846 0.095850706 0.015439349 0.03323731 0.06760669
00000000: 3c18 da3d 3344 493d 099d 033e 38c8 333e
00000010: 604d c43d 53f5 7c3c d823 083d 6075 8a3d

layer1.res.0.weight f4 [8, 3, 1, 1]
-0.17065565 0.21130796 0.44768342 0.4010635 0.3814653 0.40558732 -0.056649413 0.27287847
0.18615544 0.08303763 0.16203502 -0.27798665 -0.4346165 0.14791943 -0.18951304 0.38011882
-0.37726697 0.27859834 -0.20023213 0.17719227 -0.3422372 -0.063662626 -0.23211521 0.09204334
00000000: 5bc0 2ebe 1d61 583e c336 e53e 3258 cd3e
00000010: 6b4f c33e 24a9 cf3e 3709 68bd bab6 8b3e
00000020: 889f 3e3e a20f aa3d 82ec 253e 4454 8ebe
00000030: 0e86 debe 3178 173e b50f 42be ef9e c23e
00000040: 2329 c1be 71a4 8e3e a709 4dbe e471 353e
00000050: b739 afbe 8d61 82bd 9caf 6dbe 3881 bc3d

layer1.res.0.bias f4 [8]
0.0017635497 -0.00029038134 0.001221074 0.0012906165 -0.0022731805 0.00012349177 -0.0005285975 -0.00019447779
00000000: e926 e73a 533e 98b9 720c a03a e729 a93a
00000010: a4f9 14bb 927d 0139 9491 0aba bcec 4bb9

layer1.res.1.weight f4 [8]
0.72748566 1.2112488 0.70561373 0.9792787 1.0511366 0.9718398 0.7765838 0.8977893
00000000: 803c 3a3f 330a 9b3f 1aa3 343f 02b2 7a3f
00000010: a58b 863f 7eca 783f 32ce 463f 85d5 653f

layer1.res.1.bias f4 [8]
0.064881 -0.31261683 0.037143566 0.14186676 0.11234539 -0.17702632 -0.10785009 -0.24945845
00000000: 54e0 843d 500f a0be da23 183d 8545 113e
00000010: 5715 e63d 6346 35be 82e0 dcbd 0972 7fbe

layer1.res.1.running_mean f4 [8]
-0.013477384 0.42046764 0.08763568 0.13219821 -0.20153257 0.056942303 -0.03555424 -0.14789608
00000000: 3fd0 5cbc 8947 d73e 567a b33d f85e 073e
00000010: 8e5e 4ebe 553c 693d 53a1 11bd 1272 17be

layer1.res.1.running_var f4 [8]
0.005914424 0.023511592 0.0064643 0.0031211074 0.014937616 0.022033965 0.005426197 0.0051270523
00000000: c9cd c13b 629b c03c 7bd2 d33b 7e8b 4c3b
00000010: e7bc 743c 9380 b43c 3dce b13b d500 a83b

layer2.A f4 [21, 21]
1.0 1.0 0.0 0.0 0.0 1.0 0.0 0.0
0.0 1.0 0.0 0.0 0.0 1.0 0.0 0.0
0.0 1.0 0.0 0.0 0.0 1.0 1.0 1.0
0.0 0.0 0.0 0.0 0.0 0.0 0.0 0.0
0.0 0.0 0.0 0.0 0.0 0.0 0.0 0.0
0.0 0.0 0.0 1.0 1.0 1.0 0.0 0.0
0.0 0.0 0.0 0.0 0.0 0.0 0.0 0.0
0.0 0.0 0.0 0.0 0.0 0.0 0.0 0.0
0.0 1.0 1.0 1.0 0.0 0.0 0.0 0.0
0.0 0.0 0.0 0.0 0.0 0.0 0.0 0.0
0.0 0.0 0.0 0.0 0.0 0.0 0.0 1.0
1.0 0.0 0.0 0.0 0.0 0.0 0.0 0.0
0.0 0.0 0.0 0.0 0.0 0.0 0.0 0.0
0.0 1.0 0.0 0.0 0.0 0.0 1.0 1.0
0.0 0.0 1.0 0.0 0.0 0.0 0.0 0.0
0.0 0.0 0.0 0.0 0.0 0.0 0.0 0.0
0.0 0.0 0.0 1.0 1.0 1.0 0.0 0.0
0.0 0.0 0.0 0.0 0.0 0.0 0.0 0.0
0.0 0.0 0.0 0.0 0.0 0.0 0.0 0.0
0.0 1.0 1.0 1.0 0.0 0.0 0.0 0.0
0.0 0.0 0.0 0.0 0.0 0.0 0.0 0.0
0.0 0.0 0.0 0.0 0.0 0.0 0.0 1.0
1.0 0.0 0.0 0.0 0.0 0.0 0.0 0.0
0.0 0.0 0.0 0.0 0.0 1.0 0.0 0.0
0.0 0.0 1.0 0.0 0.0 0.0 1.0 1.0
0.0 0.0 1.0 0.0 0.0 0.0 0.0 0.0
0.0 0.0 0.0 0.0 0.0 0.0 0.0 0.0
0.0 0.0 0.0 1.0 1.0 1.0 0.0 0.0
0.0 0.0 0.0 0.0 0.0 0.0 0.0 0.0
0.0 0.0 0.0 0.0 0.0 0.0 0.0 0.0
0.0 1.0 1.0 1.0 0.0 0.0 0.0 0.0
0.0 0.0 0.0 0.0 0.0 0.0 0.0 0.0
00000000: 0000 803f 0000 803f 0000 0000 0000 0000
00000010: 0000 0000 0000 803f 0000 0000 0000 0000
00000020: 0000 0000 0000 803f 0000 0000 0000 0000
00000030: 0000 0000 0000 803f 0000 0000 0000 0000
00000040: 0000 0000 0000 803f 0000 0000 0000 0000
00000050: 0000 0000 0000 803f 0000 803f 0000 803f
00000060: 0000 0000 0000 0000 0000 0000 0000 0000
00000070: 0000 0000 0000 0000 0000 0000 0000 0000
00000080: 0000 0000 0000 0000 0000 0000 0000 0000
00000090: 0000 0000 0000 0000 0000 0000 0000 0000
000000a0: 0000 0000 0000 0000 0000 0000 0000 803f
000000b0: 0000 803f 0000 803f 0000 0000 0000 0000
000000c0: 0000 0000 0000 0000 0000 0000 0000 0000
000000d0: 0000 0000 0000 0000 0000 0000 0000 0000
000000e0: 0000 0000 0000 0000 0000 0000 0000 0000
000000f0: 0000 0000 0000 0000 0000 0000 0000 0000
00000100: 0000 0000 0000 803f 0000 803f 0000 803f
00000110: 0000 0000 0000 0000 0000 0000 0000 0000
00000120: 0000 0000 0000 0000 0000 0000 0000 0000
00000130: 0000 0000 0000 0000 0000 0000 0000 0000
00000140: 0000 0000 0000 0000 0000 0000 0000 0000
00000150: 0000 0000 0000 0000 0000 0000 0000 803f
00000160: 0000 803f 0000 0000 0000 0000 0000 0000
00000170: 0000 0000 0000 0000 0000 0000 0000 0000
00000180: 0000 0000 0000 0000 0000 0000 0000 0000
00000190: 0000 0000 0000 0000 0000 0000 0000 0000
000001a0: 0000 0000 0000 803f 0000 0000 0000 0000
000001b0: 0000 0000 0000 0000 0000 803f 0000 803f
000001c0: 0000 0000 0000 0000 0000 803f 0000 0000
000001d0: 0000 0000 0000 0000 0000 0000 0000 0000
000001e0: 0000 0000 0000 0000 0000 0000 0000 0000
000001f0: 0000 0000 0000 0000 0000 0000 0000 0000
00000200: 0000 0000 0000 0000 0000 0000 0000 803f
00000210: 0000 803f 0000 803f 0000 0000 0000 0000
00000220: 0000 0000 0000 0000 0000 0000 0000 0000
00000230: 0000 0000 0000 0000 0000 0000 0000 0000
00000240: 0000 0000 0000 0000 0000 0000 0000 0000
00000250: 0000 0000 0000 0000 0000 0000 0000 0000
00000260: 0000 0000 0000 803f 0000 803f 0000 803f
00000270: 0000 0000 0000 0000 0000 0000 0000 0000
00000280: 0000 0000 0000 0000 0000 0000 0000 0000
00000290: 0000 0000 0000 0000 0000 0000 0000 0000
000002a0: 0000 0000 0000 0000 0000 0000 0000 0000
000002b0: 0000 0000 0000 0000 0000 0000 0000 803f
000002c0: 0000 803f 0000 0000 0000 0000 0000 0000
000002d0: 0000 0000 0000 0000 0000 0000 0000 0000
000002e0: 0000 0000 0000 0000 0000 0000 0000 0000
000002f0: 0000 0000 0000 803f 0000 0000 0000 0000
00000300: 0000 0000 0000 0000 0000 803f 0000 0000
00000310: 0000 0000 0000 0000 0000 803f 0000 803f
00000320: 0000 0000 0000 0000 0000 803f 0000 0000
00000330: 0000 0000 0000 0000 0000 0000 0000 0000
00000340: 0000 0000 0000 0000 0000 0000 0000 0000
00000350: 0000 0000 0000 0000 0000 0000 0000 0000
00000360: 0000 0000 0000 0000 0000 0000 0000 803f
00000370: 0000 803f 0000 803f 0000 0000 0000 0000
00000380: 0000 0000 0000 0000 0000 0000 0000 0000
00000390: 0000 0000 0000 0000 0000 0000 0000 0000
000003a0: 0000 0000 0000 0000 0000 0000 0000 0000
000003b0: 0000 0000 0000 0000 0000 0000 0000 0000
000003c0: 0000 0000 0000 803f 0000 803f 0000 803f
000003d0: 0000 0000 0000 0000 0000 0000 0000 0000
000003e0: 0000 0000 0000 0000 0000 0000 0000 0000
000003f0: 0000 0000 0000 0000 0000 0000 0000 0000

layer2.gcn.weight f4 [16, 8, 1, 1]
0.2112764 0.27955747 0.10638059 -0.06508511 0.051756863 -0.03913604 0.24526328 -0.24070725
-0.043658227 0.25198928 0.013721516 -0.18980639 0.2602367 -0.2754086 -0.024100706 -0.1665726
-0.02194804 -0.30999547 0.12320716 0.115685 0.15338098 0.21710216 0.1981445 -0.20477346
-0.059203364 0.2905382 -0.021812595 -0.21104635 -0.11422219 -0.23425178 -0.035971846 0.14542134
0.28333378 0.078194395 -0.17565785 0.059182435 0.062402654 -0.25726858 -0.19573322 0.022753606
-0.20344697 0.2904308 -0.06335156 0.22106864 0.35856625 -0.020814745 -0.19499996 0.2005354
-0.30451566 -0.042336073 -0.2422658 -0.17485267 0.24882044 0.03206779 0.16898488 -0.51043826
0.058998704 0.3235859 0.2754758 0.09180795 -0.28064147 0.2840451 0.08419384 0.515463
-0.4109364 0.07035355 0.13586724 -0.23455408 0.19609578 -0.08008429 -0.07828459 0.26325408
0.43556273 0.39092556 -0.21858837 -0.25823846 -0.09748645 0.07859696 0.2843103 -0.028366512
-0.3425303 0.31384343 -0.23331767 0.18875876 0.3279632 0.11690167 -0.05898443 -0.18602948
-0.013369353 -0.31275058 0.23288184 0.13739769 -0.26571295 0.0864774 0.025294757 0.16584583
0.2921569 0.135997 0.32482842 -0.12872721 0.049474694 -0.29547134 -0.06370351 -0.06520339
0.04208695 -0.055481438 0.31837884 0.044121135 -0.0751629 0.14138608 -0.28112122 0.2742106
0.2561944 0.12987204 -0.20970756 -0.20967393 0.1179901 -0.070149824 0.1969939 0.18152735
-0.37910068 0.03489675 -0.18591216 -0.23036793 0.15802105 0.14445974 -0.31750146 0.17308483
00000000: d758 583e 2822 8f3e 11de d93d 584b 85bd
00000010: 01ff 533d 1d4d 20bd 4c26 7b3e f67b 76be
00000020: f8d2 32bd bd04 813e 36d0 603c 9b5c 42be
00000030: bf3d 853e 5b02 8dbe d86e c5bc 0292 2abe
00000040: 60cc b3bc bab7 9ebe 0954 fc3d 42ec ec3d
00000050: e70f 1d3e 0750 5e3e 64e6 4a3e 22b0 51be
00000060: 3a7f 72bd 6cc1 943e 54b0 b2bc 891c 58be
00000070: 53ed e9bd b3df 6fbe 3757 13bd 55e9 143e
00000080: 2011 913e 6224 a03d a7df 33be 4869 723d
00000090: ed99 7f3d b5b8 83be 4a6e 48be c565 ba3c
000000a0: 6754 50be 59b3 943e 76be 81bd d15f 623e
000000b0: ff95 b73e af83 aabc 12ae 47be 2759 4d3e
000000c0: 7ae9 9bbe 9768 2dbd 8714 78be 940c 33be
000000d0: c9ca 7e3e 8459 033d 5f0a 2d3e 15ac 02bf
000000e0: a0a8 713d 0dad a53e 2a0b 8d3e ce05 bc3d
000000f0: 3db0 8fbe 5c6e 913e d26d ac3d 62f5 033f
00000100: 4166 d2be 8615 903d c820 0b3e f22e 70be
00000110: 55cd 483e 3b03 a4bd ac53 a0bd 3dc9 863e
00000120: 1402 df3e 6527 c83e a1d5 5fbe d537 84be
00000130: faa6 c7bd 71f7 a03d 1f91 913e e360 e8bc
00000140: 2260 afbe 16b0 a03e d4ea 6ebe fa49 413e
00000150: cbea a73e 256a ef3d a899 71bd 837e 3ebe
00000160: 210b 5bbc d820 a0be 9478 6e3e fbb1 0c3e
00000170: 870b 88be 101b b13d f336 cf3c 7dd3 293e
00000180: 9795 953e cc42 0b3e e94f a63e 11d1 03be
00000190: faa5 4a3d 0548 97be fc76 82bd 5b89 85bd
000001a0: 5e63 2c3d 8140 63bd 8d02 a33e 5db8 343d
000001b0: 02ef 99bd 83c7 103e 1fef 8fbe 5565 8c3e
000001c0: ea2b 833e 2dfd 043e 94bd 56be c3b4 56be
000001d0: cba4 f13d b6aa 8fbd c5b8 493e 4ee2 393e
000001e0: 7c19 c2be e5ef 0e3d c25f 3ebe 92e5 6bbe
000001f0: 45d0 213e 41ed 133e 8d8f a2be 263d 313e

layer2.gcn.bias f4 [16]
0.03462998 -0.12138916 0.07844539 -0.14778423 -0.025948584 -0.4276529 0.117376424 -0.6627792
-0.2146641 0.014056041 0.23915528 0.23425925 -0.11214798 -0.17072539 -0.30349186 -0.10442471
00000000: 2ad8 0d3d e19a f8bd faa7 a03d c054 17be
00000010: 2092 d4bc 52f5 dabe 0d63 f03d e6ab 29bf
00000020: e8d0 5bbe 4f4b 663c 1fe5 743e a8e1 6f3e
00000030: d7ad e5bd a3d2 2ebe 4963 9bbe 9fdc d5bd

layer2.tcn.weight f4 [16, 16, 3, 1]
-0.079405 -0.15770377 0.08114328 -0.026013285 -0.059145853 -0.10077344 0.020925581 0.07646472
-0.04288868 0.10841893 0.16241165 0.12513033 -0.012122441 -0.19065213 0.056147307 -0.0011191139
-0.04773479 -0.1006419 -0.089549236 0.05826721 -0.14307326 0.03405543 0.024373176 0.021738984
0.083697766 0.10769283 0.08744423 -0.12843746 -0.06919145 0.039765872 -0.16366427 -0.05995328
-0.16842099 -0.0038620685 0.13059603 0.020588757 0.02980954 -0.1605193 0.0032482448 0.05318295
-0.1413426 -0.10563365 0.047329806 0.005381966 -0.06640803 -0.13006054 -0.15091391 -0.06956321
0.05061345 0.02835092 -0.12848592 0.028000165 -0.1586409 -0.038563244 -0.024143172 0.032521028
-0.04734877 -0.19019067 -0.16271693 -0.10709915 -0.0375657 0.02515814 -0.023771223 0.030758282
-0.15699849 0.0029410094 -0.0045173843 -0.12406206 -0.083762914 -0.14208293 -0.09665947 -0.10477896
-0.0064787646 0.02917343 -0.104614295 0.039579447 -0.10712801 -0.03797955 -0.054004643 -0.1876559
-0.1624652 0.073218845 0.011090175 0.15405598 -0.20117173 -0.09531762 0.076946214 -0.079316385
-0.020849042 -0.05945135 -0.028745472 -0.09797343 0.1636806 -0.15922727 0.008843192 -0.19085859
0.0665621 0.04439386 0.021464724 -0.02721894 -0.07131295 0.06838468 0.09923234 -0.024599832
0.016293082 0.013958383 0.025417473 0.021330534 0.07025667 -0.103350244 0.00063756254 -0.14439636
0.16314119 -0.05926913 -0.07464103 0.103421 0.20001367 -0.06781222 -0.046534855 -0.121023074
-0.098532714 -0.010582262 -0.06790047 -0.012727165 0.04444629 0.17135042 0.20397821 0.05269948
0.1528349 0.15344761 0.14641917 -0.07156956 -0.29400408 -0.072947316 -0.17259082 -0.09240926
-0.15373275 0.024160357 -0.13519321 0.05316412 0.0859156 0.10056889 -0.105409265 0.13674371
-0.012241429 0.088688605 -0.06533123 -0.097264655 0.07855984 -0.033694234 -0.02847922 -0.027335549
0.029147232 0.011484261 -0.07210988 -0.059026226 0.055748675 0.025323832 -0.019440971 -0.063510224
0.12776183 0.1441633 0.11895383 -0.07959061 -0.052541394 -0.024506595 0.007859567 0.12569043
0.08943384 0.18256943 0.19520041 -0.09873272 -0.18895847 -0.10511182 0.089476615 0.013714323
-0.020723235 0.03903653 0.05567844 0.0793325 0.074998096 -0.025457613 -0.11665394 0.18856029
0.09517386 0.117368415 0.023594426 -0.19188984 -0.080959395 0.048789054 0.14244129 0.2468165
-0.1776517 0.042693056 0.036434524 -0.25058806 -0.012239488 0.009017536 0.12087248 0.09029529
0.006855813 -0.06735774 0.023856172 -0.17022322 -0.037320748 0.067594536 -0.008903716 -0.085524514
0.00451256 -0.06612206 0.009077612 0.015823273 -0.05081312 -0.025628423 0.15980771 -0.009442295
-0.030812342 -0.052386705 0.13335668 -0.10829146 -0.008202573 -0.09798859 -0.03601818 0.08264672
-0.027763152 0.025161505 0.019599032 0.0065620975 -0.17664665 -0.16145095 -0.111297294 0.10624002
0.14757517 0.0804337 -0.1674902 -0.14428812 -0.092726536 -0.002850198 0.09681896 0.114962175
-0.13838592 -0.10155497 -0.08784744 -0.08438478 -0.01433352 -0.1548149 0.0545453 -0.0750979
-0.07586114 -0.0022084871 0.023407301 -0.023254694 -0.08735212 0.09897559 -0.15198213 0.1253953
00000000: 179f a2bd 197d 21be 732e a63d d019 d5bc
00000010: ec42 72bd 4e62 cebd 206c ab3c 8999 9c3d
00000020: 0aac 2fbd be0a de3d 3d4f 263e 2a22 003e
00000030: 349d 46bc 503a 43be b8fa 653d 3baf 92ba
00000040: 8e85 43bd 571d cebd 9765 b7bd 99a9 6e3d
00000050: cc81 12be b57d 0b3d 41aa c73c f415 b23c
00000060: bc69 ab3d 0f8e dc3d f615 b33d 1c85 03be
00000070: 3fb4 8dbd 8ae1 223d 9b97 27be 9291 75bd
00000080: 8d76 2cbe c21a 7dbb f7ba 053e c1a9 a83c
00000090: 2333 f43c 2c5f 24be 81e0 543b 5dd6 593d
000000a0: 1dbc 10be 7556 d8bd e6dc 413d 345b b03b
000000b0: ef00 88bd 972e 05be 2d89 1abe 2877 8ebd
000000c0: 0d50 4f3d 3040 e83c d091 03be 9a60 e53c
000000d0: c372 22be 7ef4 1dbd e7c7 c5bc c534 053d
000000e0: c9f0 41bd 58c1 42be 449f 26be cd56 dbbd
000000f0: 7ede 19bd 7218 ce3c debb c2bc cbf8 fb3c
00000100: 36c4 20be f3bd 403b 9106 94bb 4014 febd
00000110: e48b abbd 307e 11be 66f5 c5bd 5a96 d6bd
00000120: d14b d4bb 1efd ee3c 0540 d6bd 0f1e 223d
00000130: ee65 dbbd 7290 1bbd f933 5dbd de28 40be
00000140: 475d 26be c3f3 953d 91b3 353c dac0 1d3e
00000150: f6ff 4dbe e235 c3bd fa95 9d3d a170 a2bd
00000160: 9ccb aabc 4283 73bd a07b ebbc 4ba6 c8bd
00000170: e39b 273e 790c 23be 09e3 103c 6f70 43be
00000180: b651 883d 56d6 353d cad6 af3c 41fa debc
00000190: 860c 92bd 440d 8c3d 533a cb3d 9685 c9bc
000001a0: 1279 853c b4b1 643c 4e38 d03c 5fbd ae3c
000001b0: bbe2 8f3d 4ba9 d3bd 1922 273a a4dc 13be
000001c0: 7c0e 273e 30c4 72bd 65dd 98bd 64ce d33d
000001d0: 62d0 4c3e 22e1 8abd 559b 3ebd f2da f7bd
000001e0: 85cb c9bd 3961 2dbc 670f 8bbd 9985 50bc
000001f0: 500d 363d 7c76 2f3e aadf 503e 69db 573d
00000200: c180 1c3e 5f21 1d3e e8ee 153e 1093 92bd
00000210: b487 96be 6765 95bd a6bb 30be 1141 bdbd
00000220: 1e6c 1dbe f1eb c53c 1770 0abe 9fc2 593d
00000230: 85f4 af3d 10f7 cd3d d0e0 d7bd 8b06 0c3e
00000240: 4690 48bc 5fa2 b53d 61cc 85bd b132 c7bd
00000250: fbe3 a03d f702 0abd 414d e9bc cdee dfbc
00000260: 2dc6 ee3c 7b28 3c3c 58ae 93bd 7cc5 71bd
00000270: b958 643d ed73 cf3c ac42 9fbc a611 82bd
00000280: ffd3 023e 8b9f 133e 119e f33d 6700 a3bd
00000290: a535 57bd 0ec2 c8bc 6ac5 003c feb4 003e
000002a0: 1729 b73d 7bf3 3a3e 9ee2 473e 6134 cabd
000002b0: 547e 41be de44 d7bd 843f b73d 0ab2 603c
000002c0: c6c3 a9bc c5e4 1f3d 130f 643d 1479 a23d
000002d0: 9a98 993d 7c8c d0bc 43e8 eebd f315 413e
000002e0: 83ea c23d da5e f03d 1949 c13c c57e 44be
000002f0: 0ace a5bd 08d7 473d 21dc 113e 77bd 7c3e
00000300: 54ea 35be eade 2e3d 5e3c 153d 144d 80be
00000310: 2288 48bc 4abe 133c fe8b f73d bdec b83d
00000320: baa6 e03b dbf2 89bd 056e c33c ff4e 2ebe
00000330: a4dd 18bd 016f 8a3d e4e0 11bc 7a27 afbd
00000340: 19de 933b 016b 87bd 44ba 143c cf9f 813c
00000350: 6b21 50bd b3f2 d1bc a2a4 233e dbb3 1abc
00000360: 2a6a fcbc 7193 56bd a78e 083e eac7 ddbd
00000370: 1664 06bc 3eae c8bd cd87 13bd af42 a93d
00000380: 8d6f e3bc 801f ce3c 268e a03c dd06 d73b
00000390: dce2 34be 6653 25be d6ef e3bd 5e94 d93d
000003a0: f21d 173e 6cba a43d 8d82 2bbe 44c0 13be
000003b0: 69e7 bdbd 63ca 3abb 0549 c63d 4a71 eb3d
000003c0: 0ab5 0dbe 0dfc cfbd 5ce9 b3bd edd1 acbd
000003d0: 24d7 6abc cc87 1ebe e46a 5f3d eecc 99bd
000003e0: 165d 9bbd 44bc 10bb abc0 bf3c a180 bebc
000003f0: abe5 b2bd b7b3 ca3d 34a1 1bbe a067 003e

layer2.tcn.bias f4 [16]
-0.00021467949 -2.7465796e-05 2.4083956e-06 0.00016485523 -9.323264e-05 -3.9978404e-05 9.153082e-05 2.0189846e-06
-5.242503e-06 8.5455365e-05 0.000112673195 -9.989113e-05 -9.823565e-05 -9.3050876e-05 -3.5308665e-05 -1.8432273e-05
00000000: 961b 61b9 5966 e6b7 ec9f 2136 fddc 2c39
00000010: e485 c3b8 7cae 27b8 3cf4 bf38 e47d 0736
00000020: c2e8 afb6 8036 b338 f64a ec38 a47c d1b8
00000030: dd03 ceb8 4f24 c3b8 6418 14b8 019f 9ab7

layer2.bn.weight f4 [16]
1.490219 1.693172 1.588093 1.8433545 1.4001839 1.4166898 1.5662183 1.7819097
1.8329645 1.7109836 1.4923403 1.6427724 1.6597972 1.9169953 1.7288004 2.0455308
00000000: 7fbf be3f dcb9 d83f a246 cb3f 0af3 eb3f
00000010: 3a39 b33f 1756 b53f d779 c83f 9e15 e43f
00000020: 959e ea3f 8301 db3f 0205 bf3f 5e46 d23f
00000030: 3c74 d43f 1a60 f53f 5549 dd3f fae9 0240

layer2.bn.bias f4 [16]
0.13694036 0.16733463 0.12516008 0.32700768 0.11962551 0.14526448 0.19357406 0.11796482
0.069481574 0.087148026 0.19575351 0.14521773 0.26156676 0.2797011 0.14924175 0.18783316
00000000: 183a 0c3e c559 2b3e f729 003e 8d6d a73e
00000010: 38fe f43d 36c0 143e 4738 463e 8a97 f13d
00000020: 5b4c 8e3d aa7a b23d 9c73 483e f5b3 143e
00000030: 14ec 853e fc34 8f3e d4d2 183e 5657 403e

layer2.bn.running_mean f4 [16]
0.07297987 0.65753406 -0.52219296 -0.39386252 0.033211287 -0.13613984 0.52841705 -0.020800015
0.6725 0.13954252 0.22919786 -0.107221015 -0.22428437 0.27394965 0.23313956 0.47239155
00000000: 7876 953d 2754 283f 70ae 05bf 59a8 c9be
00000010: 8f08 083d 3e68 0bbe 5746 073f cb64 aabc
00000020: f628 2c3f 3ce4 0e3e d8b2 6a3e b196 dbbd
00000030: cdaa 65be 2143 8c3e 23bc 6e3e 4edd f13e

layer2.bn.running_var f4 [16]
0.35225222 0.18870935 0.2678026 0.2201553 0.25645134 0.31419498 0.5057628 0.495052
0.34640232 0.28934032 0.22678319 0.17288332 0.35670224 0.43722388 0.48002318 0.26922575
00000000: 675a b43e 063d 413e 6c1d 893e 6470 613e
00000010: 974d 833e 2ade a03e ac79 013f 7577 fd3e
00000020: a55b b13e 6a24 943e da39 683e 5308 313e
00000030: ada1 b63e cfdb df3e 99c5 f53e f5d7 893e

layer2.res.0.weight f4 [16, 8, 1, 1]
-0.10609132 -0.07321914 -0.12820484 0.01776964 0.008587876 -0.16753744 0.478552 0.01685202
0.14043398 -0.23184386 -0.07846028 0.12603936 -0.07529097 -0.004016653 0.2685447 -0.14546712
0.09551369 0.18050267 -0.23783787 -0.022116072 0.043348115 0.44273338 0.16778515 -0.018232474
-0.12577063 -0.21172296 0.21664645 0.09898405 -0.005226759 0.28543404 -0.3419562 0.1535209
0.0014680742 -0.069230884 0.17046176 -0.009657162 0.38764656 0.41900885 -0.08914661 -0.0875168
-0.14340132 -0.1605011 0.024315178 0.15415435 -0.13237964 0.31528324 -0.13635877 0.39988893
-0.28912032 -0.13515772 0.037827674 0.1783561 0.20871532 -0.030285707 0.039873827 0.21884316
-0.3619332 0.0300173 -0.19144703 0.2414271 0.036901463 0.08026761 0.17572741 0.32902172
-0.21114239 -0.08891677 0.19862938 0.08087292 0.1394846 -0.04569457 -0.045393888 0.16645148
-0.30218396 0.028489426 -0.2027052 0.24987538 0.2521406 0.038735364 0.18220648 0.063301876
0.42296875 0.2657358 -0.03610556 -0.17702599 -0.094609335 -0.0038138148 0.1397335 0.04880936
-0.28925344 -0.04274199 0.22213148 0.2853604 0.15336837 0.30679306 0.082737364 -0.026268035
-0.16617733 0.22857134 -0.07474012 0.16714324 0.28825358 -0.032545637 -0.07427058 -0.028150158
0.13753706 0.20610808 0.24002913 -0.056952935 -0.24838758 0.09189889 -0.17655233 0.4555469
0.038699474 -0.19826032 -0.03346647 -0.0735631 -0.03359635 -0.036634587 0.16713926 0.3735398
0.09775067 0.18997295 -0.05212653 -0.05391483 -0.14384474 0.23616792 0.071810536 0.29168406
00000000: 6846 d9bd ebf3 95bd 2148 03be a391 913c
00000010: 2ab4 0c3c ef8e 2bbe c504 f53e 3f0d 8a3c
00000020: edcd 0f3e 7a68 6dbe c9af a0bd 7610 013e
00000030: 2732 9abd 219e 83bb b17e 893e 55f5 14be
00000040: ae9c c33d b1d5 383e c58b 73be c42c b5bc
00000050: cb8d 313d f3ad e23e dfcf 2b3e 455c 95bc
00000060: 04ca 00be e7cd 58be 91d8 5d3e 26b8 ca3d
00000070: 3b45 abbb 6924 923e e214 afbe 9534 1d3e
00000080: 656c c03a ecc8 8dbd 878d 2e3e 1339 1ebc
00000090: 9c79 c63e 5488 d63e 7f92 b6bd 023c b3bd
000000a0: ccd7 12be 665a 24be a030 c73c a3da 1d3e
000000b0: 878e 07be ce6c a13e a2a1 0bbe 3ebe cc3e
000000c0: 9407 94be c966 0abe 31f1 1a3d fba2 363e
000000d0: 78b9 553e bb19 f8bc bd52 233d 6c18 603e
000000e0: 4f4f b9be d7e6 f53c b10a 44be aa38 773e
000000f0: fd25 173d 5863 a43d e3f1 333e 8975 a83e
00000100: b635 58be ff19 b6bd 8065 4b3e b4a0 a53d
00000110: 0dd5 0e3e 3b2a 3bbd f1ee 39bd 4272 2a3e
00000120: dbb7 9abe a862 e93c f491 4fbe 55df 7f3e
00000130: 9318 813e f9a8 1e3d 5694 3a3e 6aa4 813d
00000140: 5c8f d83e 860e 883e 6ce3 13bd 4d46 35be
00000150: 8ac2 c1bd 32f1 79bb 4c16 0f3e 53ec 473d
00000160: 0719 94be 3a12 2fbd 6f76 633e c21a 923e
00000170: 990c 1d3e fb13 9d3e 3572 a93d 1030 d7bc
00000180: 642a 2abe 9b0e 6a3e 5911 99bd 9927 2b3e
00000190: f995 933e 934e 05bd 2d1b 98bd 299b e6bc
000001a0: 84d6 0c3e ff0d 533e 32ca 753e 7b47 69bd
000001b0: 5059 7ebe 7c35 bc3d 22ca 34be 713d e93e
000001c0: 5783 1e3d c104 4bbe 2314 09bd 40a8 96bd
000001d0: 549c 09bd 260e 16bd 8e26 2b3e 9c40 bf3e
000001e0: 8131 c83d 4588 423e a182 55bd ccd5 5cbd
000001f0: 094c 13be 01d6 713e 6711 933d 9d57 953e

layer2.res.0.bias f4 [16]
-8.808751e-05 -0.00012064256 0.00021103221 6.867795e-05 0.0001502129 -5.4790908e-05 0.0003001874 -0.0001162492
-0.00047523514 8.428203e-05 -5.8048026e-05 1.0292341e-05 -5.335575e-05 0.00015372729 5.7676007e-05 -0.00014705659
00000000: 9fbb b8b8 7b01 fdb8 8748 5d39 3207 9038
00000010: 7882 1d39 4acf 65b8 7962 9d39 d0ca f3b8
00000020: fb28 f9b9 92c0 b038 9878 73b8 45ad 2c37
00000030: 4dca 5fb8 db31 2139 24e9 7138 3433 1ab9

layer2.res.1.weight f4 [16]
1.3935916 1.2857162 1.2818006 1.456663 1.1612586 1.3802601 1.3780925 1.4754504
1.4405618 1.1210501 1.3087603 0.95861787 1.4235302 1.5992322 1.3313107 1.6475114
00000000: 3661 b23f 5992 a43f 0b12 a43f ef73 ba3f
00000010: 1fa4 943f 5dac b03f 5665 b03f 8fdb bc3f
00000020: 5464 b83f 927e 8f3f 7585 a73f fb67 753f
00000030: 3d36 b63f a4b3 cc3f 6468 aa3f a7e1 d23f

layer2.res.1.bias f4 [16]
0.13694036 0.16733463 0.12516008 0.32700768 0.11962551 0.14526448 0.19357406 0.11796482
0.069481574 0.087148026 0.19575351 0.14521773 0.26156676 0.2797011 0.14924175 0.18783316
00000000: 183a 0c3e c559 2b3e f729 003e 8d6d a73e
00000010: 38fe f43d 36c0 143e 4738 463e 8a97 f13d
00000020: 5b4c 8e3d aa7a b23d 9c73 483e f5b3 143e
00000030: 14ec 853e fc34 8f3e d4d2 183e 5657 403e

layer2.res.1.running_mean f4 [16]
0.07072472 0.09069422 0.104355626 0.042858597 0.23140976 0.112995476 0.16886382 0.15443295
0.15046996 0.16202454 0.14442956 0.38041553 0.13968521 0.22528416 0.06575912 0.15074344
00000000: 1fd8 903d e4bd b93d 67b8 d53d 7f8c 2f3d
00000010: aef6 6c3e 2c6a e73d a3ea 2c3e ac23 1e3e
00000020: cc14 1a3e c3e9 253e 58e5 133e d3c5 c23e
00000030: a409 0f3e e4b0 663e b8ac 863d 7d5c 1a3e

layer2.res.1.running_var f4 [16]
0.07690969 0.034767684 0.017952759 0.026004195 0.0740425 0.051600695 0.02044921 0.030910946
0.022487458 0.038696215 0.031923264 0.15024805 0.07313829 0.060336422 0.07429697 0.024112413
00000000: d482 9d3d 8f68 0e3d aa11 933c c006 d53c
00000010: 98a3 973d 405b 533d 1a85 a73c f438 fd3c
00000020: 9e37 b83c ec7f 1e3d f8c1 023d a0da 193e
00000030: 87c9 953d 5323 773d 0329 983d 6587 c53c

fc.weight f4 [5, 16]
-0.29784843 -0.331262 -0.41252422 -0.05468096 -0.2044994 -0.16615489 -0.13263689 0.14260039
-0.8212036 0.44815186 -0.021195807 -0.31347492 0.56101096 0.25588226 0.4085239 -0.15536578
0.6440406 0.62087876 -0.58637995 -0.7508285 -0.55260146 -0.3257427 -0.17829089 -0.44815588
0.3391358 0.021533616 0.5960734 -0.45642832 0.03362584 -0.03009129 0.15941088 0.13441613
-0.33134 0.44433296 0.3758138 0.1199376 0.41066742 0.32856148 0.4273687 -0.0791205
0.47105277 -0.64631337 -0.43173334 -0.30931574 -0.70089334 -0.09691124 -0.500419 -0.5248256
-0.4955813 -0.3681397 -0.11847967 0.5106402 -0.19337076 0.34363714 -0.47552782 -0.5058777
-0.18785563 -0.20454496 -0.011377757 0.24517895 -0.2751451 0.35491934 0.073207155 0.53155583
0.09487564 -0.23140447 0.42484245 0.105351664 0.13800107 -0.41003656 0.46208546 0.48702407
0.3614463 0.36306515 -0.47721753 0.4543033 0.18540213 -0.9432367 -0.58042693 -0.84833395
00000000: 977f 98be 2c9b a9be 6036 d3be 24f9 5fbd
00000010: 4a68 51be 8224 2abe f7d1 07be d605 123e
00000020: 663a 52bf 2974 e53e d4a2 adbc c97f a0be
00000030: 6a9e 0f3f 0003 833e 0b2a d13e 3518 1fbe
00000040: d8df 243f e9f1 1e3f ff1c 16bf 4c36 40bf
00000050: 4a77 0dbf bfc7 a6be e391 36be b074 e5be
00000060: 35a3 ad3e 4467 b03c 4498 183f f9b0 e9be
00000070: 40bb 093d 0282 f6bc 9b3c 233e 62a4 093e
00000080: 65a5 a9be 9c7f e33e ab6a c03e d8a1 f53d
00000090: 0043 d23e 3639 a83e 12d0 da3e ee09 a2bd
000000a0: d42d f13e cb74 25bf 270c ddbe a25e 9ebe
000000b0: bf6d 33bf 6679 c6bd 761b 00bf f85a 06bf
000000c0: d5bc fdbe cf7c bcbe 78a5 f2bd 51b9 023f
000000d0: fc02 46be 35f1 af3e 6278 f3be 3381 01bf
000000e0: 3a5d 40be 3c74 51be c669 3abc 3110 7b3e
000000f0: d2df 8cbe fdb7 b53e a2ed 953d 0b14 083f
00000100: 294e c23d 4bf5 6cbe f384 d93e 9dc2 d73d
00000110: 2750 0d3e 50f0 d1be 7796 ec3e 385b f93e
00000120: 7d0f b93e ade3 b93e db55 f4be 719a e83e
00000130: 0eda 3d3e f677 71bf dc96 14bf 6a2c 59bf

fc.bias f4 [5]
0.13540787 -0.18922935 0.19877458 0.05846039 0.10689715
00000000: 5ca8 0a3e 57c5 41be 908b 4b3e 2974 6f3d
00000010: e5ec da3d
