best_models_stgcn/best_model_0.6758.pth (torch, 21674 bytes, 32 tensors)

layer1.A f4 [21, 21]
000000 00 00 80 3f 00 00 80 3f 00 00 00 00 00 00 00 00
       1.0 1.0 0.0 0.0
000010 00 00 00 00 00 00 80 3f 00 00 00 00 00 00 00 00
       0.0 1.0 0.0 0.0
000020 00 00 00 00 00 00 80 3f 00 00 00 00 00 00 00 00
       0.0 1.0 0.0 0.0
000030 00 00 00 00 00 00 80 3f 00 00 00 00 00 00 00 00
       0.0 1.0 0.0 0.0
000040 00 00 00 00 00 00 80 3f 00 00 00 00 00 00 00 00
       0.0 1.0 0.0 0.0
000050 00 00 00 00 00 00 80 3f 00 00 80 3f 00 00 80 3f
       0.0 1.0 1.0 1.0
000060 00 00 00 00 00 00 00 00 00 00 00 00 00 00 00 00
       0.0 0.0 0.0 0.0
000070 00 00 00 00 00 00 00 00 00 00 00 00 00 00 00 00
       0.0 0.0 0.0 0.0
000080 00 00 00 00 00 00 00 00 00 00 00 00 00 00 00 00
       0.0 0.0 0.0 0.0
000090 00 00 00 00 00 00 00 00 00 00 00 00 00 00 00 00
       0.0 0.0 0.0 0.0
0000a0 00 00 00 00 00 00 00 00 00 00 00 00 00 00 80 3f
       0.0 0.0 0.0 1.0
0000b0 00 00 80 3f 00 00 80 3f 00 00 00 00 00 00 00 00
       1.0 1.0 0.0 0.0
0000c0 00 00 00 00 00 00 00 00 00 00 00 00 00 00 00 00
       0.0 0.0 0.0 0.0
0000d0 00 00 00 00 00 00 00 00 00 00 00 00 00 00 00 00
       0.0 0.0 0.0 0.0
0000e0 00 00 00 00 00 00 00 00 00 00 00 00 00 00 00 00
       0.0 0.0 0.0 0.0
0000f0 00 00 00 00 00 00 00 00 00 00 00 00 00 00 00 00
       0.0 0.0 0.0 0.0
000100 00 00 00 00 00 00 80 3f 00 00 80 3f 00 00 80 3f
       0.0 1.0 1.0 1.0
000110 00 00 00 00 00 00 00 00 00 00 00 00 00 00 00 00
       0.0 0.0 0.0 0.0
000120 00 00 00 00 00 00 00 00 00 00 00 00 00 00 00 00
       0.0 0.0 0.0 0.0
000130 00 00 00 00 00 00 00 00 00 00 00 00 00 00 00 00
       0.0 0.0 0.0 0.0
000140 00 00 00 00 00 00 00 00 00 00 00 00 00 00 00 00
       0.0 0.0 0.0 0.0
000150 00 00 00 00 00 00 00 00 00 00 00 00 00 00 80 3f
       0.0 0.0 0.0 1.0
000160 00 00 80 3f 00 00 00 00 00 00 00 00 00 00 00 00
       1.0 0.0 0.0 0.0
000170 00 00 00 00 00 00 00 00 00 00 00 00 00 00 00 00
       0.0 0.0 0.0 0.0
000180 00 00 00 00 00 00 00 00 00 00 00 00 00 00 00 00
       0.0 0.0 0.0 0.0
000190 00 00 00 00 00 00 00 00 00 00 00 00 00 00 00 00
       0.0 0.0 0.0 0.0
0001a0 00 00 00 00 00 00 80 3f 00 00 00 00 00 00 00 00
       0.0 1.0 0.0 0.0
0001b0 00 00 00 00 00 00 00 00 00 00 80 3f 00 00 80 3f
       0.0 0.0 1.0 1.0
0001c0 00 00 00 00 00 00 00 00 00 00 80 3f 00 00 00 00
       0.0 0.0 1.0 0.0
0001d0 00 00 00 00 00 00 00 00 00 00 00 00 00 00 00 00
       0.0 0.0 0.0 0.0
0001e0 00 00 00 00 00 00 00 00 00 00 00 00 00 00 00 00
       0.0 0.0 0.0 0.0
0001f0 00 00 00 00 00 00 00 00 00 00 00 00 00 00 00 00
       0.0 0.0 0.0 0.0
000200 00 00 00 00 00 00 00 00 00 00 00 00 00 00 80 3f
       0.0 0.0 0.0 1.0
000210 00 00 80 3f 00 00 80 3f 00 00 00 00 00 00 00 00
       1.0 1.0 0.0 0.0
000220 00 00 00 00 00 00 00 00 00 00 00 00 00 00 00 00
       0.0 0.0 0.0 0.0
000230 00 00 00 00 00 00 00 00 00 00 00 00 00 00 00 00
       0.0 0.0 0.0 0.0
000240 00 00 00 00 00 00 00 00 00 00 00 00 00 00 00 00
       0.0 0.0 0.0 0.0
000250 00 00 00 00 00 00 00 00 00 00 00 00 00 00 00 00
       0.0 0.0 0.0 0.0
000260 00 00 00 00 00 00 80 3f 00 00 80 3f 00 00 80 3f
       0.0 1.0 1.0 1.0
000270 00 00 00 00 00 00 00 00 00 00 00 00 00 00 00 00
       0.0 0.0 0.0 0.0
000280 00 00 00 00 00 00 00 00 00 00 00 00 00 00 00 00
       0.0 0.0 0.0 0.0
000290 00 00 00 00 00 00 00 00 00 00 00 00 00 00 00 00
       0.0 0.0 0.0 0.0
0002a0 00 00 00 00 00 00 00 00 00 00 00 00 00 00 00 00
       0.0 0.0 0.0 0.0
0002b0 00 00 00 00 00 00 00 00 00 00 00 00 00 00 80 3f
       0.0 0.0 0.0 1.0
0002c0 00 00 80 3f 00 00 00 00 00 00 00 00 00 00 00 00
       1.0 0.0 0.0 0.0
0002d0 00 00 00 00 00 00 00 00 00 00 00 00 00 00 00 00
       0.0 0.0 0.0 0.0
0002e0 00 00 00 00 00 00 00 00 00 00 00 00 00 00 00 00
       0.0 0.0 0.0 0.0
0002f0 00 00 00 00 00 00 80 3f 00 00 00 00 00 00 00 00
       0.0 1.0 0.0 0.0
000300 00 00 00 00 00 00 00 00 00 00 80 3f 00 00 00 00
       0.0 0.0 1.0 0.0
000310 00 00 00 00 00 00 00 00 00 00 80 3f 00 00 80 3f
       0.0 0.0 1.0 1.0
000320 00 00 00 00 00 00 00 00 00 00 80 3f 00 00 00 00
       0.0 0.0 1.0 0.0
000330 00 00 00 00 00 00 00 00 00 00 00 00 00 00 00 00
       0.0 0.0 0.0 0.0
000340 00 00 00 00 00 00 00 00 00 00 00 00 00 00 00 00
       0.0 0.0 0.0 0.0
000350 00 00 00 00 00 00 00 00 00 00 00 00 00 00 00 00
       0.0 0.0 0.0 0.0
000360 00 00 00 00 00 00 00 00 00 00 00 00 00 00 80 3f
       0.0 0.0 0.0 1.0
000370 00 00 80 3f 00 00 80 3f 00 00 00 00 00 00 00 00
       1.0 1.0 0.0 0.0
000380 00 00 00 00 00 00 00 00 00 00 00 00 00 00 00 00
       0.0 0.0 0.0 0.0
000390 00 00 00 00 00 00 00 00 00 00 00 00 00 00 00 00
       0.0 0.0 0.0 0.0
0003a0 00 00 00 00 00 00 00 00 00 00 00 00 00 00 00 00
       0.0 0.0 0.0 0.0
0003b0 00 00 00 00 00 00 00 00 00 00 00 00 00 00 00 00
       0.0 0.0 0.0 0.0
0003c0 00 00 00 00 00 00 80 3f 00 00 80 3f 00 00 80 3f
       0.0 1.0 1.0 1.0
0003d0 00 00 00 00 00 00 00 00 00 00 00 00 00 00 00 00
       0.0 0.0 0.0 0.0
0003e0 00 00 00 00 00 00 00 00 00 00 00 00 00 00 00 00
       0.0 0.0 0.0 0.0
0003f0 00 00 00 00 00 00 00 00 00 00 00 00 00 00 00 00
       0.0 0.0 0.0 0.0

layer1.gcn.weight f4 [8, 3, 1, 1]
000000 c5 51 ce bc ac 92 aa be bb 91 04 3f 9e 8e a6 be
       -0.025185475 -0.33315027 0.5178487 -0.32530683
000010 7b df 13 bf 2c 75 d6 3d b8 1d 0a 3f 98 dc f3 be
       -0.5776288 0.104715675 0.539516 -0.47629237
000020 93 54 fd 3e fc 3e 53 be 87 0a 03 3e f7 f9 9e be
       0.49478588 -0.20629495 0.12796985 -0.31050083
000030 99 ff dd be 9b f2 26 be d1 4c 8f 3e ad d2 00 bd
       -0.43359068 -0.16303484 0.27988294 -0.031450916
000040 b6 65 44 bd fa 07 56 bf de eb 48 be c0 d7 ee 3e
       -0.04794856 -0.8360592 -0.19621226 0.4664898
000050 7b 53 1e bf 43 52 f3 be f8 26 d9 3e 11 74 d0 3e
       -0.6184613 -0.47523698 0.42412543 0.40713552

layer1.gcn.bias f4 [8]
000000 4a 5a 4a be 29 99 20 3f a1 7d 41 3e 9e 05 86 3c
       -0.19761005 0.62733704 0.1889558 0.0163601
000010 b1 48 4c 3f a1 a5 70 3e b5 6d 0d 3e ee 15 a5 3e
       0.7979842 0.23500682 0.13811381 0.32243294

layer1.tcn.weight f4 [8, 8, 3, 1]
000000 3b 6e 3b be 1d f0 ad bd 34 1b 19 3e 72 d9 46 be
       -0.18303768 -0.084930636 0.14951783 -0.19418886
000010 83 5b 7f 3d f9 a7 df 3d 0e d2 54 3e f6 35 da 3b
       0.06234313 0.1092071 0.20783255 0.0066592647
000020 50 f0 97 bd aa c4 93 bc 67 90 ea 3c 2e cf ec bb
       -0.07418883 -0.018038113 0.02863331 -0.007226846
000030 a9 3b 0b be e5 8c 7f bd f0 fd 18 be e0 52 c0 bc
       -0.13596977 -0.062390227 -0.1494062 -0.023477018
000040 09 82 79 3e aa 16 43 3e a7 05 38 3e 63 76 29 be
       0.2436601 0.19051614 0.17970906 -0.16549067
000050 ef 3f 48 3e 35 0f 02 3e 7c aa 23 be c2 59 72 be
       0.19555639 0.12701114 -0.15983003 -0.23667052
000060 83 8e 70 3c 89 a6 3b bd 4d 71 d1 bd fb 0a 74 3b
       0.014682415 -0.045813117 -0.102266885 0.003723799
000070 03 f4 3c be 1c d4 b9 bd 19 be 19 bd 03 44 1c be
       -0.18452458 -0.0907366 -0.037534807 -0.1526032
000080 66 17 3c 3e 9c 65 3b 3e 0c 8b e1 bd 0b 36 aa 3d
       0.18368301 0.1830048 -0.11012849 0.08311089
000090 57 67 9a be 8d cd 35 bd 08 14 6b be 90 27 0d 3e
       -0.30156967 -0.04438548 -0.2295686 0.13784623
0000a0 d3 e5 4a 3e f1 38 7d bd 80 e1 80 bd 34 8f 0c be
       0.19814233 -0.06182188 -0.06293011 -0.13726503
0000b0 36 8c f5 ba 8b 88 e8 bd 18 83 ce 3d 75 9c 26 be
       -0.0018733803 -0.113541685 0.10083598 -0.16270621
0000c0 3d 4a 1f 3e 0f df 9f 3d 24 7a b5 bc 59 d7 19 be
       0.15555663 0.07806217 -0.022152968 -0.15023555
0000d0 a3 23 fd 3d 60 54 b8 3d 35 7c 9a bd 20 6f a1 bd
       0.12360313 0.09000468 -0.07543222 -0.078825235
0000e0 67 6a 37 3c 1a 05 14 3e 8a c3 bf bd 14 32 45 3e
       0.011194802 0.14455071 -0.09363468 0.19257385
0000f0 c2 fa 64 3e b1 b9 4e 3e c7 5f c7 3d c5 4b cf 3e
       0.22361282 0.20188023 0.09735065 0.40487495
000100 b3 f7 c6 3e 00 2c 67 3e 97 d2 c9 3c a1 15 42 3e
       0.38860855 0.22575378 0.02463655 0.18953563
000110 0d c3 de bd dd 7c 01 be 12 62 25 3d 9e db 17 3e
       -0.10877047 -0.12645288 0.04037673 0.14829871
000120 43 84 f7 bd 88 8b 10 bd 78 34 52 3e 29 23 79 bd
       -0.12085774 -0.035289317 0.20527828 -0.060824547
000130 cf a8 b3 bc c0 8f 57 be 82 4b 01 bd 4f 73 e1 bd
       -0.02193108 -0.2105093 -0.03156615 -0.110083215
000140 2d 43 26 3e c0 7c e0 3d bf 03 c5 3c e1 b9 56 be
       0.16236563 0.10961294 0.024049638 -0.20969345
000150 0a 9e be 3c 2f c4 3d bd 5a 66 32 3e 1b a6 be bd
       0.023268718 -0.046329673 0.17421857 -0.09309026
000160 6c 42 03 be aa a5 a9 be cf ed 1b be 07 38 a7 bd
       -0.12818307 -0.33134204 -0.15227436 -0.08164983
000170 b5 16 90 3c 60 95 23 3d d1 65 38 3e 4a fb 95 3e
       0.017588953 0.039937377 0.1800759 0.2929328
000180 83 7b b9 3d 91 c2 0d 3d 37 32 18 3a 17 de 32 3d
       0.09056761 0.03460938 0.00058058224 0.043668833
000190 12 33 55 3e b4 50 d6 bd b0 92 2c be db 19 fc 3d
       0.20820263 -0.10464612 -0.16852832 0.12309619
0001a0 26 e2 e1 bd ea 74 23 3d 48 33 b4 bd fa db 06 3e
       -0.110294625 0.03990642 -0.087988436 0.13169852
0001b0 8f db 09 3d 4b d6 43 3d a7 12 f2 3d 12 10 ce 3e
       0.033656653 0.047811788 0.11819964 0.40246636
0001c0 bd ab cf 3e 60 42 e0 3e 9c 45 51 3e ed 11 76 3b
       0.40560713 0.4380064 0.2043671 0.0037547306
0001d0 d5 da c4 bd 39 5c 19 bd 7e a8 01 3e 65 79 8c 3d
       -0.096120514 -0.037441466 0.12661931 0.06859092
0001e0 b3 39 6a 3e 3c 00 1c 3e 0f a0 1e be d7 58 78 bd
       0.22873573 0.15234464 -0.15490745 -0.0606316
0001f0 00 b2 10 be 17 6a 69 be 39 08 d0 3d 0a 16 53 3e
       -0.14130402 -0.22794376 0.10157818 0.20613876
000200 da 8a 02 3e c6 b1 95 3d 1f ed 39 be 8c 90 94 3d
       0.1274828 0.07309298 -0.18156861 0.07254133
000210 8b ce 35 be f0 9a 14 bc 4b 21 e6 3d 5a af 5f be
       -0.17754571 -0.009070143 0.11236819 -0.21844235
000220 4f 03 8c 3c a4 9f 61 be af 8c 8a 3d 82 db 49 be
       0.017091421 -0.22033554 0.067651145 -0.19712642
000230 ba 9c 18 be 0c 9e 1c 3e cd df 0d bd 96 a2 ad bd
       -0.14903536 0.15294665 -0.03463726 -0.084782764
000240 40 07 fe 3c a7 5a 3a 3e f4 1e ae 3d b5 b1 8b 3c
       0.031009316 0.18198644 0.085019976 0.01705251
000250 1f 89 26 3e ed 7a 08 3d 97 8c 6d 3d 4a 87 24 be
       0.16263245 0.033320356 0.057995405 -0.16067234
000260 68 81 50 3d 27 ee f1 bd 4b 5c 2f 3e 71 10 cf bd
       0.05090466 -0.11813002 0.1712505 -0.10110558
000270 76 10 90 bd 80 aa 46 3e 48 b0 b9 bc 6e f3 86 be
       -0.0703439 0.19400978 -0.022667065 -0.26357597
000280 ba ff 20 be dd 7d 59 bd 9a 19 1a be 1c a8 16 ba
       -0.15722552 -0.05309855 -0.15048829 -0.0005747096
000290 06 7b 39 be 13 c7 aa 3d 4b bc d8 3c 19 15 2b 3e
       -0.18113336 0.08338752 0.026456973 0.16707267
0002a0 ca b5 99 be b9 ca a0 bd cb 85 aa bd e7 05 39 3d
       -0.30021507 -0.07851166 -0.083263 0.045171645
0002b0 0f 82 32 be 10 ad 34 3e 38 5c 40 be df 6f 32 3d
       -0.17432426 0.17644143 -0.18785179 0.04356372
0002c0 03 04 29 3e 0a f3 16 3e f5 7f 59 bb 2d 8a 2e be
       0.16505437 0.1474115 -0.003318784 -0.17044897
0002d0 5e 76 71 be 0c 6a ef bc e6 d6 1d 3e 04 1b bc bd
       -0.2358031 -0.029225372 0.15414008 -0.0918484
0002e0 9d 35 9c 3c 59 99 15 3c 31 cd 5c 3e 65 43 a1 3c
       0.019068534 0.009130799 0.2156265 0.019685457
0002f0 9f 05 3a 3e da d2 6c 3d 1c 3e 84 bc 8d f1 20 be
       0.18166207 0.05781827 -0.016142897 -0.15717144

layer1.tcn.bias f4 [8]
000000 c1 61 49 b8 c4 9d 80 b9 c1 c8 af 38 7a 9b 41 39
       -4.8013175e-05 -0.00024531607 8.3820436e-05 0.00018463834
000010 42 e9 18 39 a7 ca 99 39 79 de 44 3a 25 27 c5 39
       0.00014582745 0.00029333422 0.00075099576 0.00037603933

layer1.bn.weight f4 [8]
000000 7e 8f 27 3f 57 58 8a 3f fd 0c 9b 3f 01 02 80 3f
       0.65453327 1.0808209 1.2113339 1.0000612
000010 3a 69 65 3f 61 b4 73 3f c7 e1 7a 3f 21 43 56 3f
       0.8961369 0.9519711 0.9800076 0.8369618

layer1.bn.bias f4 [8]
000000 f7 c8 03 be dd f1 d6 be 96 04 0c be ba cf 24 be
       -0.12869631 -0.41981402 -0.13673624 -0.16094866
000010 7d 62 60 bd 28 8c 61 bd ba 56 2c be 66 d2 16 be
       -0.054781426 -0.055065304 -0.16829959 -0.14728698

layer1.bn.running_mean f4 [8]
000000 32 5b c5 3e b1 31 b0 3e fa ac 5c be f3 e0 6c 3c
       0.3854614 0.34412912 -0.2155036 0.014457929
000010 a7 71 a7 bd f6 ca 41 3e d5 cc 22 bf e4 5e 04 3f
       -0.08175974 0.1892508 -0.635938 0.5170729

layer1.bn.running_var f4 [8]
000000 b1 7e 17 3d 09 39 81 3d 6d 65 65 3d 2b 02 38 3d
       0.036986057 0.06309707 0.05600493 0.044923943
000010 05 e8 15 3d c5 9c 96 3d 5c f5 55 3d 85 17 5e 3d
       0.036598224 0.0735412 0.052235946 0.05422165

layer1.res.0.weight f4 [8, 3, 1, 1]
000000 3c 07 ea be ea 55 1f bf f2 cc 6a 3e 71 1a 55 3e
       -0.45708644 -0.6224047 0.22929743 0.20810868
000010 ed b9 85 be 24 83 65 be c3 f2 69 be 28 b7 0b 3f
       -0.26118413 -0.22413307 -0.22846512 0.5457635
000020 14 29 e8 be 1a fc 97 3d e4 b9 ad be 01 f6 12 3e
       -0.4534384 0.074211314 -0.33930886 0.14351656
000030 a3 61 d3 3e 2f e3 aa 3e fd b9 7c be 04 12 b8 bd
       0.41285428 0.33376452 -0.24680324 -0.08987811
000040 48 d7 a3 3e 75 55 b1 3e 12 f3 a9 3e cb 08 df 3d
       0.32000184 0.3463551 0.3319326 0.10890349
000050 b9 ce a7 be 37 db 55 3e ac 7d 54 bc a8 6f e4 be
       -0.32774904 0.20884405 -0.012969416 -0.44616437

layer1.res.0.bias f4 [8]
000000 46 dc e9 b9 55 b3 08 b8 27 65 25 ba 2f 01 92 ba
       -0.0004460534 -3.2591943e-05 -0.00063093234 -0.0011139269
000010 d5 d1 4d b9 1a 88 e2 39 53 fa 8c 39 c5 c8 37 ba
       -0.00019628492 0.00043207483 0.00026889387 -0.0007010813

layer1.res.1.weight f4 [8]
000000 fa 5e 91 3f 4b 7a 7c 3f 8e ab 31 3f a8 3e 83 3f
       1.135711 0.98624104 0.69402397 1.0253496
000010 4d c7 81 3f 7b 81 88 3f 70 a7 40 3f da 92 95 3f
       1.0138947 1.0664514 0.7525549 1.168544

layer1.res.1.bias f4 [8]
000000 b2 8c 1e be 1c 5a db be 93 76 b5 bd ba d9 9f be
       -0.15483359 -0.42842185 -0.08860507 -0.312208
000010 64 cf 8a bd b2 b2 bc bd 63 b8 0f be d7 57 f8 bd
       -0.06777838 -0.09213771 -0.14035182 -0.12126129

layer1.res.1.running_mean f4 [8]
000000 f2 1f 13 bf 07 25 51 3c 6e 92 eb 3d 2e 46 e7 bd
       -0.5747062 0.012765176 0.115025386 -0.112926826
000010 f3 ee d3 3e 25 36 b2 3d 2c 32 86 3e ea 9e 04 3e
       0.4139324 0.087017335 0.26210153 0.12951246

layer1.res.1.running_var f4 [8]
000000 46 b6 50 3d 05 1b 0f 3c e6 6f ed 3c eb 0e 28 3c
       0.05095508 0.008734469 0.028984021 0.010257463
000010 d4 a8 bf 3c 9a 0d 15 3c 73 11 21 3c a3 f6 6d 3b
       0.023395933 0.009097481 0.00983082 0.0036310337

layer2.A f4 [21, 21]
000000 00 00 80 3f 00 00 80 3f 00 00 00 00 00 00 00 00
       1.0 1.0 0.0 0.0
000010 00 00 00 00 00 00 80 3f 00 00 00 00 00 00 00 00
       0.0 1.0 0.0 0.0
000020 00 00 00 00 00 00 80 3f 00 00 00 00 00 00 00 00
       0.0 1.0 0.0 0.0
000030 00 00 00 00 00 00 80 3f 00 00 00 00 00 00 00 00
       0.0 1.0 0.0 0.0
000040 00 00 00 00 00 00 80 3f 00 00 00 00 00 00 00 00
       0.0 1.0 0.0 0.0
000050 00 00 00 00 00 00 80 3f 00 00 80 3f 00 00 80 3f
       0.0 1.0 1.0 1.0
000060 00 00 00 00 00 00 00 00 00 00 00 00 00 00 00 00
       0.0 0.0 0.0 0.0
000070 00 00 00 00 00 00 00 00 00 00 00 00 00 00 00 00
       0.0 0.0 0.0 0.0
000080 00 00 00 00 00 00 00 00 00 00 00 00 00 00 00 00
       0.0 0.0 0.0 0.0
000090 00 00 00 00 00 00 00 00 00 00 00 00 00 00 00 00
       0.0 0.0 0.0 0.0
0000a0 00 00 00 00 00 00 00 00 00 00 00 00 00 00 80 3f
       0.0 0.0 0.0 1.0
0000b0 00 00 80 3f 00 00 80 3f 00 00 00 00 00 00 00 00
       1.0 1.0 0.0 0.0
0000c0 00 00 00 00 00 00 00 00 00 00 00 00 00 00 00 00
       0.0 0.0 0.0 0.0
0000d0 00 00 00 00 00 00 00 00 00 00 00 00 00 00 00 00
       0.0 0.0 0.0 0.0
0000e0 00 00 00 00 00 00 00 00 00 00 00 00 00 00 00 00
       0.0 0.0 0.0 0.0
0000f0 00 00 00 00 00 00 00 00 00 00 00 00 00 00 00 00
       0.0 0.0 0.0 0.0
000100 00 00 00 00 00 00 80 3f 00 00 80 3f 00 00 80 3f
       0.0 1.0 1.0 1.0
000110 00 00 00 00 00 00 00 00 00 00 00 00 00 00 00 00
       0.0 0.0 0.0 0.0
000120 00 00 00 00 00 00 00 00 00 00 00 00 00 00 00 00
       0.0 0.0 0.0 0.0
000130 00 00 00 00 00 00 00 00 00 00 00 00 00 00 00 00
       0.0 0.0 0.0 0.0
000140 00 00 00 00 00 00 00 00 00 00 00 00 00 00 00 00
       0.0 0.0 0.0 0.0
000150 00 00 00 00 00 00 00 00 00 00 00 00 00 00 80 3f
       0.0 0.0 0.0 1.0
000160 00 00 80 3f 00 00 00 00 00 00 00 00 00 00 00 00
       1.0 0.0 0.0 0.0
000170 00 00 00 00 00 00 00 00 00 00 00 00 00 00 00 00
       0.0 0.0 0.0 0.0
000180 00 00 00 00 00 00 00 00 00 00 00 00 00 00 00 00
       0.0 0.0 0.0 0.0
000190 00 00 00 00 00 00 00 00 00 00 00 00 00 00 00 00
       0.0 0.0 0.0 0.0
0001a0 00 00 00 00 00 00 80 3f 00 00 00 00 00 00 00 00
       0.0 1.0 0.0 0.0
0001b0 00 00 00 00 00 00 00 00 00 00 80 3f 00 00 80 3f
       0.0 0.0 1.0 1.0
0001c0 00 00 00 00 00 00 00 00 00 00 80 3f 00 00 00 00
       0.0 0.0 1.0 0.0
0001d0 00 00 00 00 00 00 00 00 00 00 00 00 00 00 00 00
       0.0 0.0 0.0 0.0
0001e0 00 00 00 00 00 00 00 00 00 00 00 00 00 00 00 00
       0.0 0.0 0.0 0.0
0001f0 00 00 00 00 00 00 00 00 00 00 00 00 00 00 00 00
       0.0 0.0 0.0 0.0
000200 00 00 00 00 00 00 00 00 00 00 00 00 00 00 80 3f
       0.0 0.0 0.0 1.0
000210 00 00 80 3f 00 00 80 3f 00 00 00 00 00 00 00 00
       1.0 1.0 0.0 0.0
000220 00 00 00 00 00 00 00 00 00 00 00 00 00 00 00 00
       0.0 0.0 0.0 0.0
000230 00 00 00 00 00 00 00 00 00 00 00 00 00 00 00 00
       0.0 0.0 0.0 0.0
000240 00 00 00 00 00 00 00 00 00 00 00 00 00 00 00 00
       0.0 0.0 0.0 0.0
000250 00 00 00 00 00 00 00 00 00 00 00 00 00 00 00 00
       0.0 0.0 0.0 0.0
000260 00 00 00 00 00 00 80 3f 00 00 80 3f 00 00 80 3f
       0.0 1.0 1.0 1.0
000270 00 00 00 00 00 00 00 00 00 00 00 00 00 00 00 00
       0.0 0.0 0.0 0.0
000280 00 00 00 00 00 00 00 00 00 00 00 00 00 00 00 00
       0.0 0.0 0.0 0.0
000290 00 00 00 00 00 00 00 00 00 00 00 00 00 00 00 00
       0.0 0.0 0.0 0.0
0002a0 00 00 00 00 00 00 00 00 00 00 00 00 00 00 00 00
       0.0 0.0 0.0 0.0
0002b0 00 00 00 00 00 00 00 00 00 00 00 00 00 00 80 3f
       0.0 0.0 0.0 1.0
0002c0 00 00 80 3f 00 00 00 00 00 00 00 00 00 00 00 00
       1.0 0.0 0.0 0.0
0002d0 00 00 00 00 00 00 00 00 00 00 00 00 00 00 00 00
       0.0 0.0 0.0 0.0
0002e0 00 00 00 00 00 00 00 00 00 00 00 00 00 00 00 00
       0.0 0.0 0.0 0.0
0002f0 00 00 00 00 00 00 80 3f 00 00 00 00 00 00 00 00
       0.0 1.0 0.0 0.0
000300 00 00 00 00 00 00 00 00 00 00 80 3f 00 00 00 00
       0.0 0.0 1.0 0.0
000310 00 00 00 00 00 00 00 00 00 00 80 3f 00 00 80 3f
       0.0 0.0 1.0 1.0
000320 00 00 00 00 00 00 00 00 00 00 80 3f 00 00 00 00
       0.0 0.0 1.0 0.0
000330 00 00 00 00 00 00 00 00 00 00 00 00 00 00 00 00
       0.0 0.0 0.0 0.0
000340 00 00 00 00 00 00 00 00 00 00 00 00 00 00 00 00
       0.0 0.0 0.0 0.0
000350 00 00 00 00 00 00 00 00 00 00 00 00 00 00 00 00
       0.0 0.0 0.0 0.0
000360 00 00 00 00 00 00 00 00 00 00 00 00 00 00 80 3f
       0.0 0.0 0.0 1.0
000370 00 00 80 3f 00 00 80 3f 00 00 00 00 00 00 00 00
       1.0 1.0 0.0 0.0
000380 00 00 00 00 00 00 00 00 00 00 00 00 00 00 00 00
       0.0 0.0 0.0 0.0
000390 00 00 00 00 00 00 00 00 00 00 00 00 00 00 00 00
       0.0 0.0 0.0 0.0
0003a0 00 00 00 00 00 00 00 00 00 00 00 00 00 00 00 00
       0.0 0.0 0.0 0.0
0003b0 00 00 00 00 00 00 00 00 00 00 00 00 00 00 00 00
       0.0 0.0 0.0 0.0
0003c0 00 00 00 00 00 00 80 3f 00 00 80 3f 00 00 80 3f
       0.0 1.0 1.0 1.0
0003d0 00 00 00 00 00 00 00 00 00 00 00 00 00 00 00 00
       0.0 0.0 0.0 0.0
0003e0 00 00 00 00 00 00 00 00 00 00 00 00 00 00 00 00
       0.0 0.0 0.0 0.0
0003f0 00 00 00 00 00 00 00 00 00 00 00 00 00 00 00 00
       0.0 0.0 0.0 0.0

layer2.gcn.weight f4 [16, 8, 1, 1]
000000 99 b8 18 be d0 b1 99 3b 22 15 03 bd 79 08 98 3d
       -0.14914168 0.0046903864 -0.032002576 0.07423491
000010 0e 1b 39 be a7 e2 3b be 36 9f 97 be 5f 80 7c be
       -0.18076727 -0.1834818 -0.29613656 -0.24658345
000020 da 50 19 3e ec f5 1e 3e 34 08 ee bd 2b b1 cb be
       0.14972249 0.15523499 -0.11622658 -0.39783606
000030 d7 69 04 3d 20 6e 98 3e ba da 4b be 21 0d b5 be
       0.0323275 0.2977152 -0.19907656 -0.3536158
000040 86 8f 9f 3e c6 d8 85 3d 0f 59 00 3e 00 a1 37 3e
       0.31164187 0.06535487 0.12533973 0.1793251
000050 5c 1d d2 3d 91 c3 5e 3e 85 77 1e be 85 b0 c1 3d
       0.10259506 0.2175429 -0.1547528 0.094574966
000060 d0 bc 90 bd 67 a5 b0 bd 1b 30 2f 3e b2 66 c6 3e
       -0.07067263 -0.08625298 0.17108195 0.38750225
000070 a1 68 f6 3c 17 85 8e bd e5 46 a3 3d db 1a 31 3e
       0.030079188 -0.069589786 0.079725064 0.17295401
000080 ff 37 ee 3d d3 d5 b2 be d1 b8 8f be 8c c9 73 3e
       0.11631774 -0.3492876 -0.2807069 0.23807353
000090 f2 87 6a 3d 36 37 9f bd 86 68 4d 3d 37 43 f7 3d
       0.057258554 -0.077742025 0.05014851 0.12073367
0000a0 bc ce 48 3d e6 c9 7b 3e 0c 1f a4 bd 4f 62 7b 3e
       0.049025282 0.24588737 -0.08013734 0.2454922
0000b0 83 60 27 be af ff b1 be a7 33 71 3d bc ba 82 bc
       -0.1634541 -0.34765384 0.05888715 -0.015958183
0000c0 7a 2e 98 3d 0f 4e 6b be a3 88 6d be 8d 51 a6 3e
       0.0743074 -0.22978996 -0.23196654 0.32484093
0000d0 b6 70 d5 bd 8c fe 40 3e 8b 89 94 3e b6 2d a3 3e
       -0.104218885 0.18847102 0.29011187 0.31870812
0000e0 47 30 5e bd d7 5b 08 3f 39 53 8f 3e 87 31 85 be
       -0.05424526 0.53265136 0.2799318 -0.2601435
0000f0 9d fb a2 be 84 cf 13 3e 14 ad 23 be 27 46 2b 3e
       -0.3183259 0.1443463 -0.15983993 0.1672598
000100 8c 53 3e 3e c3 f0 c7 3d 4d a8 65 be f3 55 c9 be
       0.18586558 0.097627185 -0.22427483 -0.39323387
000110 5d da ac 3e 88 1d 29 3d a5 40 78 bd 39 aa c2 3d
       0.33760348 0.04128793 -0.060608525 0.09505124
000120 7d 9f 5b 3e 6b f5 f0 3d ba 43 5d be 28 13 bf 3e
       0.21447559 0.1176556 -0.21607867 0.37319303
000130 5c f9 a0 3e 08 ae 5a 3a 87 d8 2b 3e d4 cc 03 3e
       0.31440246 0.0008341973 0.16781817 0.12871104
000140 7e 76 76 3e e9 de a9 be f6 70 07 3e 3b d2 13 3e
       0.24068639 -0.3317788 0.13226685 0.14435665
000150 c8 2b cd 3c c0 0d 4c be 57 c3 8b 3e e3 90 b8 bc
       0.02504529 -0.1992712 0.2729747 -0.022530025
000160 cc 2c 31 3d 89 5f d5 3e 1b af 5e bd fb dc 32 be
       0.043255612 0.4167445 -0.054366212 -0.1746711
000170 49 ec 94 bb 84 5f d3 3c 70 ad fe bc 42 e4 84 be
       -0.004544769 0.025802381 -0.03108856 -0.25955397
000180 f0 32 f2 3d 12 f5 75 be 58 41 80 3e 5d df 8e be
       0.11826122 -0.24019268 0.25049853 -0.27904788
000190 99 fb 7b 3e 86 2c ff bd ec 71 7a bc 92 9e 99 bb
       0.24607696 -0.12459664 -0.01528595 -0.0046880925
0001a0 5c 72 b3 3d 76 99 96 3e ab 65 4c 3d 7d ca 1e bd
       0.08762047 0.29413956 0.049901646 -0.038767327
0001b0 df dd c5 3d 1e 80 88 be c0 0a 2f 3e 3c c6 cb bd
       0.09661459 -0.26660246 0.17093945 -0.099499196
0001c0 e7 a9 67 be c0 c0 4c be 00 75 e1 3d ff 31 80 3e
       -0.22623406 -0.19995403 0.11008644 0.25038144
0001d0 b7 3f a4 be 24 e7 4a bd 5e 9d 6a 3e 17 51 c5 3e
       -0.3207986 -0.04953684 0.22911593 0.3853843
0001e0 4c bb 31 be 35 a6 86 3e ce b5 d2 3c b6 c7 01 3f
       -0.17356604 0.2629868 0.025721457 0.5069536
0001f0 e9 6e 46 3e 1f a7 33 be ac cd f6 3d 6a db 0e 3d
       0.19378246 -0.1754422 0.120509475 0.03487722

layer2.gcn.bias f4 [16]
000000 88 9e 10 3f 64 ef 12 3d 27 05 46 be 92 76 26 be
       0.564919 0.035872832 -0.19337903 -0.16256168
000010 02 6d 62 3e 30 93 76 be 91 cb 80 3e c4 4f df be
       0.22111896 -0.24079585 0.2515531 -0.43615544
000020 c8 f7 22 be 04 e4 c2 be 13 18 ea bd 94 40 2f 3e
       -0.15914834 -0.38064587 -0.11430373 0.17114478
000030 8a 8d a0 bd dc fc 65 be 19 53 6f 3e 1a d5 43 be
       -0.078394964 -0.2245974 0.23371543 -0.1912426

layer2.tcn.weight f4 [16, 16, 3, 1]
000000 a1 0a 0d be a8 47 45 bb 9e 70 e0 bd b9 d5 62 bd
       -0.13773586 -0.0030102525 -0.1095898 -0.055379603
000010 03 06 cd ba 80 cd 80 3d 20 0c 2f bd 25 01 85 bc
       -0.001564205 0.06289196 -0.042736173 -0.016235897
000020 bb e2 a3 3d 4b 7b 49 bb c2 d3 c7 bd 77 26 ea bd
       0.0800223 -0.0030743654 -0.097571865 -0.11433118
000030 85 ae 02 3e 1f 40 62 bd 8d bf b7 3d 41 39 ea bd
       0.12761886 -0.055236932 0.08972082 -0.114367016
000040 a1 9d 7b be e2 24 de 3b 30 99 20 3e 71 9a e1 3d
       -0.2457185 0.006779299 0.15683436 0.110157855
000050 a3 a5 50 bd 02 6e 7e bd a6 7d 10 be 97 05 43 be
       -0.050939213 -0.06211663 -0.14110431 -0.19045101
000060 7e 71 91 3c e4 8a 57 bc af db 56 3d ff aa 36 3c
       0.017754313 -0.013155673 0.0524556 0.011149167
000070 92 93 7c 3c 33 4a 6c 3d f4 1f a1 39 b0 71 00 3e
       0.015416043 0.05768795 0.0003073212 0.12543368
000080 40 92 9b bd 29 56 3c bc 11 bf e2 bd 56 04 1b be
       -0.07596254 -0.011495152 -0.11071599 -0.15138373
000090 a6 1d ac 3d 74 3d 8c 3d 47 bf de bc 58 cd 0a be
       0.084040925 0.06847659 -0.027190818 -0.13554895
0000a0 43 e6 04 be 34 02 01 3d 5d 22 f5 bd 89 6e 0b 3d
       -0.12978463 0.03149624 -0.11969445 0.03404096
0000b0 8e f8 08 3e dc 98 52 bd 01 ee e2 bc 33 db 19 be
       0.13376066 -0.05141531 -0.02770138 -0.15025024
0000c0 13 9a 24 b9 71 16 c3 bd dd ad cf 3b 9d f0 98 3d
       -0.00015697656 -0.09525765 0.006337865 0.07467768
0000d0 39 8a 35 3d 4c c2 a2 bd d2 2d 40 3e 25 58 a6 3c
       0.044321273 -0.079472154 0.18767479 0.020305702
0000e0 a9 e0 e9 3d 82 e3 9f 3d 00 e4 37 bd 9a 52 03 3e
       0.11419804 0.078070655 -0.044895172 0.12824479
0000f0 22 3f 08 be d4 1b 15 be cf f1 f4 bd 6e 6e 05 ba
       -0.13305333 -0.14561397 -0.11960184 -0.00050900027
000100 24 cd 5a bc 38 12 81 bd af b6 f3 bd 33 22 c2 bd
       -0.013354573 -0.06302303 -0.119000785 -0.09479179
000110 76 8b 19 3c bb 66 6b 3e a6 da 2e 3e 18 b9 7e 3e
       0.009371629 0.22988407 0.17075595 0.24875295
000120 b3 77 a3 bc b0 d5 ce bd 72 f3 7a 3d c7 b6 95 bd
       -0.019954538 -0.100993514 0.061267324 -0.07310253
000130 d9 3a a7 3b 39 a4 d6 bd 3f ef d9 3d 29 e9 51 3d
       0.0051034507 -0.10480542 0.10641336 0.05124775
000140 71 4e 22 3e 07 b3 e0 bc 65 29 72 bc 25 e2 d2 3d
       0.15850236 -0.027429117 -0.014780377 0.1029704
000150 92 e4 81 bd 32 82 25 3e b9 8d 76 bd b1 2b cb 3d
       -0.063424245 0.16162947 -0.06019375 0.09920443
000160 19 6e 08 bd 94 c0 89 3d 4f 94 ef 3d 25 d8 b8 3d
       -0.033308122 0.067261845 0.116982095 0.09025601
000170 de 78 d1 bd 0c b6 2d 3d 7e 3a cb 3d 4c 8e c9 3d
       -0.10228132 0.04240994 0.09923266 0.09841594
000180 dc 1d 0a be c3 2e 06 3d 3e b6 f0 bd 2e 42 38 3c
       -0.13487953 0.03275944 -0.1175351 0.011246247
000190 a8 f0 0a 3e 78 e9 6f 3d 8d 1e 54 3c 3f bc 08 bc
       0.13568366 0.058572263 0.012946737 -0.008345663
0001a0 b9 18 d9 3d 9a 8e e9 3a f1 e3 0e be 5e 80 3a 3b
       0.106004186 0.0017818988 -0.1395414 0.002845786
0001b0 2d 79 52 bd 08 81 bf bd 88 26 e9 bd 75 d5 96 bb
       -0.051385093 -0.09350783 -0.113843024 -0.004603083
0001c0 44 fa be bd ef 46 ce 3d 51 f8 38 be 0a f4 bc bd
       -0.09325078 0.10072123 -0.18063475 -0.09226234
0001d0 cf 75 d4 bd a4 72 e0 3d af 3d ee 3c 45 78 0c 3e
       -0.10374033 0.10959366 0.029082147 0.13717754
0001e0 62 85 c4 3c 8f c4 cc 3d 04 a7 f8 3d 41 1b b1 bd
       0.023989383 0.09998428 0.12141231 -0.086477764
0001f0 23 ad 23 3d ea b3 ba bd 19 d9 84 bc 9b f8 b2 bd
       0.039960038 -0.09116347 -0.016216801 -0.08738824
000200 12 fe 17 bc 61 e2 0d 3e e4 f6 0c bc d5 88 0b bc
       -0.009276884 0.13855888 -0.008603785 -0.00851651
000210 f7 3a 35 bd c2 1b 01 3e b1 51 e4 3c a2 7e 5e 3c
       -0.044245686 0.12608245 0.027870985 0.013579996
000220 17 68 2a 3e d8 61 b3 3a de c7 87 be f9 c8 91 3d
       0.1664127 0.0013685776 -0.26519674 0.071184106
000230 84 6a 95 be ab dc 1d be bd ab 89 bd ac 13 38 3b
       -0.29182827 -0.1541621 -0.067222096 0.0028087897
000240 21 ba 43 3d 44 3c 8b 3d 2b e1 3c 3c 3c 92 dc 3d
       0.04778493 0.06798604 0.011528294 0.107700795
000250 da b1 07 ba 0f 9c 9f 3d 24 f6 57 3c 80 57 e8 bd
       -0.0005176343 0.07793438 0.013181243 -0.11344814
000260 66 17 5b 3d 1e 80 ec bd d7 1b 9f bd 42 0c 63 bd
       0.05348911 -0.11547874 -0.07768982 -0.05543161
000270 1d af 3d bb 2e 6e 7a bd 05 f9 15 3c 9f a1 52 be
       -0.0028943487 -0.06114023 0.009153609 -0.20569466
000280 02 7f b2 bc 97 d8 06 bd ff 93 6c 3d c0 15 93 3d
       -0.021789078 -0.0329214 0.057758328 0.07181883
000290 c2 a1 b8 bb a2 b9 9a 3d aa f2 cf 3d ea 2e ae bb
       -0.0056345174 0.07554938 0.10153706 -0.005315651
0002a0 56 c8 e2 3a 2c cd 8a bb e0 70 70 3a 24 1e 23 be
       0.0017302136 -0.004235884 0.0009172093 -0.15929466
0002b0 03 c0 b9 bc ba 67 0f be 60 90 0f 3e 2e db 38 bd
       -0.022674566 -0.14004412 0.14019918 -0.0451309
0002c0 db 9b b7 b9 98 ef d8 3c b8 1a 63 bd d8 1a 28 bd
       -0.000350206 0.026481435 -0.055445403 -0.041041225
0002d0 f2 b2 c4 3c fe fe 01 3e 31 de 23 bc 5f 8a f3 bd
       0.024011109 0.12694928 -0.010001705 -0.118916266
0002e0 bd 49 11 be 3c 3a e6 bb 18 f7 36 3d b6 3e 53 3d
       -0.14188285 -0.007025985 0.04466924 0.051573478
0002f0 12 a8 89 3d 55 69 4f be 24 14 87 be 5a b3 85 be
       0.0672151 -0.20255025 -0.26382554 -0.26113397
000300 49 6f ff 3d 37 0b c9 3c 6c ee 35 bd f8 f5 a0 bd
       0.12472398 0.02454148 -0.04441683 -0.07859415
000310 42 1a 01 bd 58 cf 14 be de 63 eb 3c 95 08 86 39
       -0.031519182 -0.1453222 0.028734144 0.00025564866
000320 cc 43 4d 3d 9f e6 97 bc c2 83 a1 3d 99 ca e5 3d
       0.050113484 -0.018542586 0.07886459 0.11220283
000330 be 69 f7 3b c1 22 37 3e d2 3a c4 3d e4 aa bd 3d
       0.0075504472 0.17884351 0.095815316 0.092611104
000340 65 bf c3 3c 9b 72 92 3d fb 1b 31 3d 0c 47 56 3d
       0.023894975 0.071507655 0.043239575 0.05231385
000350 4e b8 c3 bc 0d 9b ab 3c 7e 38 2a 3e 0b 70 3b 3d
       -0.023891594 0.020947957 0.16623113 0.04576115
000360 f9 f8 55 bd cd 8f b4 bd 30 3b 17 3d 5c 48 b2 3c
       -0.052239392 -0.0881649 0.03692168 0.02176302
000370 6c 1e 41 3d 26 ee 1a 3d 6f 11 92 bb 66 f4 02 3e
       0.047148153 0.037824772 -0.0044576447 0.12788543
000380 aa fd 2f 3d 47 14 e7 bd 2c 1f 4f 3d 5f 3e 94 3d
       0.042966522 -0.112831645 0.050566837 0.07238459
000390 e2 8c 29 be fb 96 1c be 37 ad 33 be d9 28 8d bc
       -0.16557649 -0.1529197 -0.17546545 -0.017231392
0003a0 62 87 13 3d ff b6 83 3c 1c d6 d7 3d 7f a6 8a 3d
       0.036017783 0.01607847 0.10538885 0.06770038
0003b0 ac a0 1b 3e a8 ae f2 3d ca b5 4b 3e 0c d5 b0 3d
       0.1519801 0.11849719 0.19893566 0.086343855
0003c0 9f e3 b5 3c 8e f8 80 3c 6a 83 f5 bd ed b9 03 3e
       0.022203265 0.01574352 -0.11987956 0.12863894
0003d0 e4 38 92 bd c0 af 7a 3d 0c f5 14 ba c2 d2 d4 3d
       -0.07139757 0.061202765 -0.0005682267 0.10391761
0003e0 bf 45 00 3d 24 47 eb bc 7e c4 8e bd 77 d8 1e be
       0.031316515 -0.028720446 -0.06971072 -0.15512262
0003f0 e1 08 6a be d5 e7 25 be 76 98 1f be e5 62 26 bc
       -0.2285495 -0.16201718 -0.15585503 -0.010155414

layer2.tcn.bias f4 [16]
000000 01 ac 98 38 b6 d7 a5 38 ea 96 21 39 e5 76 ac 39
       7.279963e-05 7.9079924e-05 0.00015410376 0.0003289498
000010 cf 98 83 38 cd 34 b8 38 40 65 00 b9 94 b3 71 b3
       6.2750296e-05 8.7836386e-05 -0.0001224475 -5.627551e-08
000020 3b f5 f5 38 78 8f 47 37 dc 70 9d b8 f0 cd ef b7
       0.00011728188 1.1894728e-05 -7.507365e-05 -2.8586917e-05
000030 62 e9 46 38 6d 31 8c 38 b6 9e d3 b8 7b 28 52 b9
       4.7424233e-05 6.6849265e-05 -0.00010090826 -0.00020042241

layer2.bn.weight f4 [16]
000000 1d 06 c2 3f 82 96 d9 3f 83 e3 e1 3f 19 15 d3 3f
       1.5158116 1.6999056 1.7647556 1.6490813
000010 d7 68 be 3f f4 3e d3 3f fc bd da 3f 06 92 ab 3f
       1.4875745 1.6503587 1.7089229 1.3403938
000020 56 f8 d2 3f d9 b3 ba 3f d6 a8 dd 3f 3d 48 c9 3f
       1.6482036 1.4586135 1.731715 1.572517
000030 e2 bd fd 3f 3e ac bf 3f c5 54 c8 3f 51 a4 d9 3f
       1.9823573 1.4974439 1.565087 1.700327

layer2.bn.bias f4 [16]
000000 72 9f 3b 3e 19 86 d4 3d b5 39 3a 3e df de 64 3e
       0.18322542 0.103771396 0.18186076 0.22350644
000010 8f e0 50 3e bd 0a 2b 3e eb b8 47 3e e3 c8 84 3d
       0.20398162 0.16703315 0.19504134 0.064836286
000020 65 70 30 3e b6 b0 02 3e 4e 1c c4 3d 69 cd 4a 3e
       0.17230375 0.12762722 0.09575711 0.1980492
000030 53 37 77 3e 9d fb 8f 3e 82 60 62 3e 54 21 1f 3e
       0.24142198 0.28121653 0.22107127 0.15540057

layer2.bn.running_mean f4 [16]
000000 c1 ac bd 3e 2b f1 f2 3e d0 c5 57 be 96 7c 4d be
       0.37045863 0.47449622 -0.21071553 -0.20067057
000010 f6 66 1f 3e 9d 3a a1 bd 17 c3 d4 3d 07 ba 9d 3e
       0.1556662 -0.07872508 0.10388773 0.3080599
000020 ef 5c 29 3f be 7d 2c 3e 32 75 ba 3e c8 ed 6a 3e
       0.6615743 0.16844842 0.36417538 0.22942269
000030 03 1a 26 bd ed ee 2a bd c2 da 94 3e c0 ed 2f 3f
       -0.04055215 -0.041731764 0.2907315 0.6872215

layer2.bn.running_var f4 [16]
000000 6d bd 9e 3e 12 fb 25 3f 4e 52 0b 3f 17 08 87 3e
       0.31003895 0.6483623 0.5442246 0.2637336
000010 b7 30 b8 3e 9b 9d e8 3e df 8e 09 3f 03 00 a6 3e
       0.35974666 0.45432743 0.5373363 0.32421884
000020 c1 9f cf 3e 69 0a 48 3e 17 fc 1e 3f c9 73 9a 3e
       0.4055157 0.19535221 0.6210341 0.30166462
000030 7f 84 1e 3f 9b bf c3 3e 89 70 bf 3e ce 92 14 3f
       0.61920923 0.3823212 0.37390545 0.58036506

layer2.res.0.weight f4 [16, 8, 1, 1]
000000 50 b5 56 3e 5d 4e 0f be d4 e9 61 bc 1e 15 17 3e
       0.20967603 -0.13994737 -0.013788659 0.1475415
000010 df d2 8a 3d 37 16 ce bd ed 5f 31 be 68 90 07 3f
       0.06778502 -0.10062831 -0.17321749 0.5295472
000020 78 16 32 3e 91 5c b0 bc 54 a6 d3 3e 61 53 ea 3d
       0.17391384 -0.021528514 0.41337836 0.114416845
000030 14 1a 98 3c c1 98 d2 bc ea f5 3d be 0b 50 23 bc
       0.018567123 -0.025707604 -0.1855084 -0.009967814
000040 7d e7 6b 3e 75 0e b6 3e 7b fe 4a bd 87 08 8e be
       0.23037525 0.35557905 -0.049559098 -0.2774088
000050 93 5c 17 3d 1a 3c 85 bc 46 30 6b bc c4 d7 e5 bd
       0.03695352 -0.01626401 -0.014354771 -0.11222795
000060 8b ed 04 3e 46 7f f7 bd 79 fc 33 bd 67 94 f2 be
       0.1298124 -0.12084822 -0.04394195 -0.47378847
000070 52 a1 be bc 47 93 aa 3e 0a 0a 1c 3d a4 af b6 3d
       -0.023270283 0.3331549 0.03809551 0.089202195
000080 1c d2 12 bd 2f a9 f4 3d 58 61 40 be 4c 76 91 3e
       -0.035844907 0.11946332 -0.18787134 0.28410566
000090 fe 86 f1 be 46 1f e1 bc c0 bd c3 3e 1c 19 d2 bd
       -0.47173303 -0.027480733 0.38230705 -0.102586955
0000a0 73 c8 40 3e 42 8d b9 3e 77 36 60 bd 7a 90 40 be
       0.18826465 0.36240584 -0.05473944 -0.18805113
0000b0 e1 79 17 3e e8 0f 46 3c 47 2c 8d bd a6 c4 b7 bd
       0.14792587 0.012088753 -0.06893211 -0.089730546
0000c0 ad ad 02 3e ea 52 e0 3e 6d 89 55 3d bc 3c c4 3d
       0.12761565 0.43813258 0.052133013 0.09581897
0000d0 cf b3 7c 3e a0 a5 72 3e 20 fe 5c be cd cd 7f bd
       0.24677967 0.23695993 -0.21581316 -0.062452126
0000e0 1f 2f 84 3c b1 c7 92 bd cd 8e cc bd 96 c2 08 3f
       0.01613575 -0.07166994 -0.099881746 0.53421915
0000f0 55 26 3d bd 96 6b 12 3b 24 09 0e 3e 32 5c 69 3d
       -0.046179134 0.0022341958 0.13870674 0.05697269
000100 ab cc ac 3e 16 b4 4e bd d5 69 80 bd 7b c6 dc 3d
       0.337499 -0.050464712 -0.06270186 0.10780045
000110 58 df 45 3e 50 17 79 3c 48 1a e8 bd 09 2f 0e 3e
       0.1932348 0.015203312 -0.11333138 0.1388513
000120 54 07 46 3d a4 77 90 3d a8 26 f3 bb 77 73 a4 3e
       0.048346832 0.0705407 -0.0074203797 0.32119343
000130 dd a9 fc 3c bd 1d e1 bd 11 6e cd 3d 13 b0 39 3e
       0.030842716 -0.10992 0.10030759 0.18133573
000140 8f ff c3 3d 58 94 c7 bc f1 14 b3 3e 72 04 fd 3d
       0.09570228 -0.024362728 0.34976915 0.123543635
000150 21 02 3a bc 75 de 0d 3c cb 83 20 be 1d 1a 9f bc
       -0.011353047 0.008658995 -0.15675275 -0.019421631
000160 b3 41 4a 3e aa 01 38 3e ff db a3 bd 41 2a a1 3d
       0.19751625 0.17969385 -0.08000945 0.078693874
000170 f9 4b c1 3d 2a b9 29 be 2b 48 02 3e c6 78 15 3e
       0.09438319 -0.1657454 0.12722842 0.14596853
000180 79 40 da 3e eb 7e a5 3e 09 9d 10 bd 0d 0b ee bd
       0.42627314 0.32323393 -0.03530601 -0.116232015
000190 4f 31 33 3e 9a 7f ae 3e 4a 46 e5 3d f5 54 ae 3b
       0.17499278 0.34081727 0.11195047 0.0053201863
0001a0 3f 2b ce bd d4 6c 3f 3e a3 bc 71 bd 8a e1 97 3e
       -0.10066842 0.18693858 -0.05901779 0.2966426
0001b0 6e 79 15 be 34 1b 1c be df 36 eb 3d ff 87 84 3d
       -0.14597103 -0.15244752 0.11485075 0.06471252
0001c0 81 0f a0 3e 2a e7 dc 3c 67 7f 40 bd 0b 13 0b 3e
       0.3126183 0.026965696 -0.0469965 0.13581483
0001d0 81 01 12 3e 09 1a 91 be 65 77 48 be 5c 47 03 3f
       0.14258386 -0.28340176 -0.19576795 0.5128076
0001e0 fc 94 9d 3e 49 96 dc be bd ab 85 bd 55 c8 cb bd
       0.3077773 -0.43083408 -0.06526897 -0.0995032
0001f0 33 5f bf 3d 8d b2 5b 3e 55 c7 80 bd 49 67 94 3d
       0.0934433 0.2145483 -0.062880196 0.072462626

layer2.res.0.bias f4 [16]
000000 da 09 9e 39 7d 74 e8 b8 03 4c b6 38 95 25 22 39
       0.00030143448 -0.0001108432 8.6925946e-05 0.00015463524
000010 ca 16 8b 38 d9 13 54 39 12 e7 b9 39 08 9e fb b8
       6.632281e-05 0.0002022529 0.0003545811 -0.00011998048
000020 d4 54 64 39 ed c5 5a 38 8d 91 5f b9 3f 3b ef b7
       0.00021775375 5.2159583e-05 -0.00021321159 -2.8518609e-05
000030 b8 70 0b 38 7a ad f7 b8 ca 66 9c 38 1f ee 18 38
       3.324516e-05 -0.0001181019 7.4578056e-05 3.646139e-05

layer2.res.1.weight f4 [16]
000000 88 06 a7 3f 0c d7 c0 3f 42 ff a6 3f 63 9f b3 3f
       1.3048868 1.5065627 1.3046649 1.4033016
000010 d8 2e 99 3f af c4 ad 3f e8 76 9f 3f 52 51 88 3f
       1.196742 1.3575648 1.2458162 1.0649817
000020 39 41 a4 3f 89 2a 9e 3f b4 24 b0 3f 28 ee 99 3f
       1.2832404 1.2356731 1.3761201 1.2025805
000030 24 2f 8e 3f c5 06 b4 3f d0 84 b2 3f 8b 1f 9f 3f
       1.1108136 1.4064566 1.3946781 1.2431501

layer2.res.1.bias f4 [16]
000000 ec 20 35 3e 62 b8 d4 3d 03 08 2c 3e 7f 76 57 3e
       0.1768834 0.10386731 0.16799931 0.21041296
000010 1a a4 40 3e 93 c1 22 3e f7 2b 38 3e 00 3b 5a 3d
       0.188126 0.15894155 0.17985521 0.053278923
000020 69 1e 2a 3e 42 2d ed 3d b7 19 ca 3d 8a b2 3e 3e
       0.16613163 0.11580898 0.09868186 0.18622795
000030 90 6c 5d 3e bc 75 88 3e 25 f9 56 3e f3 0c 15 3e
       0.21623445 0.26652324 0.20993479 0.14555721

layer2.res.1.running_mean f4 [16]
000000 68 cb 52 3e 31 2e 6b 3e 2c 3c 97 3d 07 2f a6 3d
       0.20585406 0.2296684 0.07384524 0.081144385
000010 e1 02 3c be 23 71 f4 3d 75 66 95 3e c5 d0 47 3d
       -0.18360473 0.119356416 0.2917973 0.048783083
000020 66 77 4e 3e 02 6d 1b 3e ce 01 2f 3e 52 75 2b 3e
       0.20162734 0.15178302 0.17090532 0.16743973
000030 d6 7c dc 3e c1 a8 17 bd ae 1d 65 3e db 85 a2 3d
       0.43063992 -0.03702617 0.22374603 0.07935687

layer2.res.1.running_var f4 [16]
000000 4e 2c 96 3d 14 55 1a 3e b9 21 81 3d b5 66 7c 3d
       0.07332669 0.15071517 0.0630526 0.061621387
000010 72 a5 56 3e bd 6c 40 3d 73 11 a7 3d 8c 56 03 3d
       0.2096155 0.0469787 0.08157625 0.03206496
000020 00 eb 20 3d 6a 41 88 3c 0f 91 d9 3d 0e 6d 1e 3d
       0.039286613 0.016632754 0.10623371 0.03867822
000030 94 98 df 3d e4 86 11 3d 58 5c bf 3d fe bc 64 3d
       0.10917774 0.035529032 0.09343785 0.0558443

fc.weight f4 [5, 16]
000000 e4 6b b7 3e 61 ad f7 be 2e 7d 8e 3e 3d 1e 89 3e
       0.35824502 -0.48374465 0.2782988 0.26780882
000010 17 59 a7 be 2b 6b 49 3e 4d a8 17 be 9e 7f db be
       -0.32685158 0.19669788 -0.14810295 -0.42870802
000020 3e e6 cf 3d 82 53 f2 be 18 76 0b bf 3c f4 a2 be
       0.10151337 -0.47329336 -0.5447707 -0.3182696
000030 9d 4c ff 3b 72 7c 1e be 48 b0 c0 3d 80 5a aa 3e
       0.0077911154 -0.1547716 0.09408623 0.3327217
000040 f6 26 24 be ba a9 12 3f 23 1a 50 3d d4 19 0e 3f
       -0.16030487 0.5729023 0.050806176 0.5550816
000050 73 a8 1c bf 3d 73 07 be e5 98 c4 3e 70 8f 27 be
       -0.61194533 -0.13227554 0.383979 -0.16363311
000060 7f d9 94 be 0c db 3f be 52 65 1d 3f c2 df 02 bf
       -0.29072186 -0.18735904 0.6148273 -0.5112268
000070 1c aa 2a 3e 17 f1 21 bf 7a 90 fe be 90 ce 05 3d
       0.16666454 -0.632585 -0.49719602 0.032667696
000080 a4 98 93 be de e1 a3 bc f3 ba 2a bf 27 99 2b bf
       -0.28827393 -0.020005163 -0.6669151 -0.67030567
000090 69 49 ab 3e e6 c1 a2 be 19 5c 99 3e 13 f1 8e 3e
       0.33454445 -0.31788558 0.29953077 0.279183
0000a0 47 bb 1d be 88 99 88 3e 4f 3c 63 3e bb 82 8d 3e
       -0.15403472 0.26679635 0.22190975 0.27638802
0000b0 e9 18 4e be 7c e8 97 3e c4 3f d8 3d 92 d9 1e bf
       -0.2012669 0.2966956 0.10559037 -0.62050736
0000c0 ad 0e eb be b6 44 01 bf 8e 97 b2 3e d9 b6 a9 be
       -0.45909634 -0.5049547 0.34881252 -0.33147314
0000d0 9b b9 c1 3d bf 3b 12 3f 48 ce 1b 3e 61 51 f1 3d
       0.094592296 0.57122415 0.15215409 0.117831
0000e0 b0 ee 49 be 8e 7a 17 3e e3 da c9 be 07 b7 c8 bd
       -0.19719958 0.14792845 -0.3942481 -0.09800535
0000f0 04 0e d8 3e 52 fb 40 3d c1 13 09 bf cf 34 33 3e
       0.42198193 0.047114678 -0.5354577 0.17500614
000100 f2 22 9c 3e 9f ab 53 bd bb 76 1d bf 7a 63 ac be
       0.3049541 -0.051677343 -0.61509293 -0.33669645
000110 71 90 39 be e7 b6 42 bf c9 26 26 bf f9 a7 22 3e
       -0.18121506 -0.76060337 -0.6490293 0.15884389
000120 d9 17 f8 3e 7d 54 d7 3e b7 a4 52 3e 1d 73 b7 3e
       0.48455694 0.42056647 0.20570646 0.35830012
000130 4c c4 59 bf 6c cf f4 bd d9 76 cc 3e 91 30 f2 3e
       -0.8506515 -0.11953625 0.39934424 0.47302678

fc.bias f4 [5]
000000 e8 e4 6b 3e cb 31 6b bd a4 b6 83 bb 84 d6 a1 3d
       0.2303654 -0.057420533 -0.004019575 0.07902244
000010 d7 02 3b be
       -0.18262802
