best_models_stgcn/best_model_0.6952_nodropout.pth (torch, 21674 bytes, 32 tensors)

layer1.A f4 [21, 21]
00000000: 0000 803f 0000 803f 0000 0000 0000 0000
00000010: 0000 0000 0000 803f 0000 0000 0000 0000
00000020: 0000 0000 0000 803f 0000 0000 0000 0000
00000030: 0000 0000 0000 803f 0000 0000 0000 0000
00000040: 0000 0000 0000 803f 0000 0000 0000 0000
00000050: 0000 0000 0000 803f 0000 803f 0000 803f
00000060: 0000 0000 0000 0000 0000 0000 0000 0000
00000070: 0000 0000 0000 0000 0000 0000 0000 0000
00000080: 0000 0000 0000 0000 0000 0000 0000 0000
00000090: 0000 0000 0000 0000 0000 0000 0000 0000
000000a0: 0000 0000 0000 0000 0000 0000 0000 803f
000000b0: 0000 803f 0000 803f 0000 0000 0000 0000
000000c0: 0000 0000 0000 0000 0000 0000 0000 0000
000000d0: 0000 0000 0000 0000 0000 0000 0000 0000
000000e0: 0000 0000 0000 0000 0000 0000 0000 0000
000000f0: 0000 0000 0000 0000 0000 0000 0000 0000
00000100: 0000 0000 0000 803f 0000 803f 0000 803f
00000110: 0000 0000 0000 0000 0000 0000 0000 0000
00000120: 0000 0000 0000 0000 0000 0000 0000 0000
00000130: 0000 0000 0000 0000 0000 0000 0000 0000
00000140: 0000 0000 0000 0000 0000 0000 0000 0000
00000150: 0000 0000 0000 0000 0000 0000 0000 803f
00000160: 0000 803f 0000 0000 0000 0000 0000 0000
00000170: 0000 0000 0000 0000 0000 0000 0000 0000
00000180: 0000 0000 0000 0000 0000 0000 0000 0000
00000190: 0000 0000 0000 0000 0000 0000 0000 0000
000001a0: 0000 0000 0000 803f 0000 0000 0000 0000
000001b0: 0000 0000 0000 0000 0000 803f 0000 803f
000001c0: 0000 0000 0000 0000 0000 803f 0000 0000
000001d0: 0000 0000 0000 0000 0000 0000 0000 0000
000001e0: 0000 0000 0000 0000 0000 0000 0000 0000
000001f0: 0000 0000 0000 0000 0000 0000 0000 0000
00000200: 0000 0000 0000 0000 0000 0000 0000 803f
00000210: 0000 803f 0000 803f 0000 0000 0000 0000
00000220: 0000 0000 0000 0000 0000 0000 0000 0000
00000230: 0000 0000 0000 0000 0000 0000 0000 0000
00000240: 0000 0000 0000 0000 0000 0000 0000 0000
00000250: 0000 0000 0000 0000 0000 0000 0000 0000
00000260: 0000 0000 0000 803f 0000 803f 0000 803f
00000270: 0000 0000 0000 0000 0000 0000 0000 0000
00000280: 0000 0000 0000 0000 0000 0000 0000 0000
00000290: 0000 0000 0000 0000 0000 0000 0000 0000
000002a0: 0000 0000 0000 0000 0000 0000 0000 0000
000002b0: 0000 0000 0000 0000 0000 0000 0000 803f
000002c0: 0000 803f 0000 0000 0000 0000 0000 0000
000002d0: 0000 0000 0000 0000 0000 0000 0000 0000
000002e0: 0000 0000 0000 0000 0000 0000 0000 0000
000002f0: 0000 0000 0000 803f 0000 0000 0000 0000
00000300: 0000 0000 0000 0000 0000 803f 0000 0000
00000310: 0000 0000 0000 0000 0000 803f 0000 803f
00000320: 0000 0000 0000 0000 0000 803f 0000 0000
00000330: 0000 0000 0000 0000 0000 0000 0000 0000
00000340: 0000 0000 0000 0000 0000 0000 0000 0000
00000350: 0000 0000 0000 0000 0000 0000 0000 0000
00000360: 0000 0000 0000 0000 0000 0000 0000 803f
00000370: 0000 803f 0000 803f 0000 0000 0000 0000
00000380: 0000 0000 0000 0000 0000 0000 0000 0000
00000390: 0000 0000 0000 0000 0000 0000 0000 0000
000003a0: 0000 0000 0000 0000 0000 0000 0000 0000
000003b0: 0000 0000 0000 0000 0000 0000 0000 0000
000003c0: 0000 0000 0000 803f 0000 803f 0000 803f
000003d0: 0000 0000 0000 0000 0000 0000 0000 0000
000003e0: 0000 0000 0000 0000 0000 0000 0000 0000
000003f0: 0000 0000 0000 0000 0000 0000 0000 0000
1.0 1.0 0.0 0.0 0.0 1.0 0.0 0.0
0.0 1.0 0.0 0.0 0.0 1.0 0.0 0.0
0.0 1.0 0.0 0.0 0.0 1.0 1.0 1.0
0.0 0.0 0.0 0.0 0.0 0.0 0.0 0.0
0.0 0.0 0.0 0.0 0.0 0.0 0.0 0.0
0.0 0.0 0.0 1.0 1.0 1.0 0.0 0.0
0.0 0.0 0.0 0.0 0.0 0.0 0.0 0.0
0.0 0.0 0.0 0.0 0.0 0.0 0.0 0.0
0.0 1.0 1.0 1.0 0.0 0.0 0.0 0.0
0.0 0.0 0.0 0.0 0.0 0.0 0.0 0.0
0.0 0.0 0.0 0.0 0.0 0.0 0.0 1.0
1.0 0.0 0.0 0.0 0.0 0.0 0.0 0.0
0.0 0.0 0.0 0.0 0.0 0.0 0.0 0.0
0.0 1.0 0.0 0.0 0.0 0.0 1.0 1.0
0.0 0.0 1.0 0.0 0.0 0.0 0.0 0.0
0.0 0.0 0.0 0.0 0.0 0.0 0.0 0.0
0.0 0.0 0.0 1.0 1.0 1.0 0.0 0.0
0.0 0.0 0.0 0.0 0.0 0.0 0.0 0.0
0.0 0.0 0.0 0.0 0.0 0.0 0.0 0.0
0.0 1.0 1.0 1.0 0.0 0.0 0.0 0.0
0.0 0.0 0.0 0.0 0.0 0.0 0.0 0.0
0.0 0.0 0.0 0.0 0.0 0.0 0.0 1.0
1.0 0.0 0.0 0.0 0.0 0.0 0.0 0.0
0.0 0.0 0.0 0.0 0.0 1.0 0.0 0.0
0.0 0.0 1.0 0.0 0.0 0.0 1.0 1.0
0.0 0.0 1.0 0.0 0.0 0.0 0.0 0.0
0.0 0.0 0.0 0.0 0.0 0.0 0.0 0.0
0.0 0.0 0.0 1.0 1.0 1.0 0.0 0.0
0.0 0.0 0.0 0.0 0.0 0.0 0.0 0.0
0.0 0.0 0.0 0.0 0.0 0.0 0.0 0.0
0.0 1.0 1.0 1.0 0.0 0.0 0.0 0.0
0.0 0.0 0.0 0.0 0.0 0.0 0.0 0.0

layer1.gcn.weight f4 [8, 3, 1, 1]
00000000: 1519 05bf a439 3e3e edc3 923d 7d19 a9be
00000010: a2a6 a23e 4461 a0be 46d8 27be be72 b9be
00000020: d461 173f 9a7c e13e 59a8 5ebe 8648 19bf
00000030: 9922 cb3e 7840 9e3e dc3d f9be 051a c43e
00000040: 5f1e 9cbe 908a 15bf 7f78 893e 2eb2 b13e
00000050: 4273 6b39 73e0 c93e 4798 1d3e c1a9 1e3e
-0.519914 0.18576676 0.07166276 -0.3302726 0.31767756 -0.31324208 -0.16391096 -0.36220354
0.5913365 0.44040376 -0.21743907 -0.59876287 0.39674833 0.3090856 -0.48680007 0.383011
-0.3049192 -0.58414555 0.26849744 0.34706253 0.00022454283 0.39429054 0.1539012 0.15494443

layer1.gcn.bias f4 [8]
00000000: 69fb b93e 996c dd3e 9174 3a3e 2577 dabd
00000010: ce6c 3cbf acbf ba3d 8214 99bd 12ea debe
0.36324623 0.43246916 0.18208529 -0.10667256 -0.7360352 0.0911859 -0.07474615 -0.43537956

layer1.tcn.weight f4 [8, 8, 3, 1]
00000000: 7dd1 7a3d efc3 1e3b 3fa2 89bd 29cc ba3b
00000010: ba49 84be a535 9ebd 025c 583e 35a5 993e
00000020: 8e6d 2c3e 6b2a 433d 0538 b6bd bceb debd
00000030: 5416 aabd 229f 0abe 7c51 c2bd 0c92 a13d
00000040: e8dc 143e 8d80 bc3d 2aac b63d 28d4 1dbe
00000050: 7b0b ea3c 779c c03c 4703 2d3c 1036 013e
00000060: bbc2 fb3d 5cbd eb3d 8900 253e 784e b9bd
00000070: 3944 4a3d d89c b9bd 6ec8 d5bd 48f9 4b3e
00000080: 689b 49be d915 da3c 443e 273e 423d 043d
00000090: 1b15 803b 65f4 a1be b73f c73c 1295 1c3e
000000a0: d248 a3bd 62c1 a73d 8662 f7bd 8fe4 12be
000000b0: fbcc 0fbe 992e 78be 6b0b 42be 746d 4a3d
000000c0: 3f42 74bd 8b94 b5bc 4896 2b3e d90a 933d
000000d0: 9a31 81be 4220 38be 1f4f 133e e0b8 053f
000000e0: af83 dabb 2745 893c a0a9 babc 9688 453d
000000f0: 8179 9bbb 2b8c 8fbe d216 77bd 8bb9 b93d
00000100: b0ba d7bd 75c9 103e 4e46 76bc fcab 0abe
00000110: 11d2 a2bc 533f b43b 833f 3fbe 7405 453e
00000120: f2b0 18bc 40ee 9b3d af61 d83d bbb1 08bd
00000130: 3587 2c3e 9e8a 3a3e 63f0 0c3e e98f de3d
00000140: 37c9 1c3d 6433 25bc 7be4 cdbd a574 d53d
00000150: 5044 f4bd da4d 0cbe b40b abbe 0029 f13d
00000160: 1c09 b23d a61f d53d 596d 54be 41bc 943d
00000170: b1e8 333c 6b63 33be 77f6 acbc 5ef2 9ebe
00000180: 95b6 31be c7ac b3be 2cd5 72be 752e 013d
00000190: c9ec 33be 4831 44be 3291 ba3d c12b fc3d
000001a0: 777f 15be 07a5 533e 8e2b 46bd 58ea 1fbd
000001b0: dbd4 893c a083 bb3d e08f c2bd 95c7 ff3d
000001c0: 5918 423c b1c2 013e 9a2b 303e e67f dabd
000001d0: a86b 343e 6816 513e 8994 4d3e 727d 67bd
000001e0: f461 b13d f7bb acbd 1009 86bc a5db b33d
000001f0: 16f5 4dbe b1b9 8cbd 3c5f 003e cc18 95bd
00000200: 7d8e f23d 307f 273e be1a cabd 836e 92bb
00000210: 2725 12be ceba 123d 48b8 ab3d 0413 903e
00000220: f6ae a63d 9201 093e 14bc 47be e9e4 8fbe
00000230: a486 01be c1ea 74bd 7891 fcbd 54b8 c8bd
00000240: 8623 91bd 45f1 3e3e 050e 103e a000 fcbd
00000250: 3126 34be e5de 3abe 8657 8e3e 5a78 7c3e
00000260: 6471 e0bc 411a a2bd 9da2 61bc 2907 9bbb
00000270: 162c 85bd 8d79 53be fe0a 16be f092 69bd
00000280: 7bd4 893d 0171 89be ae6b 1c3e ffd4 8b3d
00000290: 16f9 b53d 0ad5 d0bd b492 d6bd 1631 d03d
000002a0: 412e 24be 8325 a2be 2d3a bf3c 4f2e 12be
000002b0: 1267 68bd 49d2 d3bd e43a 34be ce5e 0abd
000002c0: 5df3 113e e1fb 483e 2af2 a53e bbc4 743e
000002d0: 6d2b b3bd eb89 ab3d a729 613c 3314 1f3d
000002e0: b1a2 763d ee63 213e d401 53bd 2b87 923d
000002f0: 59f3 2b3e 3616 023e 7a15 7a3d 4c7e aa3d
0.06123494 0.0024225672 -0.06720399 0.0057006073 -0.258375 -0.07725076 0.21128848 0.30008855
0.16838667 0.047647875 -0.08897404 -0.108848065 -0.0830504 -0.13537267 -0.09488198 0.07889184
0.14537394 0.092042066 0.089195564 -0.15412962 0.028569927 0.023512108 0.010559863 0.1261828
0.12293001 0.11510727 0.16113485 -0.0904817 0.04938147 -0.09063119 -0.104386196 0.19919312
-0.19688189 0.026621746 0.16332346 0.032284983 0.003908766 -0.3163177 0.024322374 0.15291241
-0.07972874 0.08191182 -0.12079339 -0.14345 -0.14043038 -0.24236526 -0.18949668 0.04942079
-0.05963349 -0.022165557 0.16756546 0.071798034 -0.25233155 -0.17981055 0.14385651 0.5223522
-0.00666853 0.016756607 -0.022785962 0.04822596 -0.004744709 -0.28036627 -0.060324498 0.09068593
-0.10533655 0.1413935 -0.01503141 -0.1354217 -0.019875558 0.005500713 -0.18676572 0.19240361
-0.009319531 0.07613802 0.10565507 -0.033372622 0.16848452 0.18216941 0.13763575 0.108672924
0.03827783 -0.010083053 -0.10053345 0.10422639 -0.11927092 -0.13701573 -0.33407366 0.11775398
0.08693144 0.10406427 -0.20744838 0.07262469 0.010980771 -0.17518394 -0.021113617 -0.31044286
-0.17354806 -0.35092756 -0.23714131 0.031538446 -0.17570795 -0.19159424 0.09109725 0.12313033
-0.14599405 0.20668422 -0.04838138 -0.039041847 0.01682513 0.09155965 -0.09500098 0.12489239
0.011846625 0.12671925 0.17204133 -0.10668926 0.17619193 0.20418704 0.20076193 -0.05651612
0.08661261 -0.08434289 -0.016361743 0.08782128 -0.20113024 -0.06871355 0.12536329 -0.0728012
0.11843584 0.16357112 -0.09868382 -0.0044687404 -0.14271985 0.035822682 0.08384758 0.28139508
0.0813884 0.13379505 -0.1950534 -0.28104332 -0.12649018 -0.05979419 -0.123324335 -0.09800783
-0.07086854 0.18646725 0.14067848 -0.12304807 -0.17592694 -0.1824909 0.2780115 0.24655285
-0.027397819 -0.07915164 -0.01377168 -0.004731078 -0.06502549 -0.20651837 -0.1465263 -0.057024896
0.067299806 -0.26844028 0.15275452 0.06827735 0.088854 -0.10196884 -0.104772 0.101656124
-0.1603327 -0.31669244 0.02334317 -0.14275478 -0.05673892 -0.10342843 -0.1760059 -0.03378182
0.14252992 0.19627334 0.3241132 0.23903172 -0.08748517 0.08375915 0.013742841 0.038837623
0.06021375 0.15760776 -0.051515415 0.071546875 0.16792049 0.12703785 0.061055638 0.083248705

layer1.tcn.bias f4 [8]
00000000: 9036 61ba d4ba 623a 0555 9b3a f8e0 09ba
00000010: efeb 43b9 df99 87b9 eae8 023a e953 033b
-0.00085911993 0.00086490554 0.0011850899 -0.0005259658 -0.00018684541 -0.0002586385 0.00049938133 0.0020039028

layer1.bn.weight f4 [8]
00000000: fce1 603f 9c56 873f 26fb 8a3f b1b7 853f
00000010: 0f47 943f 9b1b 633f a862 4e3f fe68 8a3f
0.87844825 1.0573306 1.0857894 1.0446683 1.1584185 0.88714 0.8061929 1.0813291

layer1.bn.bias f4 [8]
00000000: 5ed7 773e f49a e0be 61ad 35be 4405 3cbe
00000010: 86d3 03bd 1af4 f83c 5368 c2bd 0a9b 973d
0.2420325 -0.4386822 -0.1774192 -0.18361384 -0.032184146 0.030389834 -0.094925545 0.07402618

layer1.bn.running_mean f4 [8]
00000000: 79c4 12bf 5bb0 20bf cb7a 4abf e777 23bf
00000010: cd99 203f 675a 24bf b408 21bf c0c6 473f
-0.57331043 -0.627691 -0.7909362 -0.6385483 0.6273468 -0.64200443 -0.62903905 0.78037643

layer1.bn.running_var f4 [8]
00000000: 1a98 1b3e 857a ae3d b84f 3d3e eca2 263e
00000010: 704c 813e ac98 293e c892 893d bb56 a73e
0.15194741 0.085194625 0.18487442 0.16273087 0.2525363 0.16562146 0.067174494 0.32683358

layer1.res.0.weight f4 [8, 3, 1, 1]
00000000: a592 0f3e ac3a 2b3f 8691 cfbe 293a 943e
00000010: be49 943c d195 e4be d477 223d 5f63 333f
00000020: 9d95 983e 237f ee3e e80c 60be cc43 103f
00000030: 9e83 11bf 7878 f93e e91f da3d e047 14bf
00000040: 19c9 bfbd 8901 f6be 1e30 85be 9637 aebe
00000050: 9454 b63e 6b32 b8be 504f 523e f27d d1be
0.14020784 0.668864 -0.40540713 0.28950623 0.01810157 -0.4464555 0.03966506 0.70073503
0.29801646 0.46581373 -0.21879923 0.5635345 -0.56841457 0.48724723 0.10650618 -0.5792217
-0.09364528 -0.48048046 -0.26013273 -0.34026784 0.35611403 -0.35975966 0.20538068 -0.409164

layer1.res.0.bias f4 [8]
00000000: 5874 edb7 4548 c1b9 6fbb 9639 d9b8 663a
00000010: 88a7 f1b9 1c7b 65b9 e74c 343b 3783 203b
-2.8306778e-05 -0.00036865674 0.00028749878 0.0008801348 -0.00046091923 -0.00021885004 0.0027511658 0.0024492273

layer1.res.1.weight f4 [8]
00000000: 8ed7 8d3f 83f5 553f a4c7 843f 0678 803f
00000010: a760 3f3f fa04 783f 35f9 853f c44a 653f
1.1081407 0.83577746 1.0373425 1.0036628 0.74756855 0.96882594 1.0466677 0.8956721

layer1.res.1.bias f4 [8]
00000000: 5ed7 773e f49a e0be 61ad 35be 4405 3cbe
00000010: 86d3 03bd 1af4 f83c 5368 c2bd 0a9b 973d
0.2420325 -0.4386822 -0.1774192 -0.18361384 -0.032184146 0.030389834 -0.094925545 0.07402618

layer1.res.1.running_mean f4 [8]
00000000: d215 d03e 877b 483e 5026 b23e c9ed 3b3e
00000010: ee58 04be efc2 cbbe ca7d a5be edca fdbd
0.40641648 0.19578372 0.34794855 0.18352427 -0.12924549 -0.3979716 -0.32322532 -0.12392221

layer1.res.1.running_var f4 [8]
00000000: 4c92 2a3d 94e4 e03b 7edd 2a3d b553 963c
00000010: dc4b 293d 015b c73c e96f 863c 73ab 453c
0.041643426 0.006863186 0.041715138 0.018350461 0.04133211 0.024335386 0.016410785 0.012064802

layer2.A f4 [21, 21]
00000000: 0000 803f 0000 803f 0000 0000 0000 0000
00000010: 0000 0000 0000 803f 0000 0000 0000 0000
00000020: 0000 0000 0000 803f 0000 0000 0000 0000
00000030: 0000 0000 0000 803f 0000 0000 0000 0000
00000040: 0000 0000 0000 803f 0000 0000 0000 0000
00000050: 0000 0000 0000 803f 0000 803f 0000 803f
00000060: 0000 0000 0000 0000 0000 0000 0000 0000
00000070: 0000 0000 0000 0000 0000 0000 0000 0000
00000080: 0000 0000 0000 0000 0000 0000 0000 0000
00000090: 0000 0000 0000 0000 0000 0000 0000 0000
000000a0: 0000 0000 0000 0000 0000 0000 0000 803f
000000b0: 0000 803f 0000 803f 0000 0000 0000 0000
000000c0: 0000 0000 0000 0000 0000 0000 0000 0000
000000d0: 0000 0000 0000 0000 0000 0000 0000 0000
000000e0: 0000 0000 0000 0000 0000 0000 0000 0000
000000f0: 0000 0000 0000 0000 0000 0000 0000 0000
00000100: 0000 0000 0000 803f 0000 803f 0000 803f
00000110: 0000 0000 0000 0000 0000 0000 0000 0000
00000120: 0000 0000 0000 0000 0000 0000 0000 0000
00000130: 0000 0000 0000 0000 0000 0000 0000 0000
00000140: 0000 0000 0000 0000 0000 0000 0000 0000
00000150: 0000 0000 0000 0000 0000 0000 0000 803f
00000160: 0000 803f 0000 0000 0000 0000 0000 0000
00000170: 0000 0000 0000 0000 0000 0000 0000 0000
00000180: 0000 0000 0000 0000 0000 0000 0000 0000
00000190: 0000 0000 0000 0000 0000 0000 0000 0000
000001a0: 0000 0000 0000 803f 0000 0000 0000 0000
000001b0: 0000 0000 0000 0000 0000 803f 0000 803f
000001c0: 0000 0000 0000 0000 0000 803f 0000 0000
000001d0: 0000 0000 0000 0000 0000 0000 0000 0000
000001e0: 0000 0000 0000 0000 0000 0000 0000 0000
000001f0: 0000 0000 0000 0000 0000 0000 0000 0000
00000200: 0000 0000 0000 0000 0000 0000 0000 803f
00000210: 0000 803f 0000 803f 0000 0000 0000 0000
00000220: 0000 0000 0000 0000 0000 0000 0000 0000
00000230: 0000 0000 0000 0000 0000 0000 0000 0000
00000240: 0000 0000 0000 0000 0000 0000 0000 0000
00000250: 0000 0000 0000 0000 0000 0000 0000 0000
00000260: 0000 0000 0000 803f 0000 803f 0000 803f
00000270: 0000 0000 0000 0000 0000 0000 0000 0000
00000280: 0000 0000 0000 0000 0000 0000 0000 0000
00000290: 0000 0000 0000 0000 0000 0000 0000 0000
000002a0: 0000 0000 0000 0000 0000 0000 0000 0000
000002b0: 0000 0000 0000 0000 0000 0000 0000 803f
000002c0: 0000 803f 0000 0000 0000 0000 0000 0000
000002d0: 0000 0000 0000 0000 0000 0000 0000 0000
000002e0: 0000 0000 0000 0000 0000 0000 0000 0000
000002f0: 0000 0000 0000 803f 0000 0000 0000 0000
00000300: 0000 0000 0000 0000 0000 803f 0000 0000
00000310: 0000 0000 0000 0000 0000 803f 0000 803f
00000320: 0000 0000 0000 0000 0000 803f 0000 0000
00000330: 0000 0000 0000 0000 0000 0000 0000 0000
00000340: 0000 0000 0000 0000 0000 0000 0000 0000
00000350: 0000 0000 0000 0000 0000 0000 0000 0000
00000360: 0000 0000 0000 0000 0000 0000 0000 803f
00000370: 0000 803f 0000 803f 0000 0000 0000 0000
00000380: 0000 0000 0000 0000 0000 0000 0000 0000
00000390: 0000 0000 0000 0000 0000 0000 0000 0000
000003a0: 0000 0000 0000 0000 0000 0000 0000 0000
000003b0: 0000 0000 0000 0000 0000 0000 0000 0000
000003c0: 0000 0000 0000 803f 0000 803f 0000 803f
000003d0: 0000 0000 0000 0000 0000 0000 0000 0000
000003e0: 0000 0000 0000 0000 0000 0000 0000 0000
000003f0: 0000 0000 0000 0000 0000 0000 0000 0000
1.0 1.0 0.0 0.0 0.0 1.0 0.0 0.0
0.0 1.0 0.0 0.0 0.0 1.0 0.0 0.0
0.0 1.0 0.0 0.0 0.0 1.0 1.0 1.0
0.0 0.0 0.0 0.0 0.0 0.0 0.0 0.0
0.0 0.0 0.0 0.0 0.0 0.0 0.0 0.0
0.0 0.0 0.0 1.0 1.0 1.0 0.0 0.0
0.0 0.0 0.0 0.0 0.0 0.0 0.0 0.0
0.0 0.0 0.0 0.0 0.0 0.0 0.0 0.0
0.0 1.0 1.0 1.0 0.0 0.0 0.0 0.0
0.0 0.0 0.0 0.0 0.0 0.0 0.0 0.0
0.0 0.0 0.0 0.0 0.0 0.0 0.0 1.0
1.0 0.0 0.0 0.0 0.0 0.0 0.0 0.0
0.0 0.0 0.0 0.0 0.0 0.0 0.0 0.0
0.0 1.0 0.0 0.0 0.0 0.0 1.0 1.0
0.0 0.0 1.0 0.0 0.0 0.0 0.0 0.0
0.0 0.0 0.0 0.0 0.0 0.0 0.0 0.0
0.0 0.0 0.0 1.0 1.0 1.0 0.0 0.0
0.0 0.0 0.0 0.0 0.0 0.0 0.0 0.0
0.0 0.0 0.0 0.0 0.0 0.0 0.0 0.0
0.0 1.0 1.0 1.0 0.0 0.0 0.0 0.0
0.0 0.0 0.0 0.0 0.0 0.0 0.0 0.0
0.0 0.0 0.0 0.0 0.0 0.0 0.0 1.0
1.0 0.0 0.0 0.0 0.0 0.0 0.0 0.0
0.0 0.0 0.0 0.0 0.0 1.0 0.0 0.0
0.0 0.0 1.0 0.0 0.0 0.0 1.0 1.0
0.0 0.0 1.0 0.0 0.0 0.0 0.0 0.0
0.0 0.0 0.0 0.0 0.0 0.0 0.0 0.0
0.0 0.0 0.0 1.0 1.0 1.0 0.0 0.0
0.0 0.0 0.0 0.0 0.0 0.0 0.0 0.0
0.0 0.0 0.0 0.0 0.0 0.0 0.0 0.0
0.0 1.0 1.0 1.0 0.0 0.0 0.0 0.0
0.0 0.0 0.0 0.0 0.0 0.0 0.0 0.0

layer2.gcn.weight f4 [16, 8, 1, 1]
00000000: 83fa 68be fa70 35be 02a3 ec3e bbcb 243d
00000010: af33 1abe c61e 8ebd c269 b2bd c9a9 953e
00000020: 4bc0 63ba 6a7d 61be fe5f 093f 464b 8c3e
00000030: 1756 90be ab12 093e cfc5 06bc fadb b0bd
00000040: 5ac6 783e f487 cfbe 60fa dbbe 1758 b23d
00000050: 5fcb c2bd a257 f03d 239f 81bd 496e 2c3e
00000060: 7105 173d 03ce b73e c786 0abf f9b9 0abe
00000070: eb74 383d 5e6c 253e 1bcf ecbd c259 81be
00000080: 6cb5 953e a706 763d d6c5 afbe 655e bfbd
00000090: eacd f3bd 4e22 aebd 5493 223e 2ac9 bfbd
000000a0: 889d e93d 9b71 e93e 6fbc b9bd db5f 88be
000000b0: efec 983e 2ffc be3d 9048 e23d 448c c4be
000000c0: 721f 073e 39ad 12bd 7379 a8bd b88c 71be
000000d0: 2638 81be 5397 58be 9134 053c 9112 aa3e
000000e0: 2ea4 503e 832a a3bd 2ec9 10bd 20cf 163d
000000f0: 407c 1839 c624 863d 18d7 29bd 28c1 f7bd
00000100: 8afc 6fbe cada bf3e 9015 d73d 5dc2 2cbe
00000110: fe4e bf3e 8ae7 923d a537 3abe fab1 fd3d
00000120: 6406 9abe a70c 6ebe 84ef 053f c00f 023e
00000130: 29f9 b03e 48a6 4a3c 9f55 9abe 5c0b 85be
00000140: 000b df3d 3dd9 b13d c436 8e3e 2b1d b9bc
00000150: 8972 06be daf3 093e a638 97bd 2303 083e
00000160: c4bf 213e ae87 21be 66a9 953e 1a4b 09bd
00000170: bfbf f63d 3102 803e 0cb1 11be 028d 183e
00000180: 6310 173c a508 ab3e dc0f ae3e 275d 623d
00000190: f913 703e d17d f23d bd1d 7dbd e0f8 4ebe
000001a0: 48e6 bb3c b524 28be fb2b 8e3a 68c2 4dbe
000001b0: 1292 523d 9572 913e cab3 79bd eeda a7be
000001c0: a9d9 bf3e 98d8 c93e 9e23 00bf d6de bbbd
000001d0: fdca 75be d60a b13d 5dec e9bd 3c8d 683e
000001e0: e4b9 abbe e84a 093b 97d7 9e3e 704c 41bc
000001f0: d4e2 953e 9962 c33e b739 adbe c21c 81be
-0.22751813 -0.17718878 0.46218115 0.040233355 -0.15058778 -0.06939463 -0.08711578 0.29231098
-0.00086880167 -0.22020498 0.536621 0.2740118 -0.2819068 0.13386028 -0.008225872 -0.08635707
0.24294415 -0.40533412 -0.42964458 0.08708208 -0.09511446 0.11735465 -0.06329181 0.16838945
0.036870424 0.35899362 -0.54111904 -0.13547505 0.045033377 0.1615462 -0.1156294 -0.25263792
0.29239976 0.060064938 -0.34330624 -0.09344176 -0.11904509 -0.08502637 0.15876514 -0.09364541
0.11407 0.45594487 -0.09069144 -0.26635632 0.29868266 0.09325444 0.110489964 -0.38388264
0.13195589 -0.03580973 -0.082262896 -0.23588836 -0.2523815 -0.21151476 0.008130209 0.3321729
0.2037513 -0.07967093 -0.03534811 0.036818624 0.00014542136 0.06549983 -0.041464895 -0.120973885
-0.2343618 0.3747161 0.105021596 -0.16871019 0.37364954 0.07173069 -0.18185289 0.12387462
-0.30083 -0.23247014 0.52318597 0.1270132 0.34565094 0.012368746 -0.3014345 -0.2598523
0.1089077 0.08684013 0.27776158 -0.022596916 -0.13129629 0.13471928 -0.07383852 0.13282447
0.15795809 -0.15774414 0.29230803 -0.033518888 0.120482914 0.25001672 -0.14227694 0.1489754
0.0092202155 0.33405033 0.33996475 0.05526462 0.23445119 0.11840404 -0.06179594 -0.20212126
0.022936955 -0.16420253 0.0010846847 -0.20093691 0.051408835 0.28407732 -0.060962476 -0.32784218
0.3747075 0.3942306 -0.5005435 -0.09173362 -0.24003215 0.08644645 -0.11422036 0.22710127
-0.3354026 0.0020949189 0.31023857 -0.011798009 0.2927462 0.38161162 -0.33833095 -0.25217253

layer2.gcn.bias f4 [16]
00000000: 311d 583d 4e08 89bd 9de4 3abe 3c71 843e
00000010: 8982 603d 9c67 88be ca10 1fbe d40f 7dbe
00000020: 1e18 943e 40a4 8f3e 1b17 9a3d 51e1 b2be
00000030: 0fb5 f13d 3b9b 7d3e 99da bcbe 4acc 853e
0.052762214 -0.06691037 -0.18251272 0.2586764 0.054811988 -0.26641548 -0.15533748 -0.24713069
0.2892465 0.28055 0.07523938 -0.34937528 0.11802112 0.24766247 -0.36885527 0.26132423

layer2.tcn.weight f4 [16, 16, 3, 1]
00000000: 6006 56bd 71f5 cf3d 8113 5c3d 1c75 de3d
00000010: 1843 403c 3ab2 05bc d8c9 2b3e 73cf 123d
00000020: 3321 353d 7de5 553c 7ff4 fcbd f16c 9ebc
00000030: 3b9d 31bd 31c8 52bd 9ce0 063d e875 66be
00000040: e827 21be 6db5 94be db6c 3dbd b44b 99bd
00000050: 72c6 74bd 2433 07be a1ba 9bbc e1f8 623d
00000060: a50a 94bd 79c9 0bbe 1f04 e1bd f011 333e
00000070: 3346 373e 9d67 9d3d f016 aebd 0f11 bd3d
00000080: 035f 813d 7451 eb3d a9ea 79bc 5b84 903d
00000090: 30c6 8ebc 7e6d 8ebd cbde 04bd c794 ae3c
000000a0: 762c 923d c25b a3bd 339c 1dbe 3f1d c3bd
000000b0: 3f7e 09be 9b33 d53c 72d9 bf3b de2e 3e3e
000000c0: c89f 3cbd 6447 2b3d 3b70 1bbe 8b80 07be
000000d0: 9a6b 9fbc 5269 33be 9729 9abd 773b 02be
000000e0: e1cb 8fbe 8ed6 653d 0371 ab3d 3be2 443d
000000f0: 0bca 3fbd 2c53 473b d22d 70bc 8a39 593e
00000100: cc32 553e e0c9 783e e3f7 ad3c 831f e1bd
00000110: 37bf 35bd 362b 7dbc 06a6 0b3d ce6c 93bc
00000120: 12d8 3dbd 9d97 3b3e cd44 4c3d 5388 a1bd
00000130: 8029 103d b1ec 5a3c 5fa4 99bd e118 b0bc
00000140: 7dfa b43c 6e61 cfbd 618a d4bd cfac cb3c
00000150: 6d98 cf3d afb0 27bc 7daf 1d3d da89 34bd
00000160: 4352 f83c 0d66 d23c b1c9 c0bd 4c62 2ebe
00000170: 98ec fbbd 2da6 2d3e c250 ec3d 02a4 fa3d
00000180: 7ab9 fdbd 1ac9 40be 3b20 fcbc 52a8 4bbe
00000190: 7865 1cbe c603 30be cf4b 9fbd b24a 4abc
000001a0: 1081 103e 8ad4 623d 0540 263e e5c8 bb3b
000001b0: ec80 483d 918a 223e 9195 f63d b7fb 7a3d
000001c0: 6dc1 dc3d 315e 1c3e 67ed d8bd 1bb4 333d
000001d0: 3d78 153d f50f 303d 9532 a03d d4ba a23d
000001e0: 47cc 193d 2a89 ad3d 50ef b3bb 89bf 94bd
000001f0: 5534 15be 76eb 35be a735 91be 5451 5abe
00000200: 06f7 07be ddb9 8cbc f6c3 2abe 12e5 1cbd
00000210: 2b66 22bd 94f3 963c b9cd dd3c 812b 813d
00000220: 0ae1 f6bb 34ac 3fbc b7de 453e f9eb b03c
00000230: 97c8 873d 4aeb 1abe fa11 dd3c f52e 37be
00000240: fb2f d03d 2b56 a0bd c1e7 773d 57cc 203e
00000250: 8c16 fd3d aee8 3f3e 8a03 823d b35c 0fbe
00000260: 12f6 36bd ef12 a03d bbe7 13be 8d47 2a3d
00000270: 982b 663b a0ac d3bc 5890 a7bd eb91 22bd
00000280: 020e d4bd 11e8 d9bd f85b 853d 9b95 c4bc
00000290: f848 debd ad4c 08be e028 903d ed87 5abd
000002a0: 5ab3 98bc 801f 13bd c36d 513d 2bed 163e
000002b0: 16bc 153e 00dc 8a3d a964 9a3c bc41 8bbd
000002c0: f5cd 223d 6cb1 c4bd 99ab 82bc a6f7 a8bd
000002d0: d6b0 393e b378 2b3e a480 a5bd 382d 133d
000002e0: 1a44 313d cc05 00be b14a 5dbe a4d5 febd
000002f0: 8661 eebd 055e 183e 41e4 493e 126b 293e
00000300: 83a1 243e 07f1 b63d 65e1 ca3b 1051 0d3e
00000310: acfd 993d 393a 7e3d 9f24 3fbd 8b2f cabc
00000320: 3698 23be 8997 db3d f2c2 d53d ae7c eabd
00000330: be33 f9bb 1499 9fbc 47d5 33be eab3 e13d
00000340: e819 083e 0cf9 263e 566e 02be 647c dcbd
00000350: 7626 c23c 8e9d b0bd 5a32 a93c 84ee 533d
00000360: 8a14 893c 5c5e 6fbd 53f7 8b3d b52b 003e
00000370: a633 fd3d 67fc 363d 92fb 1d3e 05f7 fe3d
00000380: 2582 3abd 9107 e5bc e913 e53d 9238 ffbd
00000390: aed6 83bc 6d47 243e 1ab0 843e 5eca f1bc
000003a0: 4bbd b93d c749 38bc fee8 62bc dbd6 f7bd
000003b0: 15c1 543c 0d84 813e eca0 233e 56b9 bc3e
000003c0: ab92 3ebd 7298 b93d 4954 383d b416 373e
000003d0: 3799 a23d 31ef 3e3e f1b5 7abd bd25 13be
000003e0: c7f2 35be 771c 6fbe 06aa 18bd 673d 77bd
000003f0: 679c 753b 924e e0bd 57cf 26bd c274 d4bd
-0.052252173 0.10154236 0.053729538 0.108621806 0.011734746 -0.008160168 0.16776216 0.03584237
0.044221114 0.013055203 -0.123513214 -0.019339057 -0.043362837 -0.05146045 0.032929048 -0.22505915
-0.1573788 -0.29044667 -0.04624639 -0.07485142 -0.059759565 -0.13203102 -0.01900989 0.05541313
-0.07228593 -0.13651074 -0.10987114 0.17487311 0.17897873 0.07685778 -0.08500469 0.09231769
0.0631695 0.11490145 -0.015253701 0.07056495 -0.017428488 -0.06954478 -0.032439034 0.021311177
0.071373865 -0.07976486 -0.15391617 -0.095270626 -0.13427065 0.026025584 0.005854779 0.18572566
-0.046050817 0.04181613 -0.15179531 -0.13232629 -0.019460488 -0.17520645 -0.07527464 -0.12717997
-0.28085235 0.05611282 0.08371165 0.048067313 -0.046823543 0.0030414565 -0.014659362 0.21213356
0.20820159 0.24295759 0.021236366 -0.109923385 -0.04437181 -0.015452197 0.03409388 -0.017996218
-0.04634864 0.18319555 0.0498703 -0.0788733 0.035195827 0.013362096 -0.075020544 -0.021496238
0.022092098 -0.10126005 -0.10377956 0.024862675 0.10136495 -0.010234996 0.038497437 -0.044076778
0.030312663 0.025683427 -0.094134696 -0.17029685 -0.12300986 0.16957922 0.11538841 0.12238313
-0.123888925 -0.18826714 -0.030777087 -0.19888428 -0.15273082 -0.1718894 -0.07778131 -0.01234691
0.14111733 0.055378474 0.16235359 0.0057307356 0.048951074 0.15873171 0.12040246 0.06127521
0.107790805 0.15270306 -0.10592156 0.043872934 0.03649162 0.042983968 0.07822148 0.07945791
0.03754833 0.084734276 -0.0054911748 -0.07263095 -0.14570744 -0.17765602 -0.28361246 -0.21320087
-0.13277826 -0.01717847 -0.16676316 -0.038304396 -0.039648216 0.018426694 0.027075635 0.06307126
-0.007534151 -0.011698771 0.1932324 0.021596896 0.06630056 -0.15128818 0.026986111 -0.17889006
0.101654015 -0.07828935 0.060523752 0.1570295 0.12357816 0.18741104 0.06348331 -0.14000206
-0.044668265 0.07816111 -0.14443867 0.041572142 0.0035121199 -0.02583915 -0.08181828 -0.03968994
-0.10354234 -0.10639966 0.06511682 -0.023997119 -0.108537614 -0.133105 0.07039046 -0.053352285
-0.018640209 -0.035918713 0.051130068 0.1473891 0.1462253 0.06780243 0.018846827 -0.06799647
0.039747197 -0.09604153 -0.015950965 -0.0825036 0.18133864 0.16745262 -0.08081177 0.035931796
0.043277837 -0.12502211 -0.21610524 -0.124430925 -0.11639695 0.14879616 0.19715978 0.1654475
0.16077237 0.08932691 0.00619142 0.13800454 0.07519087 0.062067244 -0.046665784 -0.024680873
-0.15976033 0.107222624 0.104375735 -0.11449562 -0.007605045 -0.019482173 -0.17561828 0.11020644
0.13291132 0.16305941 -0.12737402 -0.10765913 0.02369998 -0.08623801 0.020653892 0.051741138
0.016733427 -0.058439597 0.06834283 0.12516673 0.12363367 0.044674303 0.15427998 0.12449459
-0.04553427 -0.02795771 0.11185438 -0.12461962 -0.016093578 0.16042872 0.25915605 -0.029515442
0.09069308 -0.011248059 -0.013849495 -0.12101527 0.0129854875 0.2529606 0.15979356 0.3686015
-0.046526592 0.0906228 0.045002256 0.17879754 0.0793938 0.18645932 -0.06120867 -0.14369865
-0.17768393 -0.23350702 -0.037271522 -0.060361292 0.0037477256 -0.10952486 -0.04072508 -0.10373832

layer2.tcn.bias f4 [16]
00000000: 562b 133a 59bd 3439 4aa2 e6b8 6674 8c39
00000010: 65af 1d39 7bce 9cb8 91e6 7739 a7a9 efb7
00000020: 946a 9639 45e2 38b9 5e50 40b8 295d 7a3a
00000030: 8663 7239 1ffd 133a 3deb aab8 8e96 b1b9
0.00056140625 0.00017236675 -0.00010997483 0.00026789604 0.00015038026 -7.47712e-05 0.00023641648 -2.857002e-05
0.00028689636 -0.000176319 -4.5851215e-05 0.0009550625 0.00023115994 0.0005645323 -8.150048e-05 -0.00033872243

layer2.bn.weight f4 [16]
00000000: 4073 f83f a94e 0340 0a6f 0c40 b160 d13f
00000010: 90cb e63f 222f e13f 710a c83f 29cf 0c40
00000020: f08f f53f b0f8 0440 425e b73f 0a26 0640
00000030: 5d3e bf3f 7e1d ee3f 4c17 b53f 81f0 fd3f
1.9410172 2.051676 2.1942773 1.6357633 1.8030872 1.7592509 1.5628186 2.200144
1.9184551 2.0776787 1.432564 2.0960717 1.4940907 1.860275 1.4147735 1.9839021

layer2.bn.bias f4 [16]
00000000: cc53 b03e 96cb a73e 6480 113f f1f6 46bd
00000010: 7454 64bd 1559 833e 3d74 193e c013 5b3e
00000020: 9591 db3e 944c 373e f173 b9bd 165e 853e
00000030: ecc6 153e 1a4c 8d3e 4b0a c93d ab61 373d
0.34438932 0.3277251 0.56836534 -0.048575345 -0.055744603 0.25653902 0.14985748 0.21394253
0.42884508 0.17900306 -0.09055317 0.26048344 0.14626664 0.27597123 0.09816416 0.044770878

layer2.bn.running_mean f4 [16]
00000000: 2509 a7bc da0d 91be 613d 73be 1794 d0bd
00000010: 4e6b a13b 4a83 99bc cdf3 ccbe dcf5 36be
00000020: a89b b0bd 3aae 52bd 3edc 9f3e ae02 15bc
00000030: d7a3 1dbf 6dfb b43d 89e9 ea3d 381f f73d
-0.020390103 -0.2833088 -0.23753883 -0.10184496 0.004926122 -0.018739361 -0.40029755 -0.17867225
-0.08623439 -0.051435687 0.3122272 -0.009094877 -0.61578125 0.08837018 0.114703245 0.120665014

layer2.bn.running_var f4 [16]
00000000: 22fb 7f3d 1024 b63d c91f f23d abce e93d
00000010: dae5 0d3e 783d 163e f234 023e c7d7 a53d
00000020: b850 b53d 5929 f73d 5d9c 123e 0ab1 a53d
00000030: b0c3 7c3e bfc6 793d 5cbd f43d 5d24 e13d
0.06249536 0.08893597 0.11822469 0.11416372 0.13857213 0.14671886 0.1271551 0.08097797
0.088532865 0.12068433 0.1431746 0.08090408 0.24684024 0.060980555 0.1195018 0.10993264

layer2.res.0.weight f4 [16, 8, 1, 1]
00000000: 6da3 653d 03c6 03bf a846 81be 2e3d 7a3e
00000010: 8e9c a6bd 9c6c f7bd e084 ed3c ebab 433e
00000020: 7c9e 34be dd43 8c3e ab0b 513d bb7b abbe
00000030: 95f4 77bc a649 3a3d 7e9f 143e 9ea8 a7bc
00000040: 4fcd 853e f6b4 213e 4e19 eebe eb16 febd
00000050: 27c8 c2bd 9925 40bd 718e 333e fde4 4b3e
00000060: b3c7 d5bd 7fec c7be b507 b1bc 5ffb 8ebd
00000070: e8bc ef3d 4bd8 53be 5958 f2bd aba6 07be
00000080: 222b e5bd ad90 713e 8d3e d03d b6b7 58be
00000090: 4c3a cebc 1cdc 763e 81e2 36be c448 0a3d
000000a0: 4432 633d 3106 04be 61e4 da3e b3b5 09be
000000b0: b93c 0e3d d937 563c ba01 cebd 8880 7fbd
000000c0: 150f 91be 534d a8be 0e2b 623e 2b99 d23e
000000d0: 4c92 8c3b 6e32 92ba e70f f0bd 0f5f d53d
000000e0: c57d babc 74be 85be 1902 d5be 470f bcbd
000000f0: 1256 8e3d bbee 893e 1dd9 bcbe de70 843b
00000100: fa72 443e 9a0f 893d 1f07 a6be f439 14be
00000110: d774 81be 87ee 7fbe bf80 953e 5453 a13e
00000120: 3e79 1e3d 67aa 30be 7354 783e d854 7fbe
00000130: d03c f7bd d9c1 8e3e 5bb6 e9bd 3abe ea3d
00000140: ee64 41be 7cd6 fdbd 37dd a13e 9ca3 763d
00000150: 0a70 07bd 40fb 75be 1670 053e f1ec d33d
00000160: 6d91 4c3e a91b 6c3e b937 8ebe 6e6b 1dbe
00000170: 3652 92be f3ea f9bd 2b96 433e b35e b73e
00000180: e7b8 92be e92b 96bd 3e16 863e 4e1c 363e
00000190: de7b 32bd f3be 4e3e 8f32 3ebe e6b6 8b3d
000001a0: b7b0 e73c a085 063e 5e00 dabd e6f4 eebd
000001b0: e97c 2f3c 529b 1e3e 5a7c 173e 0993 033f
000001c0: c9fc 13bd 348b 9ebe 8fe4 cd3d 6428 6e3e
000001d0: 4659 223e c3df 58be 5954 493e 7902 24be
000001e0: e633 0c3b 84ac 2dbc 109b c5bd 929d 8abe
000001f0: e7fc a53e 3e65 9d3e f156 f8bc bc08 a93d
0.056064058 -0.51474017 -0.2524922 0.244374 -0.08135329 -0.120812625 0.028994024 0.1910855
-0.17638582 0.27395526 0.051036518 -0.33492836 -0.0151339965 0.045480393 0.14513966 -0.020466145
0.261332 0.15791687 -0.4650368 -0.12406715 -0.09510832 -0.046910856 0.17534806 0.19911571
-0.1043848 -0.3904762 -0.02161012 -0.06981539 0.11705953 -0.20687978 -0.11833257 -0.13247173
-0.111898676 0.23590346 0.101681806 -0.2116383 -0.025174282 0.24107403 -0.17859842 0.0337608
0.05546786 -0.12892987 0.42752364 -0.13448219 0.03472588 0.013074839 -0.10058923 -0.062378436
-0.2833182 -0.32871494 0.22086737 0.41132483 0.004289901 -0.0011153945 -0.11721783 0.104185216
-0.02276505 -0.26121867 -0.41603163 -0.091826014 0.0695001 0.2693995 -0.36884394 0.004041775
0.19184485 0.06692429 -0.32427308 -0.14475232 -0.25284454 -0.24993335 0.29199788 0.31508887
0.038689844 -0.17252503 0.24250965 -0.24934709 -0.12072146 0.2788227 -0.11411735 0.11462064
-0.18886158 -0.12394425 0.31614086 0.060214624 -0.033065833 -0.24021626 0.13031039 0.10347927
0.1997735 0.23057427 -0.27776888 -0.15373012 -0.28578347 -0.12203016 0.19100253 0.35814437
-0.28656694 -0.07332594 0.26188844 0.17784235 -0.04357516 0.20190029 -0.18573974 0.068219945
0.028282506 0.13136911 -0.10644601 -0.116678044 0.010710933 0.15488937 0.1479353 0.5139623
-0.036129747 -0.3096558 0.1005336 0.23257595 0.15854368 -0.21179108 0.19661082 -0.16016568
0.0021393239 -0.010600213 -0.096487164 -0.27073342 0.32419512 0.30741304 -0.030314894 0.08253619

layer2.res.0.bias f4 [16]
00000000: ec0a 573a 170a 1639 77ac 96b9 2b5a 5c39
00000010: f090 7a39 ec30 40b9 2da4 be39 24f3 80b8
00000020: 3bbd eab9 0c2e 79b9 a046 a2b9 d446 3539
00000030: 4efe f539 690a 8f39 7275 7ab8 8767 6fb9
0.00082032266 0.00014308874 -0.00028738726 0.00021014425 0.00023895851 -0.00018328772 0.00036361945 -6.148804e-05
-0.00044772946 -0.00023763644 -0.00030951668 0.0001728789 0.00046919513 0.00027282842 -5.9714024e-05 -0.00022831383

layer2.res.1.weight f4 [16]
00000000: d4ae d33f 5d48 a73f d201 cc3f 2069 803f
00000010: 1b7f ab3f a2b9 c03f b5e3 b03f d642 b13f
00000020: 9bf2 b73f 98b6 b43f 39d9 bb3f 5c5f c23f
00000030: ba10 8c3f 11ad 963f c514 ba3f 0017 9f3f
1.6537728 1.3068959 1.5938056 1.0032082 1.3398165 1.5056651 1.3819491 1.3848522
1.4370912 1.4118223 1.4675666 1.5185351 1.0942605 1.1771566 1.4537588 1.2428894

layer2.res.1.bias f4 [16]
00000000: cc53 b03e 96cb a73e 6480 113f f1f6 46bd
00000010: 7454 64bd 1559 833e 3d74 193e c013 5b3e
00000020: 9591 db3e 944c 373e f173 b9bd 165e 853e
00000030: ecc6 153e 1a4c 8d3e 4b0a c93d ab61 373d
0.34438932 0.3277251 0.56836534 -0.048575345 -0.055744603 0.25653902 0.14985748 0.21394253
0.42884508 0.17900306 -0.09055317 0.26048344 0.14626664 0.27597123 0.09816416 0.044770878

layer2.res.1.running_mean f4 [16]
00000000: 9f0e 4c3c 1280 d6bd 963d 253e 6072 abbe
00000010: 56ca 9fbd 9084 6fbc 3b18 30bd d98b 66be
00000020: 7e7d b33d 0fc3 ff3c 74cd 88bd cc24 073e
00000030: 3c82 6fbd 44e1 9e3e 8d80 313d 8d05 fe3d
0.012454658 -0.10473646 0.16136774 -0.334857 -0.078022644 -0.014619008 -0.042991858 -0.22514285
0.0876417 0.03122094 -0.06679812 0.1319763 -0.05847381 0.3103124 0.043335486 0.124034025

layer2.res.1.running_var f4 [16]
00000000: d7f4 8c3c 2a7c 223d 4378 2e3c 8413 b73d
00000010: 4ac1 813c 6220 703d 861f ff3c e69a d23d
00000020: 849f 1a3c 6209 2d3d 2c57 a73b 90f7 de3b
00000030: 9461 c23c 7da6 d83d 9613 bd3c 0ead ca3d
0.017206592 0.039669193 0.01064879 0.08939269 0.015839238 0.058624633 0.031142961 0.10283451
0.009437446 0.042245276 0.0051068272 0.006804414 0.02372817 0.1057863 0.023080628 0.09896289

fc.weight f4 [5, 16]
00000000: 5deb c03e 879e 753e 93fc 1ebe 5394 9abe
00000010: 8220 40be 2bcc 023f 5df3 c5be 82cc 633e
00000020: c7cc 9fbe 999e ac3e 0c37 3ebf 0a8d 4bbf
00000030: 4231 d7be 4537 003e 5e01 6b3e bc69 93bd
00000040: 4fe1 34bf 327f 483f 7c55 28be 2612 0d3f
00000050: fe1a 903e 5a85 9b3e 5334 10bf d2e0 8a3e
00000060: 6328 adbe 3d7d f73e bad8 3bbc c435 f73d
00000070: 7f55 eebe c549 1fbf a8c4 43bf 34d8 013e
00000080: 4e08 35be fa5e 16bd 1c69 7f3e 5c25 b5be
00000090: aed1 2bbf efde 44bf adb2 b03e 3dc8 7bbd
000000a0: 74e5 44bd 2df6 b7be 6a55 f43d 9617 dd3e
000000b0: 2eff e63e dc71 c7be 1ff5 bb3e 0b75 41bf
000000c0: 9750 333f 8b47 13bf 8e7b 59bf b1d4 cd3e
000000d0: 0827 cd3d 46f7 8a3e 67df b63e 895b 013f
000000e0: b214 2dbf 158a 813e e3d2 823e 28cf d4be
000000f0: 3712 b13d 49db ae3d 691e 48be c1ae a13e
00000100: 58d4 1fbf 7693 9abe d218 0a3f 14c3 31be
00000110: dd24 3cbf 9230 86bd a3bb 9ebe 37ac 84bf
00000120: 41da 223f 14ba 3ebf b555 243e 2486 163f
00000130: 852f 22be 789e 373f aa8f 58be 77cd 5dbf
0.37679568 0.23986255 -0.15526037 -0.30191287 -0.18762401 0.51092786 -0.38662234 0.22245982
-0.3121092 0.3371475 -0.74302745 -0.79512084 -0.42029768 0.12521084 0.2294974 -0.071979016
-0.70656294 0.78319085 -0.1643886 0.5510582 0.28145593 0.30375177 -0.5632984 0.2712465
-0.33819875 0.48337737 -0.011465246 0.12070802 -0.46549603 -0.6222194 -0.7647195 0.12680131
-0.17678949 -0.03671167 0.2494244 -0.35380065 -0.6711682 -0.7690267 0.3451132 -0.06147026
-0.048070386 -0.35930005 0.11930354 0.43182057 0.45116562 -0.38954055 0.3671045 -0.7556922
0.70044845 -0.5753104 -0.84954154 0.40201333 0.1001721 0.2714178 0.35717317 0.50530297
-0.67609704 0.2530066 0.2555152 -0.41564298 0.08646052 0.08537919 -0.1954285 0.3157864
-0.62433386 -0.3019063 0.5394412 -0.17359573 -0.7349375 -0.06552233 -0.3100253 -1.0365056
0.6361428 -0.7450268 0.1604832 0.5879843 -0.1583844 0.7172618 -0.21148553 -0.8664164

fc.bias f4 [5]
00000000: 661a ec3d c5e1 8cbd b0f3 14be 7e98 d3be
00000010: 7dfe 7c3e
0.115284726 -0.068789996 -0.14546084 -0.4132728 0.24706455
