best_models_stgcn/best_model_0.6726.pth (torch, 21674 bytes, 32 tensors)

layer1.A f4 [21, 21]
00000000: 0000 803f 0000 803f 0000 0000 0000 0000
00000010: 0000 0000 0000 803f 0000 0000 0000 0000
00000020: 0000 0000 0000 803f 0000 0000 0000 0000
00000030: 0000 0000 0000 803f 0000 0000 0000 0000
00000040: 0000 0000 0000 803f 0000 0000 0000 0000
00000050: 0000 0000 0000 803f 0000 803f 0000 803f
00000060: 0000 0000 0000 0000 0000 0000 0000 0000
00000070: 0000 0000 0000 0000 0000 0000 0000 0000
00000080: 0000 0000 0000 0000 0000 0000 0000 0000
00000090: 0000 0000 0000 0000 0000 0000 0000 0000
000000a0: 0000 0000 0000 0000 0000 0000 0000 803f
000000b0: 0000 803f 0000 803f 0000 0000 0000 0000
000000c0: 0000 0000 0000 0000 0000 0000 0000 0000
000000d0: 0000 0000 0000 0000 0000 0000 0000 0000
000000e0: 0000 0000 0000 0000 0000 0000 0000 0000
000000f0: 0000 0000 0000 0000 0000 0000 0000 0000
00000100: 0000 0000 0000 803f 0000 803f 0000 803f
00000110: 0000 0000 0000 0000 0000 0000 0000 0000
00000120: 0000 0000 0000 0000 0000 0000 0000 0000
00000130: 0000 0000 0000 0000 0000 0000 0000 0000
00000140: 0000 0000 0000 0000 0000 0000 0000 0000
00000150: 0000 0000 0000 0000 0000 0000 0000 803f
00000160: 0000 803f 0000 0000 0000 0000 0000 0000
00000170: 0000 0000 0000 0000 0000 0000 0000 0000
00000180: 0000 0000 0000 0000 0000 0000 0000 0000
00000190: 0000 0000 0000 0000 0000 0000 0000 0000
000001a0: 0000 0000 0000 803f 0000 0000 0000 0000
000001b0: 0000 0000 0000 0000 0000 803f 0000 803f
000001c0: 0000 0000 0000 0000 0000 803f 0000 0000
000001d0: 0000 0000 0000 0000 0000 0000 0000 0000
000001e0: 0000 0000 0000 0000 0000 0000 0000 0000
000001f0: 0000 0000 0000 0000 0000 0000 0000 0000
00000200: 0000 0000 0000 0000 0000 0000 0000 803f
00000210: 0000 803f 0000 803f 0000 0000 0000 0000
00000220: 0000 0000 0000 0000 0000 0000 0000 0000
00000230: 0000 0000 0000 0000 0000 0000 0000 0000
00000240: 0000 0000 0000 0000 0000 0000 0000 0000
00000250: 0000 0000 0000 0000 0000 0000 0000 0000
00000260: 0000 0000 0000 803f 0000 803f 0000 803f
00000270: 0000 0000 0000 0000 0000 0000 0000 0000
00000280: 0000 0000 0000 0000 0000 0000 0000 0000
00000290: 0000 0000 0000 0000 0000 0000 0000 0000
000002a0: 0000 0000 0000 0000 0000 0000 0000 0000
000002b0: 0000 0000 0000 0000 0000 0000 0000 803f
000002c0: 0000 803f 0000 0000 0000 0000 0000 0000
000002d0: 0000 0000 0000 0000 0000 0000 0000 0000
000002e0: 0000 0000 0000 0000 0000 0000 0000 0000
000002f0: 0000 0000 0000 803f 0000 0000 0000 0000
00000300: 0000 0000 0000 0000 0000 803f 0000 0000
00000310: 0000 0000 0000 0000 0000 803f 0000 803f
00000320: 0000 0000 0000 0000 0000 803f 0000 0000
00000330: 0000 0000 0000 0000 0000 0000 0000 0000
00000340: 0000 0000 0000 0000 0000 0000 0000 0000
00000350: 0000 0000 0000 0000 0000 0000 0000 0000
00000360: 0000 0000 0000 0000 0000 0000 0000 803f
00000370: 0000 803f 0000 803f 0000 0000 0000 0000
00000380: 0000 0000 0000 0000 0000 0000 0000 0000
00000390: 0000 0000 0000 0000 0000 0000 0000 0000
000003a0: 0000 0000 0000 0000 0000 0000 0000 0000
000003b0: 0000 0000 0000 0000 0000 0000 0000 0000
000003c0: 0000 0000 0000 803f 0000 803f 0000 803f
000003d0: 0000 0000 0000 0000 0000 0000 0000 0000
000003e0: 0000 0000 0000 0000 0000 0000 0000 0000
000003f0: 0000 0000 0000 0000 0000 0000 0000 0000
1.0 1.0 0.0 0.0 0.0 1.0 0.0 0.0
0.0 1.0 0.0 0.0 0.0 1.0 0.0 0.0
0.0 1.0 0.0 0.0 0.0 1.0 1.0 1.0
0.0 0.0 0.0 0.0 0.0 0.0 0.0 0.0
0.0 0.0 0.0 0.0 0.0 0.0 0.0 0.0
0.0 0.0 0.0 1.0 1.0 1.0 0.0 0.0
0.0 0.0 0.0 0.0 0.0 0.0 0.0 0.0
0.0 0.0 0.0 0.0 0.0 0.0 0.0 0.0
0.0 1.0 1.0 1.0 0.0 0.0 0.0 0.0
0.0 0.0 0.0 0.0 0.0 0.0 0.0 0.0
0.0 0.0 0.0 0.0 0.0 0.0 0.0 1.0
1.0 0.0 0.0 0.0 0.0 0.0 0.0 0.0
0.0 0.0 0.0 0.0 0.0 0.0 0.0 0.0
0.0 1.0 0.0 0.0 0.0 0.0 1.0 1.0
0.0 0.0 1.0 0.0 0.0 0.0 0.0 0.0
0.0 0.0 0.0 0.0 0.0 0.0 0.0 0.0
0.0 0.0 0.0 1.0 1.0 1.0 0.0 0.0
0.0 0.0 0.0 0.0 0.0 0.0 0.0 0.0
0.0 0.0 0.0 0.0 0.0 0.0 0.0 0.0
0.0 1.0 1.0 1.0 0.0 0.0 0.0 0.0
0.0 0.0 0.0 0.0 0.0 0.0 0.0 0.0
0.0 0.0 0.0 0.0 0.0 0.0 0.0 1.0
1.0 0.0 0.0 0.0 0.0 0.0 0.0 0.0
0.0 0.0 0.0 0.0 0.0 1.0 0.0 0.0
0.0 0.0 1.0 0.0 0.0 0.0 1.0 1.0
0.0 0.0 1.0 0.0 0.0 0.0 0.0 0.0
0.0 0.0 0.0 0.0 0.0 0.0 0.0 0.0
0.0 0.0 0.0 1.0 1.0 1.0 0.0 0.0
0.0 0.0 0.0 0.0 0.0 0.0 0.0 0.0
0.0 0.0 0.0 0.0 0.0 0.0 0.0 0.0
0.0 1.0 1.0 1.0 0.0 0.0 0.0 0.0
0.0 0.0 0.0 0.0 0.0 0.0 0.0 0.0

layer1.gcn.weight f4 [8, 3, 1, 1]
00000000: bbf3 f1be db28 91be 9186 46be d242 3cbe
00000010: 5469 c8be 0fa7 903e e52d 45be 5cff b4be
00000020: 5892 15bf 5e28 96be 06a7 f53e 2bc5 983e
00000030: 510c eabe fbbf ea3d 14fe 173f b943 d1be
00000040: 71db a03e 4d0b 0e3f a670 94be f687 f7be
00000050: 07f3 5e3f 0325 0b3d 628e ab3e fefa 233e
-0.47256264 -0.28351483 -0.1938727 -0.18384865 -0.3914286 0.28252456 -0.19255789 -0.35351074
-0.5842643 -0.29327673 0.4797899 0.29837927 -0.45712522 0.114623986 0.5937207 -0.4087198
0.3141742 0.55485994 -0.28992194 -0.48345917 0.8708958 0.033970844 0.33507067 0.16013715

layer1.gcn.bias f4 [8]
00000000: 0749 bc3e aa80 913e f136 c83c 9eae 303f
00000010: 6101 0e3e 3409 3ebd 6456 a5be 1d8d cabe
0.36774465 0.28418475 0.02444026 0.69016445 0.13867714 -0.046395496 -0.32292473 -0.39560786

layer1.tcn.weight f4 [8, 8, 3, 1]
00000000: 0d51 2f3e ced7 c1bd 7e20 993d 7466 fbbd
00000010: a2e7 7dbd e1fb 9bbd 974a 9b3d df60 dd3d
00000020: 7ce7 e73a f3ea 4b3d aff9 393d 76af 13be
00000030: 04d0 03be 5922 1bbe e705 f63c cadb ce3c
00000040: 67d9 e9bd f126 7cbd 7cc5 8fbe 09c0 bdbd
00000050: 7f24 77bc 5969 92ba 62bc 1c3e ec30 933c
00000060: 8409 31be a1e8 c83c f8b4 163d ae3e 1cbe
00000070: 81cf 82be 1840 f0bd a53c 2a3e 4009 87bd
00000080: 02d7 17be 12e2 b0bd 08aa 3fbe 1485 0cbe
00000090: 9df5 b2bd a93c d33c 7b83 1bbe 2c32 153d
000000a0: c688 93bd e8ff 72bc fcf7 0abd 52f8 a1be
000000b0: 6ecb bd3d da08 8abd dcd6 c0bd afd2 133d
000000c0: 307a 8b3d 8b47 363e c662 353e 8795 073d
000000d0: e65b 1ebc cd6c 103e a807 733e 68a3 503e
000000e0: cb2a 70bd c12d 2d3e a790 053e a42c 983d
000000f0: b2d2 f2bd ac89 8b3d 030b 103e 1260 35bc
00000100: 9d7c 88bc a7d1 a03c 9a5d 723d 0a9e c6bc
00000110: f7b0 a73d c488 c13d 68a2 7ebe e520 a3bd
00000120: 92d6 98bd d8a2 e83c 618d 6bbe 947d d03c
00000130: 6c4b bbbd a922 653e 7fa6 e9bd 612f cfbd
00000140: bff6 1cbe 02c9 153c 67f4 e4bd e309 a53d
00000150: dac6 47bd dd0f 193e c321 0e3e 9eb7 ba3d
00000160: f475 4a3e 79e3 1dbc 01c4 0c3e 086e 79bd
00000170: f0cc e83d 70e7 183c bc62 64bd 4170 a4bd
00000180: 160d 19be 6aaf a43d ebf9 b1bd 28b7 413d
00000190: 9485 1d3e 9a17 0b3e c720 3abd be33 a7bc
000001a0: 9f97 323d 2b0f 423d f336 663d ca1f 333e
000001b0: 5fa1 743e b2d3 68bc 4603 243d 8733 a83e
000001c0: 202e 903e 778b b23e 1bf1 89bd ec69 493d
000001d0: ff73 91bc fff6 4e3e 93d1 0a3e 189e a23d
000001e0: 35a7 5b3e 31ac d8bd bf1b 3d3e f4ce a8bd
000001f0: c317 d43c deff 2c3e d542 b33d 1a2a 2d3e
00000200: f699 ba3c b43a 8a3d c7b5 eb3d 3d85 423e
00000210: a146 473c 09bb c83d 8ebf d6bd 6932 39bd
00000220: dd10 363d 81b1 1fbe d5d1 e23c 2f8c 213e
00000230: 6d79 163e c623 00be 3d93 f3bd df38 2dbe
00000240: aec5 28be e819 c1bd 3c8a 963d ccba 0dbb
00000250: e448 2ebe b161 9b3d a248 bcbd 49b2 e1bd
00000260: b472 18be 0919 31be 3800 c23d 8562 efbd
00000270: 5a91 a0be 9d96 c4be 68ff 8f3d c58f a83c
00000280: 7a8c bebc 2cd0 2cbe 8a10 e03d 8323 6a3e
00000290: b4f2 d7bd 86d0 073e 3d80 a7bd 9e17 2bbc
000002a0: fa38 6bbc 9e3b 19be ca70 0a3e c18b f63c
000002b0: dfd6 18bd ccf5 cabd 44c2 ccbc f820 053d
000002c0: ccd8 88bd 3692 153e 9128 fdbe 9766 7cbd
000002d0: aa20 73bd 8e5e 343d 63c6 c43d 5c42 c2bd
000002e0: 755a 64be bcd4 52bd 41be 0b3e 18cd 2f3e
000002f0: 007f 163b ebaa a73b c85c 61be 07f4 10bb
0.17120762 -0.094649896 0.074769005 -0.12275401 -0.06198848 -0.076164015 0.07582586 0.10809492
0.0017692889 0.049784612 0.045404132 -0.14422402 -0.1287232 -0.15149821 0.030032111 0.025251288
-0.11418419 -0.061560575 -0.28080356 -0.092651434 -0.015084385 -0.0011170312 0.15306237 0.017967664
-0.17288786 0.024524989 0.03679368 -0.15258285 -0.25548938 -0.11730975 0.16624697 -0.06593561
-0.14828113 -0.086368695 -0.18717206 -0.1372264 -0.08738253 0.025785761 -0.15186875 0.0364248
-0.07203822 -0.014831521 -0.033927903 -0.31634766 0.09267317 -0.067399696 -0.09415981 0.036089595
0.06810415 0.17800729 0.1771346 0.033101585 -0.009665465 0.14104004 0.2373339 0.20374835
-0.05863456 0.16911985 0.13043462 0.074303895 -0.11856593 0.06813368 0.140667 -0.011070268
-0.016660983 0.01963122 0.059171297 -0.02424528 0.0818805 0.09449914 -0.2486664 -0.079652585
-0.07462801 0.028397962 -0.2300315 0.025450505 -0.09145245 0.22376503 -0.1140871 -0.10116459
-0.15328501 0.009142162 -0.111794285 0.08058526 -0.048773624 0.14947458 0.13880067 0.091170534
0.19771558 -0.009636753 0.13746645 -0.06089595 0.11367214 0.009332523 -0.055758223 -0.08029223
-0.14946398 0.0804127 -0.08690246 0.047293812 0.15382987 0.13583222 -0.045441415 -0.020410415
0.04360163 0.047377747 0.056204747 0.17492595 0.23889683 -0.014210628 0.040042184 0.32851812
0.2816019 0.34872028 -0.0673544 0.04917328 -0.017755507 0.20211409 0.13556509 0.0794031
0.21450503 -0.10579718 0.18467616 -0.08242598 0.025890237 0.1689448 0.087529816 0.16910592
0.022778492 0.06749478 0.11509281 0.18996139 0.012162835 0.09801299 -0.10485755 -0.04521409
0.044449676 -0.15595056 0.027687946 0.15776132 0.14694758 -0.12513646 -0.11893318 -0.16916226
-0.16481659 -0.09428769 0.07350585 -0.0021626232 -0.17019993 0.075869925 -0.09193541 -0.11020333
-0.14887506 -0.17294706 0.09472698 -0.11688713 -0.31360894 -0.3839616 0.07031137 0.020576367
-0.023260344 -0.16876286 0.109406546 0.22865109 -0.10544339 0.13263139 -0.081787564 -0.0104426425
-0.014356846 -0.14964148 0.13519588 0.030095937 -0.037314292 -0.09910163 -0.024994977 0.032502145
-0.06681976 0.14606556 -0.49445012 -0.061621275 -0.059357323 0.044035487 0.09608152 -0.09485313
-0.22300132 -0.05147241 0.13646795 0.17168081 0.0022963881 0.0051168106 -0.2200805 -0.0022118108

layer1.tcn.bias f4 [8]
00000000: 3678 cbb9 32e2 153a b9b8 f539 2e84 45b9
00000010: 59ec dfb9 1efc d637 132c 93b8 54db afb8
-0.0003880874 0.00057176047 0.0004686767 -0.00018836625 -0.00042709967 2.562819e-05 -7.017716e-05 -8.385503e-05

layer1.bn.weight f4 [8]
00000000: db18 373f 6480 633f 21cc 263f b4dd 8a3f
00000010: 510f 5c3f 4767 5d3f c4af 433f b8ae 563f
0.715223 0.88867784 0.65155226 1.0848908 0.8596087 0.86485714 0.7644007 0.8386035

layer1.bn.bias f4 [8]
00000000: 0431 76bd 117f f5be 6e03 7ebd da18 93bd
00000010: 705f 92be 483a fdbd e3d9 ab3c 8a9b 6fbe
-0.06010534 -0.47948506 -0.06201499 -0.071824744 -0.28588438 -0.12364632 0.02097792 -0.23399177

layer1.bn.running_mean f4 [8]
00000000: ab79 263f f1f8 223f 8d5b 38bf 6dd9 02be
00000010: f923 67be b0c5 40bf ecb9 c93e ef16 23bf
0.650294 0.63661104 -0.72014695 -0.12778254 -0.22572316 -0.7530165 0.3939966 -0.6370687

layer1.bn.running_var f4 [8]
00000000: dc95 143d 9fb2 913d f2c9 c83d 6460 6d3c
00000010: 0d43 953e 3de9 f43d 5e12 b23d a2f6 163e
0.03627573 0.071141474 0.09804143 0.014488313 0.29152718 0.11958549 0.086949095 0.1474252

layer1.res.0.weight f4 [8, 3, 1, 1]
00000000: 7a70 8a3e 88ce c03e 8a4b 17bf 1e47 843e
00000010: b88e 8bbe a511 993e 8d1f 89bd fb3d c2bc
00000020: 04fe ebbe 1b3b 2d3e 0d11 26bf cb35 603e
00000030: bb98 1cbc 080d 03bf e984 98be c2ba b33e
00000040: b931 ecbe 3106 af3e 2710 3dbd f0fd 1d3e
00000050: 116e 313f 8381 073e 468a 0c3f 779d 073e
0.27038938 0.3765757 -0.5909964 0.25835508 -0.27257323 0.29896274 -0.06695471 -0.023711195
-0.46092236 0.16917078 -0.6486977 0.2189552 -0.009557898 -0.5119176 -0.29788902 0.35103422
-0.46131685 0.3418441 -0.046157982 0.154289 0.69308573 0.13232999 0.5489849 0.13243662

layer1.res.0.bias f4 [8]
00000000: f647 bbb9 7d95 773a 80aa a03a 2e5a 8db9
00000010: a45d efb9 97ec cab9 a038 c43a f012 84b9
-0.00035721035 0.0009444578 0.0012257844 -0.00026960805 -0.000456554 -0.00038704716 0.0014970489 -0.00025191111

layer1.res.1.weight f4 [8]
00000000: 8f99 9f3f df89 823f 60a2 8a3f a9b1 603f
00000010: 382a 8c3f 25ee 7d3f 829b 8a3f 3427 8c3f
1.2468737 1.0198325 1.0830803 0.8777109 1.0950384 0.99191505 1.0828707 1.0949464

layer1.res.1.bias f4 [8]
00000000: 6724 e43d a3c1 15bf 982b 8fbd 83dc 7fbe
00000010: 4b71 05bf ce91 b73d a30a a83d b0db e0be
0.11139756 -0.5849859 -0.06990737 -0.24986462 -0.52125996 0.08963357 0.08205154 -0.43917608

layer1.res.1.running_mean f4 [8]
00000000: c086 b33e 12bd fe3c 8dbc 38bd 86a5 48be
00000010: 6e66 72be 15b2 823b 4684 053d bbf9 a93e
0.35063744 0.031096015 -0.04510169 -0.19594392 -0.23671886 0.003988514 0.03259685 0.33198342

layer1.res.1.running_var f4 [8]
00000000: 82d5 9a3c 014b 373c 7d93 b939 8197 1d3d
00000010: 7c02 b53c bfe3 de3c fafa 193b cdcf db3c
0.018900637 0.011187316 0.00035395837 0.038474564 0.022095911 0.027208207 0.002349554 0.026832486

layer2.A f4 [21, 21]
00000000: 0000 803f 0000 803f 0000 0000 0000 0000
00000010: 0000 0000 0000 803f 0000 0000 0000 0000
00000020: 0000 0000 0000 803f 0000 0000 0000 0000
00000030: 0000 0000 0000 803f 0000 0000 0000 0000
00000040: 0000 0000 0000 803f 0000 0000 0000 0000
00000050: 0000 0000 0000 803f 0000 803f 0000 803f
00000060: 0000 0000 0000 0000 0000 0000 0000 0000
00000070: 0000 0000 0000 0000 0000 0000 0000 0000
00000080: 0000 0000 0000 0000 0000 0000 0000 0000
00000090: 0000 0000 0000 0000 0000 0000 0000 0000
000000a0: 0000 0000 0000 0000 0000 0000 0000 803f
000000b0: 0000 803f 0000 803f 0000 0000 0000 0000
000000c0: 0000 0000 0000 0000 0000 0000 0000 0000
000000d0: 0000 0000 0000 0000 0000 0000 0000 0000
000000e0: 0000 0000 0000 0000 0000 0000 0000 0000
000000f0: 0000 0000 0000 0000 0000 0000 0000 0000
00000100: 0000 0000 0000 803f 0000 803f 0000 803f
00000110: 0000 0000 0000 0000 0000 0000 0000 0000
00000120: 0000 0000 0000 0000 0000 0000 0000 0000
00000130: 0000 0000 0000 0000 0000 0000 0000 0000
00000140: 0000 0000 0000 0000 0000 0000 0000 0000
00000150: 0000 0000 0000 0000 0000 0000 0000 803f
00000160: 0000 803f 0000 0000 0000 0000 0000 0000
00000170: 0000 0000 0000 0000 0000 0000 0000 0000
00000180: 0000 0000 0000 0000 0000 0000 0000 0000
00000190: 0000 0000 0000 0000 0000 0000 0000 0000
000001a0: 0000 0000 0000 803f 0000 0000 0000 0000
000001b0: 0000 0000 0000 0000 0000 803f 0000 803f
000001c0: 0000 0000 0000 0000 0000 803f 0000 0000
000001d0: 0000 0000 0000 0000 0000 0000 0000 0000
000001e0: 0000 0000 0000 0000 0000 0000 0000 0000
000001f0: 0000 0000 0000 0000 0000 0000 0000 0000
00000200: 0000 0000 0000 0000 0000 0000 0000 803f
00000210: 0000 803f 0000 803f 0000 0000 0000 0000
00000220: 0000 0000 0000 0000 0000 0000 0000 0000
00000230: 0000 0000 0000 0000 0000 0000 0000 0000
00000240: 0000 0000 0000 0000 0000 0000 0000 0000
00000250: 0000 0000 0000 0000 0000 0000 0000 0000
00000260: 0000 0000 0000 803f 0000 803f 0000 803f
00000270: 0000 0000 0000 0000 0000 0000 0000 0000
00000280: 0000 0000 0000 0000 0000 0000 0000 0000
00000290: 0000 0000 0000 0000 0000 0000 0000 0000
000002a0: 0000 0000 0000 0000 0000 0000 0000 0000
000002b0: 0000 0000 0000 0000 0000 0000 0000 803f
000002c0: 0000 803f 0000 0000 0000 0000 0000 0000
000002d0: 0000 0000 0000 0000 0000 0000 0000 0000
000002e0: 0000 0000 0000 0000 0000 0000 0000 0000
000002f0: 0000 0000 0000 803f 0000 0000 0000 0000
00000300: 0000 0000 0000 0000 0000 803f 0000 0000
00000310: 0000 0000 0000 0000 0000 803f 0000 803f
00000320: 0000 0000 0000 0000 0000 803f 0000 0000
00000330: 0000 0000 0000 0000 0000 0000 0000 0000
00000340: 0000 0000 0000 0000 0000 0000 0000 0000
00000350: 0000 0000 0000 0000 0000 0000 0000 0000
00000360: 0000 0000 0000 0000 0000 0000 0000 803f
00000370: 0000 803f 0000 803f 0000 0000 0000 0000
00000380: 0000 0000 0000 0000 0000 0000 0000 0000
00000390: 0000 0000 0000 0000 0000 0000 0000 0000
000003a0: 0000 0000 0000 0000 0000 0000 0000 0000
000003b0: 0000 0000 0000 0000 0000 0000 0000 0000
000003c0: 0000 0000 0000 803f 0000 803f 0000 803f
000003d0: 0000 0000 0000 0000 0000 0000 0000 0000
000003e0: 0000 0000 0000 0000 0000 0000 0000 0000
000003f0: 0000 0000 0000 0000 0000 0000 0000 0000
1.0 1.0 0.0 0.0 0.0 1.0 0.0 0.0
0.0 1.0 0.0 0.0 0.0 1.0 0.0 0.0
0.0 1.0 0.0 0.0 0.0 1.0 1.0 1.0
0.0 0.0 0.0 0.0 0.0 0.0 0.0 0.0
0.0 0.0 0.0 0.0 0.0 0.0 0.0 0.0
0.0 0.0 0.0 1.0 1.0 1.0 0.0 0.0
0.0 0.0 0.0 0.0 0.0 0.0 0.0 0.0
0.0 0.0 0.0 0.0 0.0 0.0 0.0 0.0
0.0 1.0 1.0 1.0 0.0 0.0 0.0 0.0
0.0 0.0 0.0 0.0 0.0 0.0 0.0 0.0
0.0 0.0 0.0 0.0 0.0 0.0 0.0 1.0
1.0 0.0 0.0 0.0 0.0 0.0 0.0 0.0
0.0 0.0 0.0 0.0 0.0 0.0 0.0 0.0
0.0 1.0 0.0 0.0 0.0 0.0 1.0 1.0
0.0 0.0 1.0 0.0 0.0 0.0 0.0 0.0
0.0 0.0 0.0 0.0 0.0 0.0 0.0 0.0
0.0 0.0 0.0 1.0 1.0 1.0 0.0 0.0
0.0 0.0 0.0 0.0 0.0 0.0 0.0 0.0
0.0 0.0 0.0 0.0 0.0 0.0 0.0 0.0
0.0 1.0 1.0 1.0 0.0 0.0 0.0 0.0
0.0 0.0 0.0 0.0 0.0 0.0 0.0 0.0
0.0 0.0 0.0 0.0 0.0 0.0 0.0 1.0
1.0 0.0 0.0 0.0 0.0 0.0 0.0 0.0
0.0 0.0 0.0 0.0 0.0 1.0 0.0 0.0
0.0 0.0 1.0 0.0 0.0 0.0 1.0 1.0
0.0 0.0 1.0 0.0 0.0 0.0 0.0 0.0
0.0 0.0 0.0 0.0 0.0 0.0 0.0 0.0
0.0 0.0 0.0 1.0 1.0 1.0 0.0 0.0
0.0 0.0 0.0 0.0 0.0 0.0 0.0 0.0
0.0 0.0 0.0 0.0 0.0 0.0 0.0 0.0
0.0 1.0 1.0 1.0 0.0 0.0 0.0 0.0
0.0 0.0 0.0 0.0 0.0 0.0 0.0 0.0

layer2.gcn.weight f4 [16, 8, 1, 1]
00000000: 9d80 f83c 123c a1be 54e0 3d3e a05d 983c
00000010: b544 9ebe 9fa6 81be b07c 0fbe 7aa6 703e
00000020: 98ed 013d 785a b7be 9ea3 883c 9832 89be
00000030: 73e8 383d ed8b d33d 94e4 bd3e 5827 98be
00000040: 438d 073d 4798 8f3d 461a 0ebe df42 983e
00000050: 34a6 1bbd f6ed 8c3c 1fae 8dbe 6774 55be
00000060: cd09 ec3c 0e03 7e3e d3cb 36bd 37c9 27be
00000070: 0aa5 943e 4981 383e f014 5c3d 2c7f 2abd
00000080: 20b1 29be ca5d e0be f081 e73d a6a3 073e
00000090: fdd3 eb3d ccf5 0b3e a28c 8cbe 2f6f 8dbe
000000a0: 9837 923d bd8f 1b3e 1339 513e e6f0 193c
000000b0: d1a0 683e 75fa 7ebe 0a0d 8abd 323c e7be
000000c0: b479 17be 7b80 ad3e c3fe 9a3c dd4d d1bc
000000d0: 3525 573d 0752 ffbb 7061 90bc 7dff 3d3d
000000e0: b4f2 16be 150f 3abe f5ce 4d3e 235c 72be
000000f0: 3ae9 adbd 96b3 44bd 346d 23bd af2d 113e
00000100: 3c1e 943e c332 c93d 3b4d d6bc 4421 5c3e
00000110: ef44 2abe 75b6 5e3d 3820 613d 8bcf b0be
00000120: ffeb db3d 0ec0 c6be d5af 61be 9007 133c
00000130: 521b e53e e1ba 4f3c 32bb 92bd a08e 74be
00000140: 2e17 493e 8114 8e3b cab2 37be 55e1 893d
00000150: a528 bdbe df0b bfbd e6e5 10be 4a41 98bd
00000160: 43e7 d0bd e111 03bf 47a7 ecbd fc01 e53d
00000170: 044a 73be 6dd7 623d 7f4b 2ebe dc56 263e
00000180: 6590 57bd bd39 e4bc 81aa a5bd ffe4 da3d
00000190: 9687 9b3e 54ee 3cbe 4346 5fbe cdbe 913e
000001a0: ef8e 3f3e bf78 c9bd e106 51be eec5 5bbe
000001b0: 4332 c3bd 0d5c 323e c15e 8e3e 15bc 82be
000001c0: 5ab9 883e 231c 18be b3a7 a93d bf73 0f3e
000001d0: 2ec5 443e 0226 91bd 20d9 87be 9904 433e
000001e0: e5b6 863e 1f34 c7be 3d86 7c3c 9c83 1f3d
000001f0: 3479 da3d e87d 803e cbef 5fbe 2fd7 d63c
0.030334765 -0.31491143 0.18542606 0.018599331 -0.30911794 -0.25322434 -0.14012408 0.23501006
0.031720728 -0.3581121 0.016679581 -0.26796412 0.045143556 0.10329423 0.37088454 -0.29717517
0.033093702 0.070114665 -0.1387721 0.2973852 -0.0380003 0.017203312 -0.27671906 -0.20845185
0.028813267 0.24805853 -0.044627976 -0.16385351 0.29032165 0.18018068 0.053730905 -0.041625187
-0.16571474 -0.43821555 0.113040805 0.1324602 0.11515043 0.13667983 -0.27451044 -0.2762389
0.0713951 0.1519155 0.20431928 0.009395814 0.22717597 -0.2490023 -0.06740768 -0.45163113
-0.1479252 0.33887085 0.018920308 -0.025549823 0.052525718 -0.007791761 -0.017624587 0.04638623
-0.14741021 -0.18169816 0.20098479 -0.2366796 -0.0849175 -0.04802283 -0.039899066 0.14177583
0.28929317 0.09824135 -0.026159873 0.21497065 -0.16627859 0.054373223 0.054962367 -0.34533343
0.10738372 -0.388184 -0.22039731 0.008973971 0.44747406 0.012678833 -0.07164611 -0.23882532
0.19637749 0.0043359403 -0.17939296 0.06732432 -0.36945072 -0.09328436 -0.141502 -0.07434328
-0.1020036 -0.51199156 -0.11555343 0.11182019 -0.23758703 0.055381227 -0.17020987 0.16244072
-0.05262794 -0.027859563 -0.08089162 0.10688209 0.3037688 -0.1845029 -0.21804146 0.28465882
0.18706869 -0.098374836 -0.2041278 -0.21462223 -0.09531071 0.17417927 0.27806666 -0.2553412
0.26703912 -0.14854483 0.08283939 0.14008997 0.19215843 -0.070873275 -0.2653284 0.19044723
0.26311412 -0.38906953 0.015412864 0.03894387 0.10667649 0.2509606 -0.21868818 0.026225654

layer2.gcn.bias f4 [16]
00000000: f6a6 d43d ebf3 63bd 0ad9 803d 8fe1 81be
00000010: 2dc6 b1bc 7729 4abe b442 a23c a7f7 813e
00000020: 59f9 d4bd e45f 133e 001c 3f3d c5f2 e23e
00000030: 390f 803d cd70 d7bd e007 4fbe 2f72 f9b9
0.10383408 -0.05565254 0.06291397 -0.253674 -0.021700943 -0.1974238 0.019807197 0.25384256
-0.10399122 0.14392048 0.046657562 0.44325843 0.062529035 -0.10519562 -0.20217848 -0.00047578054

layer2.tcn.weight f4 [16, 16, 3, 1]
00000000: 2a5a d0bd 1ce9 4c3d a0bf 803d 1337 1a3e
00000010: f387 533e b5f5 4a3e b43e d0bd 88e5 0bbe
00000020: 49d5 25bd 511e 913c a17a 2b3e 4b51 4a3e
00000030: d29d a13d bb91 573c c93a 43bc 71fd 98bc
00000040: 7acf cbbc 3ae1 13be 7bf3 8abc bf4a 783d
00000050: 01bd a7bc 2749 e33d 8059 bb3d 9217 743d
00000060: eefa e83d 86ed 4f3d fdb9 76bc db23 393d
00000070: dd19 4f3e e029 b03c 8d9d bfbd a699 8f3c
00000080: 388e a53c b420 903c 43f1 4b3e d840 5ebc
00000090: e0f9 f83d c79a 113c c90c 66bd 97f3 113d
000000a0: 1efd 8a3d ba02 20bd 45d1 e7bc 7d9f 8c3d
000000b0: abfa 193e 9918 833e ed42 463e df27 2c3e
000000c0: 831f 6a3c 5ed4 69bb b0c2 f93d 214f 20be
000000d0: d3ed 90bd 8df1 3abd 6ccd 033d 143d bebd
000000e0: e066 2bbe 13e4 84bd 0806 4c3d 5c40 b2bd
000000f0: 7ee7 a53d ecd8 53bb 7ed4 393d 630c 6dbc
00000100: 3ec2 31be 2fe2 29be c3aa a4bc b552 02be
00000110: d2fe 6d3d 3752 443e 2bde b73d d57a 62bd
00000120: df4e 2dbe aa84 3abe cd69 40be 54f4 b6bd
00000130: c7cf 703d 7f3a 99bc b607 033e 362c 813d
00000140: 2730 bbbd ed28 253e b97d a13d cb80 643d
00000150: a903 04bd c2e0 8bbc dffa 233e 6161 183d
00000160: 3309 983c b441 82bc 0dcf 33bd a564 213e
00000170: b465 333d c8a7 4abd e7b6 bbbd 50a8 8ebd
00000180: 1634 1a3c 4ab6 79bd 8a3d f7bb b8f5 3a3e
00000190: 3b42 d23d 4532 603e d853 27be 565b 93be
000001a0: 0791 f3bd 7b64 94bd 0831 983d c5a8 0bbd
000001b0: 1e8f cebd 62f8 b4bd 666e 74bd 168f ddbd
000001c0: 77d5 f7bd cc17 e9bd 9944 f53b ecb9 e7bc
000001d0: 5fd3 8bbd 83d9 3e3e 699d ee3d f442 373e
000001e0: e21c 4c3c 7c15 83bc bd51 65bd e684 8c3d
000001f0: 0839 f13c a3cd bc3c 2a74 37bd f1b3 b43c
00000200: 1f82 9cbc ca8b 1f3e 82e1 623e 68ce c03d
00000210: c3bc 073e 471c 723c 702b 1d3d bf74 933a
00000220: 7cfe 95bd 4277 9bbd 40fe 05be 0002 eabd
00000230: b8b6 1ebe bdef febd 2eff e0bb 1779 49bd
00000240: 8e50 afbd 0c9b b7bc cc28 20bb 9322 adbd
00000250: fa5e 963c a8b7 963d 33bc 773e a54e 883e
00000260: 5112 483e 59f8 a9bd 0569 f4bd bc32 ba3d
00000270: 8f1e a73d d5fb 74bc dbd7 0e3e fc7f acbc
00000280: caab c1bb f74d e43c ad5b a0bd c683 d23a
00000290: 0397 d0bd 46bf 56be 443b 80bd 1c5d 89be
000002a0: 93d6 07bb 7717 ebbc 7b3f c73d 9b94 e73d
000002b0: dc6b 453d f171 c33c 0612 cdbd 3536 70bd
000002c0: 5c22 3a3d 0baf 913d 63b1 c73c 46a6 cb3d
000002d0: d758 2ebd 5944 59bd 1847 22bd 9f89 8e3d
000002e0: 40af f23d 85af 673d 28d2 6e3d f3cf 0e3d
000002f0: c172 7d3d 8034 8bbd 2e81 573d 9f1e 4fbb
00000300: 7c9d 16bd 505c 0ebe 5059 0d3d eaae ebbc
00000310: 1d68 01be 3633 2abd 8b97 3e3d 568d ad3d
00000320: 57fd 0b3d 4b98 0c3d 8c9b 69bd eb69 313d
00000330: e439 ecbd 8ae3 6cbd 5b9d b0bc c705 81bc
00000340: 98c0 4b3c 0a0d aabb 4411 e53d 0c20 bb3d
00000350: 188b 9d3d a08c 2fbd 7645 403e d003 a0bd
00000360: c0ef fe3c 809e b33d 6dcf 52bd ee04 c7bd
00000370: a428 b3bd 07c5 9dbd d2a3 c2bd 8ff8 f43c
00000380: 7137 bb3c 6c22 2fbe 2f1f 12be a5f1 b0be
00000390: 0f11 a43c 2895 3f3c 5b1d 0d3d fb4e 9dbd
000003a0: 70b4 1f3d 3cd5 93bd e52b 533d bc4b 493d
000003b0: 11a7 cc3b 5bfc 31be c915 02be 6d32 4dbe
000003c0: 2fbb afbd 94e2 333c cba6 ebbd 8fb2 05bd
000003d0: b284 4abd d200 0e3e 3ecf fcbc 479c 07be
000003e0: 9e26 193e 6244 9abb 12c4 4d3d 9379 963d
000003f0: 2438 07bc dbcd 933d 9a46 5a3c def1 423e
-0.101734474 0.050026998 0.062865496 0.15060072 0.2065733 0.19820292 -0.1016821 -0.13661778
-0.040486608 0.017714651 0.16745998 0.19757573 0.0789143 0.013157303 -0.011915871 -0.018675538
-0.024879206 -0.14441386 -0.016961804 0.06061816 -0.020475866 0.11097937 0.0914793 0.05959279
0.11375986 0.05076363 -0.0150589915 0.04520021 0.2022471 0.021504343 -0.09356222 0.01752932
0.020209417 0.017593719 0.19916253 -0.013565265 0.12157035 0.008886999 -0.056164537 0.035632696
0.067865595 -0.0390651 -0.02829803 0.068663575 0.15037028 0.25604704 0.19361468 0.16812085
0.01428974 -0.003567956 0.12195337 -0.15655185 -0.07076611 -0.045640517 0.032178327 -0.092889935
-0.16738462 -0.06488814 0.04981044 -0.08703682 0.08100794 -0.003232534 0.045368664 -0.014468285
-0.17359254 -0.16590188 -0.020100957 -0.12726863 0.058104344 0.19171987 0.08977922 -0.055292923
-0.16924618 -0.1821467 -0.1879036 -0.08933321 0.058791902 -0.01870465 0.1279591 0.06307261
-0.09140044 0.16128893 0.07885308 0.05578689 -0.032230053 -0.017074946 0.16013668 0.037202243
0.018559074 -0.01590047 -0.04389863 0.15761049 0.043798164 -0.049476415 -0.09165745 -0.06965697
0.009411832 -0.06096486 -0.007545178 0.18257797 0.10266539 0.21894176 -0.16340578 -0.2878062
-0.11892896 -0.07245728 0.07431227 -0.034096498 -0.10085891 -0.08836438 -0.059675597 -0.10818307
-0.12101262 -0.11381492 0.007484984 -0.028286897 -0.06827425 0.18637662 0.11651117 0.17896634
0.012458058 -0.016001455 -0.055986155 0.06861286 0.02944614 0.023047274 -0.044788517 0.022058459
-0.019105015 0.15580669 0.22156337 0.09414369 0.132556 0.01477725 0.038371503 0.0011250003
-0.0732393 -0.07591106 -0.1308527 -0.11426163 -0.15499389 -0.1244807 -0.0068663573 -0.049187746
-0.085602865 -0.0224128 -0.002443838 -0.0845386 0.018355835 0.073592484 0.24192886 0.266225
0.19538237 -0.08299322 -0.119340934 0.09091708 0.081601255 -0.01495262 0.1394953 -0.021057121
-0.0059103714 0.027869208 -0.07829986 0.0016061 -0.10185053 -0.20971403 -0.06261304 -0.2682885
-0.0020727261 -0.028697712 0.09728905 0.11307641 0.048198566 0.023858042 -0.10013203 -0.058645446
0.045442924 0.07113465 0.024376577 0.099438235 -0.042565193 -0.053043697 -0.03961858 0.06959843
0.118498325 0.056563873 0.05830589 0.034866285 0.061877016 -0.06797123 0.05261343 -0.0031603945
-0.036771283 -0.13902402 0.034509003 -0.028769929 -0.12637372 -0.041552745 0.04653124 0.08474223
0.03417715 0.034324925 -0.057033107 0.043313902 -0.11534479 -0.057834186 -0.021559408 -0.015749825
0.012436055 -0.0051895427 0.11184934 0.09136972 0.07692546 -0.04285872 0.18776497 -0.07813227
0.031120181 0.08770466 -0.051467348 -0.09717737 -0.08747986 -0.077035956 -0.095039025 0.029903678
0.022853585 -0.17102975 -0.14269708 -0.3455936 0.020027665 0.011693276 0.034451824 -0.0768108
0.038990438 -0.072184056 0.051555533 0.04914449 0.006245502 -0.17381422 -0.12703623 -0.20038767
-0.08580624 0.010979313 -0.115064226 -0.03264099 -0.049442954 0.138675 -0.03086054 -0.13243209
0.14956138 -0.004707859 0.050235815 0.07347407 -0.008253131 0.07216998 0.013322497 0.19037578

layer2.tcn.bias f4 [16]
00000000: 6d9a b938 ffc8 94b7 c566 7436 97b6 deb7
00000010: 4d5b 71b8 e599 77b8 25cd 6036 a4c6 4a38
00000020: fdb6 1a39 ba2d b6b7 d3bb deb7 4ce1 90b7
00000030: ee7a 03b8 a11b 1038 f2c7 74b9 3f5e 7ab8
8.8502515e-05 -1.7736571e-05 3.6418653e-06 -2.6549487e-05 -5.7543908e-05 -5.9032714e-05 3.349801e-06 4.834555e-05
0.00014754753 -2.1717384e-05 -2.6551925e-05 -1.727105e-05 -3.134732e-05 3.4358007e-05 -0.00023344139 -5.969242e-05

layer2.bn.weight f4 [16]
00000000: 0a62 c23f 124e 9c3f 7724 c43f af77 c43f
00000010: 7914 d43f 08f8 da3f baab d13f 86b2 e33f
00000020: f0a4 d43f 3cc2 b23f 34a6 bf3f 2101 ad3f
00000030: 5ba2 d43f 2a34 a63f c6cb b53f cb1a c93f
1.5186169 1.2211325 1.5323628 1.5349025 1.6568748 1.7106943 1.6380532 1.7788856
1.6612835 1.3965526 1.4972596 1.351597 1.6612047 1.2984669 1.4202812 1.5711302

layer2.bn.bias f4 [16]
00000000: bc51 6d3e 99ed 753c 2e88 9a3e 3ca6 423e
00000010: cdad 283e bcf8 a83e 16e1 873e 9916 923e
00000020: bd79 f93d 2a80 ba3d 5b0f 2f3e cddd e43c
00000030: eee0 233e 72ac 713e a40a 453e 71e9 d43d
0.2317571 0.015010261 0.30182022 0.19008726 0.1647255 0.3300227 0.26538914 0.28532866
0.12181423 0.091064766 0.17095701 0.027937794 0.16003773 0.23600939 0.1924234 0.10396088

layer2.bn.running_mean f4 [16]
00000000: 783c 213f d421 40bf 36ec a5bd 4637 3abd
00000010: 7b28 103d c07c 70be 75d5 9abe c5a8 58be
00000020: 6e45 43bc 5aa3 b33c 6da5 153f ba07 b4bd
00000030: 8399 41bd 825b 5f3e be96 9d3d 2ebd 683e
0.62982893 -0.7505162 -0.08101694 -0.04546287 0.035194855 -0.23485088 -0.3024098 -0.2115813
-0.011918409 0.021928478 0.58455545 -0.08790536 -0.04726554 0.21812251 0.076947674 0.22728416

layer2.bn.running_var f4 [16]
00000000: ada7 953e 43eb 723e 972a 833e 0e9e 8c3e
00000010: 8342 8e3e 8a9e c53d b6c2 163e 33a7 2b3e
00000020: 2d21 a03e c0d0 c73d 806b 943e dd94 723e
00000030: 4c13 b73e b75d af3e 1f97 8d3e 8f9a 6e3e
0.2922949 0.23722558 0.2561843 0.27464336 0.2778512 0.096493796 0.14722714 0.16763
0.3127531 0.09756613 0.28988266 0.236896 0.3575691 0.34251186 0.2765436 0.23301147

layer2.res.0.weight f4 [16, 8, 1, 1]
00000000: f860 de3e 3e42 b4be ee25 803c 5b90 25bd
00000010: 94e5 223d 35b3 0f3e 8a01 3dbd ce6b 5cbe
00000020: 0444 afbe 4d37 13bd 8425 98bd a75a 3abe
00000030: 5fd7 c5bd 5b08 85be 986e 443d f1da 963e
00000040: 9c02 41bc 92a6 8cbc 9c8b 143e 3131 1bbf
00000050: a105 6abe 385d 2dbe 3814 333e ac41 933e
00000060: 6229 1a3d 5674 193e a778 85be 539b cd3e
00000070: 188d 253e d5ad 323e 49e5 f93c cfa9 c0bd
00000080: f3f0 abbb 1149 963e 8745 d43d 9aed 03bb
00000090: 9b13 0e3d d9c6 fcbc 41ee 393d 0cb5 243e
000000a0: dd13 073e c0e9 19be a395 fa3d 97ea 1c3e
000000b0: 9a0e ed3e 71c9 38bd 807b c2bd 2e51 42be
000000c0: 9899 76bd 1cb0 22be 47eb f13d 74e1 d9be
000000d0: f359 a9be ff54 1bbe 4bf4 523e e0e4 263e
000000e0: 4452 b73d 5b67 cabd 2130 e23d dd1f b83d
000000f0: e731 9e3e 0481 babd a511 b5bd aa2f 11be
00000100: d23f d3bc ccdd ad3e 5471 2b3e 51dd 3f3d
00000110: 9278 72bd 6533 ccbc 69ff 6b3d d524 1f3e
00000120: d5d6 d93d 89a7 7d3e 755f 68be 7362 063e
00000130: 5be6 f43d df2a b93d 7bff 0bbe 546a 063f
00000140: 5049 963e 0070 39be 104e cb3d 842c bfbd
00000150: 63da 9bbc 7e7a 8c3d 75cd 8a3e a19d 54be
00000160: a601 7e3d 1440 b83e f238 3ebd 0927 7a3d
00000170: 7795 a33d 0f86 c53b 4668 85bd f1c2 2a3e
00000180: a5cf 163c 8939 053f 5dab 8c3e 543e efbb
00000190: 02e3 33bd 801b 91bd 1434 f33c 76ba f23d
000001a0: d601 043e 2ec0 5cbd d635 99be 4347 edbc
000001b0: a31e 56be d87a 943e c358 14be 980d 013d
000001c0: fd37 cb3d 456e 033e 2786 17be a512 ce3e
000001d0: 59d5 35be 2624 903e e244 623d c101 29be
000001e0: 627f 90bc b4c9 d73e 48ec 173e 361f b4bd
000001f0: d616 6bbe 0cdc 31bc dd97 40bd 270b 483e
0.43433356 -0.3520679 0.015643086 -0.04042087 0.039769724 0.14033206 -0.046144046 -0.21525499
-0.3423158 -0.03594141 -0.074290305 -0.18198644 -0.096602194 -0.25982937 0.047957033 0.29463914
-0.011780407 -0.01716927 0.14506382 -0.60621935 -0.2285371 -0.16930091 0.17488182 0.2876104
0.037637122 0.14985785 -0.26068613 0.40157565 0.16167104 0.17449124 0.03050484 -0.094073884
-0.0052472292 0.2935262 0.10364824 -0.0020130635 0.034686666 -0.030856537 0.045393232 0.16084689
0.13191171 -0.15030575 0.12235572 0.15323864 0.46300203 -0.045113984 -0.09496212 -0.1897628
-0.060205072 -0.15887493 0.11812454 -0.4255482 -0.33076438 -0.15169142 0.20601003 0.16298246
0.08951238 -0.09882995 0.11044336 0.089904524 0.30897447 -0.09106639 -0.08841256 -0.14178339
-0.025787268 0.3395828 0.1674245 0.046841923 -0.059197016 -0.02492685 0.057616625 0.15541394
0.10636679 0.24770941 -0.22692664 0.13123493 0.11957999 0.0904138 -0.13671677 0.52505994
0.29352808 -0.18109131 0.099269986 -0.093346626 -0.019025033 0.06859301 0.27109876 -0.20763256
0.06201329 0.35986388 -0.046441026 0.061072383 0.079874925 0.006027944 -0.06514029 0.16675927
0.00920478 0.52040917 0.2747449 -0.0073011313 -0.043917663 -0.07085323 0.029687919 0.11851971
0.12891325 -0.053894214 -0.29923886 -0.028964644 -0.20910124 0.28999972 -0.14486985 0.031507105
0.09922788 0.12835033 -0.14797269 0.402486 -0.17757167 0.2815258 0.055241473 -0.16504575
-0.017638866 0.42146075 0.14836228 -0.087950155 -0.2295793 -0.010855686 -0.047019828 0.19535504

layer2.res.0.bias f4 [16]
00000000: 2619 f339 df60 cbb8 ffc8 abb8 ff9d 7cb9
00000010: fd6a 93b9 46c7 1d37 e520 1c38 aac6 a3b7
00000020: 6b09 a038 b704 2239 069a 3fb8 9975 2eb8
00000030: 1ec3 2839 0303 c839 50df 67b8 d8e0 e1b8
0.0004636731 -9.697838e-05 -8.191354e-05 -0.00024091451 -0.00028117737 9.404326e-06 3.7223934e-05 -1.9523624e-05
7.631149e-05 0.0001545128 -4.5681394e-05 -4.1594354e-05 0.00016094415 0.00038149217 -5.5282668e-05 -0.000107707165

layer2.res.1.weight f4 [16]
00000000: 0d49 ad3f e7c3 7f3f 066e ab3f 6db3 aa3f
00000010: 2fc6 993f 2d83 b63f 9944 aa3f 3988 aa3f
00000020: 3776 953f 3f4e a83f e9f2 a13f 43fc a43f
00000030: c9ee 9e3f 455e 9f3f 898d a03f bfb3 983f
1.3537918 0.999083 1.3392951 1.3336006 1.2013606 1.4258782 1.3302184 1.3322822
1.1676701 1.3148879 1.2652255 1.2889484 1.2416621 1.2450644 1.2543193 1.1929854

layer2.res.1.bias f4 [16]
00000000: 6200 623e 6f72 2c3c bff3 873e 495d 283e
00000010: 1d87 0b3e 21d3 9b3e 202c 683e 61e5 843e
00000020: 0df4 b83d 3877 da3d 467f 273e 95a0 583c
00000030: ef70 f73d d90f 5e3e ff7c 353e 2981 963d
0.22070459 0.01052533 0.2655315 0.16441835 0.1362576 0.30434516 0.22673082 0.25956252
0.09030924 0.106672704 0.16357145 0.0132218795 0.12082087 0.21685733 0.17723463 0.07348854

layer2.res.1.running_mean f4 [16]
00000000: a70e 963e 70af e9be c68d e7bd c966 283e
00000010: a77a 033e 4064 f43d 47f5 15be 0eb5 1c3d
00000020: 4ec1 273e dd33 0b3e 20fe ad3e 304f ea3d
00000030: 70dd 5b3e e732 1b3d bafd 953e c191 b63d
0.29308054 -0.4564166 -0.11306338 0.1644546 0.12839757 0.11933184 -0.14644347 0.038258605
0.16382334 0.13594003 0.33982944 0.11440885 0.2147119 0.03789034 0.2929514 0.08914519

layer2.res.1.running_var f4 [16]
00000000: 5e2e f23d 54b8 903d fe82 2b3e cad9 a03d
00000010: 5808 753c 224d 6a3d 617c e33d 1ef8 0f3d
00000020: 4c18 b33c 0ed2 b43d 3f0f f43d 00e1 df3c
00000030: 2436 523d 6160 e83d 59f7 aa3d 7b1e fc3c
0.1182525 0.07066408 0.16749188 0.0785404 0.014955603 0.057202466 0.11107708 0.035148732
0.021862172 0.08829127 0.119169705 0.027328968 0.051321164 0.11346508 0.08347959 0.030776253

fc.weight f4 [5, 16]
00000000: f5e0 0c3d 363c e8bb f849 e33e 3394 cdbe
00000010: ccb4 343d 264c afbe ea73 1dbc 1306 25bf
00000020: 6988 4cbd f357 ff3d 98c6 5b3e 09e9 2fbe
00000030: 34cb 703d c116 213e 9399 94be 0977 1e3d
00000040: 7a1d 7ebe c498 f63d fdae bf3e 4b0d 2bbf
00000050: 3054 4d3e 2f6c fb3d 742c a13c 78e6 403e
00000060: cad1 d43e 6441 08bf 7210 313e 8899 64be
00000070: 6365 ab3e 35ec 3dbf 8267 16bf abd9 723e
00000080: 75da d7be b9d5 bcbe e741 04bf a74f 383e
00000090: 9620 663d cf7f bc3e 891e 43bf df9c 6b3e
000000a0: 12e2 80bd 697a 89be f6d7 c2be 9bab 133d
000000b0: e755 b4bd 4e8a c13e 9ec2 d93e 582f b2be
000000c0: 7590 ccbe 0c83 a73d 6ee0 9cbc 193f 9a3e
000000d0: b151 d23d 7d3c 22bf 071f 05be 7779 04bf
000000e0: caa2 af3e 3987 413e e3bd 03bf 6d2a ca3e
000000f0: e89c 223e 7b59 0bbe dae8 8a3e 4088 d43e
00000100: d4ae df3e 1f04 753e 7dd6 23be 416c 2b3d
00000110: 1e4b 32bf 8a75 0b3f 5ddb a6be 4358 ea3e
00000120: 5163 2abf 7151 8bbe 7fdc c73e b56c d3be
00000130: 3273 27bf ab6f 2fbd ca59 76bd 4a18 d3be
0.034394223 -0.007087256 0.4439237 -0.4015213 0.044117734 -0.34237784 -0.009610156 -0.64462394
-0.04993478 0.12467947 0.21462476 -0.1717874 0.05878754 0.15731336 -0.29023418 0.03868774
-0.24815932 0.120408565 0.37438193 -0.6681716 0.20051646 0.12276494 0.019674517 0.18837917
0.41566306 -0.5322478 0.1729143 -0.22324193 0.3347579 -0.7418855 -0.5875169 0.23715846
-0.42158857 -0.36881807 -0.5166306 0.17999135 0.05618342 0.3681626 -0.7621847 0.2300906
-0.062931195 -0.26851204 -0.3805539 0.036052328 -0.08805447 0.3780083 0.42531294 -0.34801745
-0.39953962 0.08179292 -0.019149985 0.30126265 0.10269488 -0.6337355 -0.13000117 -0.5174784
0.34303886 0.1889924 -0.5146162 0.39485493 0.15880167 -0.13608353 0.27130777 0.415102
0.4368807 0.23927353 -0.1599979 0.041851286 -0.6964587 0.54476225 -0.32589236 0.45770463
-0.66557795 -0.27210572 0.39035413 -0.41293874 -0.6541015 -0.042831104 -0.060144223 -0.4122947

fc.bias f4 [5]
00000000: b96c 3abe f25c 69be 82ad cb3c 9bf0 13be
00000010: 2144 29bd
-0.18205537 -0.22789362 0.024863008 -0.14447252 -0.04132474
